model/A3C_2_backup.pth (torch, 283023 bytes, 7 tensors)

critic_linear1.weight f4 [512, 63]
000000 82 f9 6c bd e8 b1 55 bd 3a e9 d6 3d a0 03 1e 3d
       -0.057855137 -0.052171618 0.10493703 0.038577676
000010 30 84 4b 3d f2 29 a1 3d b4 42 fe 3d 71 aa 85 3d
       0.04968661 0.078693286 0.12415066 0.0652665
000020 05 7b ad bc 9f ed a0 3c a0 63 0b bc 5e 26 a7 bd
       -0.021176824 0.019644557 -0.008507639 -0.08161615
000030 dd f5 ea 3d fb 2e 57 bd a6 e1 c7 bc f8 11 a1 3d
       0.11472676 -0.05253504 -0.02439959 0.078647554
000040 7b 84 ee 3d 06 5e b4 3b e4 48 4d bc 30 b5 7d 3d
       0.116463624 0.0055043725 -0.0125295855 0.061940372
000050 91 e3 2d 3e 36 31 88 3d d6 00 87 3d 8b a6 2a 3e
       0.16981341 0.06650011 0.06591956 0.16665094
000060 5a a0 5e 3d f5 c8 ce 3c 82 17 25 3d 81 8a 16 3e
       0.054352142 0.025242308 0.040305622 0.14701273
000070 c6 6e c9 3c f7 2b 3e 3e 99 09 9e 3d 77 6e 3c bd
       0.024588954 0.18571459 0.07716674 -0.046003785
000080 fd ee b4 3c be 09 55 3d 82 a0 09 3e 25 9c 96 3d
       0.022086615 0.052011244 0.13440135 0.07354001
000090 2f 52 58 bc 50 ac e4 3d 4e 1b 2e 3e 75 d7 ff bb
       -0.013203188 0.111656785 0.17002603 -0.007807667
0000a0 62 cf 13 3e fe 7c 61 3d 7f 6a b6 3d 47 ff 0b 3e
       0.14434579 0.055050842 0.08907031 0.136716
0000b0 2a b5 31 3e ae 5a d0 3d 19 62 38 3c cf c9 29 3e
       0.17354265 0.10173546 0.011253857 0.1658089
0000c0 a3 80 a2 3d 63 d1 aa bc 31 6a d4 bd c3 26 db 3d
       0.07934692 -0.020851796 -0.10371817 0.107007526
0000d0 d5 39 32 be 8c e0 c6 3d 0a bc 20 3e b2 53 f0 3d
       -0.17404874 0.09710798 0.15696731 0.117347136
0000e0 0c bd 2b be 60 a4 b4 3d c9 d8 24 3c 92 e6 80 bd
       -0.16771334 0.088204145 0.010061451 -0.06293978
0000f0 48 e8 a6 bd 88 9c ba 3c 45 cb 09 3e c9 da ee bd
       -0.08149773 0.022779718 0.13456447 -0.11662824
000100 aa 66 8f 3d 3f 12 44 3d bf 3c 42 3d 5a 42 52 3d
       0.070020035 0.047868963 0.047421213 0.05133281
000110 71 f2 5b 3b eb d3 c2 3d 6d 11 be 3d f6 c7 31 bd
       0.0033561254 0.095130764 0.092806675 -0.04340359
000120 a1 09 11 be 6c 06 50 bd 78 52 b7 3d 69 e8 a1 bd
       -0.1416383 -0.050787374 0.089512765 -0.07905657
000130 ff b1 29 bd 57 08 8a bc 89 e3 df bd ff f5 fd bd
       -0.041429516 -0.01684968 -0.10932071 -0.12400436
000140 e9 d0 67 3d 94 b5 69 3d 5b 26 b7 bd 88 f2 a6 3d
       0.056595717 0.057057932 -0.089428626 0.08151728
000150 3f 21 2d 3d 5d 38 3f ba ce 1c fa 3c 0f b2 03 be
       0.042268034 -0.00072944706 0.030531313 -0.12860893
000160 fd 53 11 3d 1f 54 77 bc bc 3c 73 bd 53 57 88 3d
       0.035480488 -0.01509574 -0.059384093 0.06657281
000170 73 35 f6 bb a9 bf 9d bd 7b c1 43 bd 1b 77 9d bd
       -0.007513696 -0.07702572 -0.04779194 -0.07688733
000180 a0 23 59 3b 50 8a 88 bd f7 20 e1 bd 0c f8 d8 bd
       0.0033132806 -0.06667006 -0.10992616 -0.10594186
000190 73 1a b9 bd 7a bc 63 bd c3 6d 06 bd 53 00 ea 3b
       -0.09038248 -0.055599667 -0.03281952 0.007141152
0001a0 1d 32 b1 3d 81 7c ab bd 75 ff 06 be 0f 1d d4 3c
       0.086521365 -0.083733566 -0.13183387 0.025892762
0001b0 40 97 ce bc da 7e dc bd 47 2c e1 bd 34 70 e9 bc
       -0.025218606 -0.107663825 -0.10994773 -0.028495885
0001c0 fe f9 ef bd 1c 76 47 3d 03 55 fd 3d 5d d7 8d bc
       -0.11717604 0.048696622 0.1236973 -0.017314607
0001d0 65 2e 80 3d 3a 54 83 bc 17 86 8e 3c e4 97 84 bd
       0.06258849 -0.016031373 0.017397923 -0.06474283
0001e0 32 c6 83 3d 10 ec 84 bd 6a 48 0e 3e 33 48 ec 3d
       0.06434287 -0.06490338 0.13894811 0.115372084
0001f0 37 cc a2 bd 4a b5 c8 bd 9e ca 6d bd d6 b2 de bc
       -0.07949107 -0.09800203 -0.05805456 -0.027184885
000200 17 50 c8 bd 3a 00 44 bc 45 2d 79 bd a4 3f a8 bd
       -0.09780901 -0.011962945 -0.060834188 -0.082152635
000210 e6 29 ef 3c e7 93 4f 3d 7f db 93 bd ab 7d 8b 3d
       0.029194783 0.05067816 -0.072196 0.06811079
000220 4f 1d 06 be bd 42 87 bd d2 24 ef bd bf a6 c3 bc
       -0.13097118 -0.06604526 -0.11676945 -0.023883222
000230 87 1a f7 3c 5a 8d 4e 3d ab a1 bf bd c1 a9 85 3c
       0.030164016 0.050427772 -0.093570076 0.016316297
000240 cc fd 45 3d e9 6b b6 bd 00 e3 ed bd f9 53 97 3d
       0.048337743 -0.08907301 -0.116155624 0.073890634
000250 65 2d b5 3d 91 37 a2 3d af 7e 23 3b 15 c0 b6 bd
       0.08846549 0.07920755 0.0024947335 -0.089233555
000260 3b d3 99 3c 90 cb 5d bb f7 b0 3c bc 04 2b af bd
       0.01877748 -0.0033843257 -0.011516801 -0.085531265
000270 aa e3 87 3d 2a 2c 6e bc f2 22 7a bd 06 27 2c 3b
       0.0663522 -0.014536897 -0.061068483 0.0026268377
000280 8f 6e dc bd f4 75 4f bd 30 bf c5 bd 6d 3f 66 3c
       -0.10763275 -0.0506496 -0.09655607 0.014053208
000290 d9 68 8d 3c 01 a0 91 3d 06 f2 01 bd a1 8e aa 3d
       0.01726191 0.071105964 -0.031724952 0.083279856
0002a0 b6 19 b7 bb 0d a0 0f bd 80 b9 44 3d 41 15 08 be
       -0.005587782 -0.035064746 0.04802847 -0.13289358
0002b0 24 e9 6a 3d 95 67 11 3d c1 56 22 ba d9 0a a2 bc
       0.057351246 0.035499174 -0.0006192737 -0.019780563
0002c0 cb 6b 93 bd 4d 2c e8 bb 8a 38 31 bc 90 db 3d bc
       -0.07198294 -0.007085359 -0.010816703 -0.011587992
0002d0 f5 c4 ca bd 6f 8d b7 bd 81 91 04 3e 52 58 93 3c
       -0.09900848 -0.08962523 0.1294613 0.01798645
0002e0 59 4d ce 3d 97 15 a1 bd 68 91 e4 3c 82 74 a1 bd
       0.10073347 -0.07865446 0.027901366 -0.0788355
0002f0 02 f1 96 3d c5 ac 83 bc ac 85 89 3d 1d 7a 1b bc
       0.07370187 -0.016073594 0.06714949 -0.009489563
000300 10 c5 b1 bd fd 4a cb bd 44 da df bd 59 cb b7 3d
       -0.08680165 -0.09926412 -0.10930303 0.08974332
000310 79 a7 5b 3d e7 9a 92 bd f6 8f 50 bd 1f 0c f4 bd
       0.05362651 -0.071584515 -0.05091854 -0.119163744
000320 bc 2a 93 3c 4b 5a 8b bd 59 42 e8 3d c6 b3 ad 3d
       0.017964713 -0.068043314 0.1134078 0.08481555
000330 2f 6f ad bc 1a a2 d4 bd a8 6e 65 bd 63 ce 9c 3d
       -0.02117118 -0.10382481 -0.056013733 0.07656553
000340 d3 a8 df bd ad 02 c8 bd d4 fc 88 bd 36 ac 6c bd
       -0.109208725 -0.09766135 -0.06688848 -0.05778142
000350 a7 0b 88 bc e8 17 ec 3d 88 3d a7 bd bf 14 08 be
       -0.016607119 0.11527997 -0.08166033 -0.13289164
000360 8a 25 bf bc 8b 88 8f 3d f5 62 af bd 3c 44 4c bb
       -0.02333333 0.070084654 -0.085637964 -0.00311686
000370 5c f0 db bc 24 d6 62 bd c3 f4 22 bd 54 e1 c1 bd
       -0.02684801 -0.05538 -0.039784204 -0.09466806
000380 b1 d5 07 3b d1 e4 91 3d 31 1c ac bd d9 2b 53 bd
       0.0020726735 0.071237214 -0.084038146 -0.05155549
000390 73 71 da 3b a1 ff 32 bd 8d 72 d5 3d a9 79 dc 3d
       0.006666356 -0.043700818 0.104222395 0.10765392
0003a0 d3 2f 30 bd 99 b6 fe bd 05 97 8d 3d f4 88 08 be
       -0.04301436 -0.124371715 0.0691357 -0.13333493
0003b0 92 f3 c4 bd 48 f7 9d bd 4a ef b4 3d 21 94 e9 3c
       -0.0961677 -0.07713181 0.08834703 0.028513016
0003c0 52 55 58 3d 0e c4 0d 3d 37 30 93 3d 60 2c 0d 3e
       0.052815743 0.0346108 0.071869306 0.13786459
0003d0 2a 98 43 3d 7c 7a 92 bb bf 2a f1 3d e4 37 f9 3d
       0.047752537 -0.0044701677 0.11775731 0.121688634
0003e0 54 98 ab bd 36 04 63 bd 18 93 fa 3c 58 31 c2 bb
       -0.08378664 -0.055423938 0.030587718 -0.0059262924
0003f0 07 94 e9 3d 23 b6 ff 3d 65 2c 62 bd 26 52 d3 3d
       0.11405187 0.12485912 -0.05521812 0.10318403

critic_linear1.bias f4 [512]
000000 72 f5 40 3e 6d bb f9 bd e7 1b 7a bd 65 e7 a2 bd
       0.1884363 -0.12193952 -0.061061766 -0.07954291
000010 5d 21 da 3d 75 a8 1b be d2 01 ac bb f2 10 f5 bd
       0.10650895 -0.1520098 -0.0052492404 -0.11966123
000020 33 01 19 bd e6 30 43 3e 22 0e 1a be 4f d6 9d 3d
       -0.03735466 0.19061622 -0.15044454 0.07706892
000030 8a 50 c4 bd 87 d8 97 3d 5b 34 7e 3d e9 ae 11 be
       -0.09585674 0.07414346 0.06206165 -0.14226879
000040 3e 56 52 bd 63 77 35 bd 6f 72 c0 3c fa 7b 38 bd
       -0.05135178 -0.04430331 0.023492066 -0.04504011
000050 c6 98 73 bd 36 12 21 3c 5c 4f 2d c3 be c3 63 3d
       -0.059471868 0.009831002 -173.31 0.055606596
000060 89 ae f4 3d c8 0f 9d bd 50 04 ba 3d 4b f1 35 43
       0.119473524 -0.07669026 0.09082854 181.94255
000070 38 45 bb bd e0 06 81 3d 14 ae 52 3d 61 e1 29 3d
       -0.09144062 0.063001394 0.051435545 0.041474704
000080 63 5c 82 bc f3 f5 c3 3d b6 4e da bd 79 a6 a6 bd
       -0.015913194 0.095683955 -0.10659544 -0.08137221
000090 2a 01 a5 3d 98 f9 de bd 69 a9 17 bd bd c4 cb 3d
       0.08056863 -0.1088745 -0.037026796 0.09949634
0000a0 26 1e c0 bd 61 aa 08 3d 3d 0e 59 3d 1f 87 a3 3c
       -0.0938075 0.03336561 0.052992094 0.019961892
0000b0 d3 7b d3 bd ec 0e 85 bc 10 c7 17 bd 73 3f 8e 3d
       -0.10326352 -0.016242467 -0.037055075 0.06945696
0000c0 95 e5 40 3d 6d 53 db 3c e0 7f 37 3e 3e 6a ad bd
       0.047093946 0.026773179 0.17919874 -0.0846753
0000d0 b7 49 de bc 7a 12 6b bd 68 40 2f 3e af 8e 56 bd
       -0.02713476 -0.057390667 0.17114413 -0.052382167
0000e0 ab a6 c1 bc 57 88 0c 3e bc bf 95 bd 40 fa 92 bd
       -0.023639044 0.13723885 -0.07311961 -0.07176638
0000f0 d7 96 c2 3d ed 38 96 3c ca 84 04 3d 84 e2 e8 3a
       0.09501427 0.018337691 0.0323532 0.0017767702
000100 c1 69 12 3d fd b9 71 bd 3f 39 bb bd 8d cd 6b bd
       0.035745386 -0.059015263 -0.09141778 -0.057569075
000110 12 7a 62 3e 5a d9 a1 3d f3 18 de 3d e3 bb 9e 42
       0.22116879 0.07902785 0.108446024 79.36697
000120 f5 cb da bc 84 b0 0e 3e 58 df ca 3b d7 c5 08 ba
       -0.026708582 0.13934523 0.0061911754 -0.0005217469
000130 c7 6c 88 3d 8c 84 26 bd e3 b0 02 bd b8 bf 27 3d
       0.06661373 -0.04065375 -0.031906974 0.04095432
000140 31 9b 8d 3a 77 57 f3 3d 09 1a 91 3d a5 26 99 bd
       0.0010803697 0.11881917 0.07085044 -0.07478074
000150 a1 4f f9 bc 2b af d0 3c ff e4 b4 3c 47 c6 c5 3c
       -0.030433478 0.025474152 0.02208185 0.024142398
000160 43 2b a2 bc 0a 11 96 3d 1b 3b 71 3d ad 43 6b bd
       -0.01979602 0.07327469 0.058894258 -0.057437588
000170 f8 3f 27 3e fb a3 4f bd 91 b4 e2 bb d0 ba fe 3d
       0.16332996 -0.050693493 -0.006918498 0.124379754
000180 ba 26 c6 3d fc ae 64 bd 60 e4 16 bc 08 3b 7b bd
       0.09675355 -0.05583094 -0.009209722 -0.061335593
000190 fa b4 80 3d 77 bf e7 bd c3 d1 1d 3e c5 72 40 bd
       0.062845185 -0.11315816 0.15412049 -0.046984453
0001a0 c7 e7 31 3e 49 e2 02 be 46 61 66 3d 7c 3a f6 bd
       0.17373572 -0.12781633 0.05624511 -0.12022874
0001b0 aa 6d a8 3d d9 71 29 bc 25 1e 37 bd a2 36 41 3a
       0.08224042 -0.010342085 -0.044706482 0.00073705066
0001c0 39 45 87 3d ca 3e 84 3d 22 b7 c4 3d b5 5f a8 bd
       0.06605 0.064572886 0.09605242 -0.0822138
0001d0 cb 97 db 3d f5 28 8e 3d bd 7a b2 bd 00 58 a2 bd
       0.107223116 0.06941406 -0.08714817 -0.07926941
0001e0 36 84 aa 3d dc a6 dd bd c6 c6 42 bd ac f5 b3 3d
       0.083259985 -0.108228415 -0.047552846 0.087870926
0001f0 5b 4d dc bd 6d f5 fe bc 54 e9 1e 3e fb ac 90 bd
       -0.10756942 -0.031122888 0.15518695 -0.070642434
000200 ab 7c 34 bc 8c 97 84 bd fe 66 ea bd 0e 2d f5 bc
       -0.011016051 -0.06474218 -0.114454255 -0.02992871
000210 06 b9 96 3a c3 18 96 3d 12 3e c0 3d 59 7f 9e bc
       0.0011499233 0.07328942 0.09386839 -0.019347833
000220 bf a8 88 bd 2d da 82 3c 42 cd 91 bd 54 c2 4a 3d
       -0.06672811 0.015973175 -0.07119228 0.049501732
000230 b8 55 1c 3d d2 9e 20 bd 27 bc 01 be b6 3a ae bd
       0.038167685 -0.039213963 -0.1266943 -0.08507292
000240 7b 91 84 3d d0 ab 02 be 1d 8a 6e bd d6 81 9d bb
       0.06473061 -0.12760854 -0.058237184 -0.0048067374
000250 a2 c0 fe 3d 9c a5 24 3d c4 a9 b1 bd 38 cd 27 bd
       0.124390855 0.040197 -0.08674958 -0.040967196
000260 3f d8 9a 3d 33 21 c8 bd 99 b6 cf 3d f4 8e 0c bd
       0.07560777 -0.09771957 0.101422496 -0.03431602
000270 d9 ad 45 3e 74 86 18 3d cd f7 f3 bd a2 b5 08 3d
       0.19304599 0.0372376 -0.119124986 0.033376344
000280 ad a1 da 3d 13 29 a0 3d 77 e7 01 3c 7e 6f d1 3d
       0.106753685 0.07820334 0.007928721 0.102263436
000290 10 f9 1d bd 95 19 7e 3d ed 66 a9 bc 82 9b 10 be
       -0.038567603 0.062036116 -0.020678962 -0.14121822
0002a0 69 4f 41 bd 58 8a 14 bd f5 dd 0c 3d ee a3 0a 3e
       -0.047194872 -0.036264747 0.034391362 0.13539097
0002b0 14 18 36 3e 9b fe 63 3c eb 14 da bd f4 e4 fa bd
       0.17782623 0.013915683 -0.10648521 -0.122507006
0002c0 2a 54 14 3d 34 c6 88 bd 30 da 78 3d b9 be 60 bd
       0.036213078 -0.06678429 0.060754955 -0.054869387
0002d0 dc 2d 1b 3e 55 7a fb c2 8c cb 04 be db f1 da 3d
       0.15154213 -125.73893 -0.12968272 0.106906615
0002e0 d6 50 08 3e 14 13 25 bd 1a 43 a3 3c 86 7f 1d 3e
       0.13312086 -0.040301397 0.019929457 0.15380678
0002f0 4a 98 1a 3e 19 25 c8 3d 96 c2 6b bd df 92 e9 bd
       0.15097156 0.09772701 -0.05755862 -0.114049666
000300 23 ae b7 3b 5e eb cb 3d b3 f7 51 bb c3 8c b1 bd
       0.0056054755 0.09957002 -0.003203851 -0.08669426
000310 62 e3 8a 3d 3f f8 1a 3c 81 5d c1 39 9e e0 b3 3d
       0.06781651 0.009458601 0.00036881494 0.08783077
000320 92 ef 19 43 a0 21 14 bd 22 0a c3 bd f4 ae 01 3d
       153.93582 -0.03616488 -0.09523417 0.03166099
000330 01 0a e6 3d 98 a8 ba 3d d8 84 c1 bd 33 17 1f 43
       0.11232377 0.09114188 -0.09449166 159.09062
000340 af 65 da 3d a9 f8 a8 bb ae 65 96 bd d7 1f 69 3d
       0.10663926 -0.0051565957 -0.073436126 0.05691513
000350 df 37 07 44 32 f4 0b 3d fa ff 4b bd 8e 7d a0 bd
       540.873 0.03416843 -0.049804665 -0.07836448
000360 ad e7 b0 bd d5 c2 ba bd f2 51 3b bd 90 e9 1d 3b
       -0.08637939 -0.091191925 -0.045732446 0.0024095513
000370 30 d1 4c bd 69 4b a3 3c 64 ec dd bd 81 f6 4b bd
       -0.050004184 0.01993342 -0.108361036 -0.04979563
000380 f0 ae 5d bd ba 2a 8e 3c b4 83 35 3d e3 25 ef bd
       -0.05412191 0.017354358 0.044315055 -0.11677148
000390 27 ec a3 3d 24 cb 43 3d ab 2c 70 3c a6 60 ce 3d
       0.08004027 0.047801152 0.014659087 0.10077028
0003a0 39 9c 89 bd 1f f3 12 be 3a b3 2a ba 5a 96 81 3c
       -0.0671925 -0.14350556 -0.0006511692 0.015818764
0003b0 7d 2a cb 3c 62 3a 3c c1 a0 2d 0f 3e 6c 41 63 bd
       0.024800533 -11.764254 0.13982248 -0.055482313
0003c0 c0 60 1e 3c 10 d0 1f bd 88 1c 29 3e c4 3b c8 3d
       0.009666622 -0.039016783 0.1651479 0.097770244
0003d0 d9 be 5a bd 55 ed 2b bc b8 4f b4 bd 92 a3 88 3c
       -0.053404663 -0.010493596 -0.08804268 0.016679559
0003e0 d4 b7 d9 bd c0 a6 f9 bc c6 b7 f0 3d ba 1a bb 44
       -0.106307656 -0.03047502 0.11753802 1496.8352
0003f0 82 17 23 3e 30 e7 84 3d e9 d0 09 be 40 43 cd 3d
       0.15926936 0.06489408 -0.13458599 0.100225925

critic_linear3.weight f4 [1, 512]
000000 1f a1 ab bd 35 8d ca 3b 49 0d e6 bb 92 91 9b 3b
       -0.08380341 0.006181384 -0.0070206267 0.004747578
000010 74 f3 da bd 96 86 79 bc e1 96 d1 bd 8b 7e 01 bc
       -0.10690966 -0.015229842 -0.10233856 -0.007903705
000020 bb a5 96 bd 3f f4 9e bd 38 17 77 bb b8 d5 e0 bb
       -0.07355829 -0.0776143 -0.0037703048 -0.0068614148
000030 44 13 18 bb 1e fc 8b bd 6d 54 c1 3c 9d a5 85 bb
       -0.0023204843 -0.06835197 0.023599828 -0.0040785805
000040 0a e3 a7 bd b1 75 90 bd b1 43 47 bc f1 6f b3 bd
       -0.08197601 -0.07053698 -0.012162135 -0.087615855
000050 f9 b1 3c 3d 74 75 01 bc 4f 1b c0 47 ec 02 08 bc
       0.046068165 -0.007901538 98358.62 -0.008301478
000060 c3 83 98 bd 5a 82 93 bb 5b 11 dd 3b d2 1e 61 45
       -0.074470066 -0.004501623 0.0067464537 3601.9263
000070 55 29 bd bc 08 46 89 bc ea f7 e4 bd 27 c2 c7 3c
       -0.023090998 -0.016757026 -0.11180098 0.024384571
000080 bf e1 74 bd 35 15 63 bc 5a 9e fc 3a e3 59 1f bc
       -0.0597856 -0.013860037 0.0019273267 -0.0097260205
000090 d3 49 a1 3b a4 4f db 3b e3 5b 0d 3b 42 1f bb bc
       0.0049221306 0.0066928435 0.0021569661 -0.022842053
0000a0 d1 09 d7 bd cf 19 ad bd 3e 3d 5d bc 5b 91 dc bd
       -0.10499919 -0.08452188 -0.013503371 -0.10769912
0000b0 67 3e 69 3b 8c 83 42 bd 19 87 04 3b 0f 59 f7 bd
       0.0035590173 -0.047488734 0.0020222126 -0.120775335
0000c0 4d 97 4b 3c 30 78 96 b9 46 d4 b4 bd ba a0 82 3a
       0.01242621 -0.00028699776 -0.088295504 0.0009966113
0000d0 31 af 97 bd 72 ab 3d ba 14 2b b5 bd 32 8c 2a bd
       -0.07406462 -0.0007235325 -0.08846107 -0.041637607
0000e0 2e 7a c1 bc 00 28 3a bd 89 ae a1 bc e0 99 fe bc
       -0.02361783 -0.045448303 -0.019736545 -0.031079233
0000f0 48 f7 ae bd 65 69 d1 3b 4e 96 47 bb cd 0c 41 3c
       -0.08543259 0.006390738 -0.0030454579 0.011782837
000100 cc ba e4 39 9e 6a 92 bd c0 95 a0 bb 10 6e b6 bd
       0.00043626723 -0.07149242 -0.004900664 -0.089077115
000110 f2 65 0d be 54 d1 e1 bc b9 59 06 be 5d 7b 09 47
       -0.1380842 -0.027565636 -0.13120164 35195.363
000120 74 20 c6 bd 39 43 75 bd 91 32 4c bc 79 a1 a2 bb
       -0.09674159 -0.05987856 -0.012463228 -0.0049630967
000130 1f 3f 80 bc 15 15 a4 bc 90 69 73 bb ff e8 1c 3c
       -0.015655098 -0.020029584 -0.0037141778 0.009577035
000140 c9 a0 99 ba 6c bf 67 bd 20 02 64 bc f5 59 f7 bb
       -0.0011720891 -0.05657904 -0.013916522 -0.0075485655
000150 77 ca b3 bc 4e a1 16 bc 0a 65 9d bd 2e d2 b6 bd
       -0.021947129 -0.0091937315 -0.07685287 -0.08926807
000160 e6 3d 4a bc ed fa b0 bd 28 0d a8 bd ec 4c 07 3d
       -0.012343859 -0.0864161 -0.08205634 0.033032343
000170 cd 44 ac bd 06 2e bc bc 93 d6 46 bd 40 8b ff bd
       -0.0841156 -0.022971164 -0.048544478 -0.12477732
000180 a1 06 9e bd 5c b1 4e 3c c5 6f da bd 6b dc ba bd
       -0.07716108 0.012615528 -0.106658496 -0.09124073
000190 1e 58 27 bc 84 4d a6 3c 93 93 01 be 24 47 38 3c
       -0.01021388 0.020300634 -0.12653951 0.01124743
0001a0 2d 1e a9 bd 5f b0 61 ba 91 24 61 ba dd 85 b9 bc
       -0.08257709 -0.000860935 -0.00085885177 -0.022646839
0001b0 b9 2d c7 3b 89 8f 9f bc 83 f3 19 bd 4a c5 b2 bd
       0.0060784486 -0.019477623 -0.037585746 -0.08729036
0001c0 8b ce 75 bc d6 b1 f1 3c a6 73 d3 bd 45 8b a2 bb
       -0.015002857 0.029503744 -0.103247926 -0.00496045
0001d0 e9 26 8a bd cb f8 ef bd d0 42 30 b9 73 b2 85 3d
       -0.06745703 -0.11717375 -0.00016809558 0.06528177
0001e0 60 28 b8 bb 0c 94 61 bc 58 0e d9 bd 11 e7 50 b9
       -0.0056200475 -0.013768207 -0.10598439 -0.00019922505
0001f0 52 b6 3e 3b 03 f8 bd bc f9 20 6b bd 87 19 19 bd
       0.002910037 -0.02318955 -0.057404492 -0.03737786
000200 38 cb ce bb a2 77 7a bd 27 c2 c5 3c a0 7c 22 3d
       -0.0063108467 -0.061149247 0.02414043 0.039669633
000210 5c 75 85 3c 41 a2 63 bc 75 37 85 bc be 92 88 bd
       0.016291313 -0.013893665 -0.016261796 -0.06668614
000220 f8 dc 36 b9 bd 49 8e bc 9b 35 37 bd cd 42 8b bc
       -0.0001743919 -0.017369146 -0.044728857 -0.016999627
000230 09 b5 8f bd 35 13 49 bc be e1 0a ba 59 cb b2 b9
       -0.070169516 -0.012272646 -0.00052979204 -0.00034102311
000240 fe 9a a6 bc 74 dc 23 3d 16 9d 92 bb cc 7e 6a bd
       -0.020337578 0.040005162 -0.0044742925 -0.05724983
000250 6f 30 c8 bd 92 4d 25 3d eb 1a 17 bd 3f 4e 92 bd
       -0.09774863 0.04035718 -0.036890905 -0.071438305
000260 6e b5 00 bc b5 97 e9 3b 4e 64 6e bb ff 6b d5 bc
       -0.007855756 0.0071286806 -0.0036375704 -0.026052473
000270 e1 e1 c0 bd 8d 4d 0d bc e9 bd 61 bb 65 c9 28 3c
       -0.09418083 -0.008624447 -0.003444547 0.010301922
000280 fb fc e5 bd 2e 24 2a bc a8 23 2e ba 2d 39 6f bb
       -0.11229893 -0.0103846025 -0.00066428864 -0.0036502585
000290 0a a1 ba 3c e1 58 eb 39 f2 f7 e0 bb 1a 3b f4 b9
       0.022781868 0.00044888913 -0.006865495 -0.0004658334
0002a0 da e5 03 bd 08 40 a6 bd 41 af cb bc 99 14 42 3d
       -0.032201625 -0.08117682 -0.024863841 0.047382925
0002b0 f2 e3 4e bd 15 a3 f3 bd 5c 82 68 b9 9e e9 bb 3c
       -0.050510354 -0.1189634 -0.00022173807 0.022938546
0002c0 eb 37 08 3d 22 69 e1 bc 0b 94 98 3c a0 a7 90 bb
       0.033256453 -0.027515952 0.01862528 -0.0044145137
0002d0 db 37 e0 bd 47 69 0e 46 c0 b1 c6 ba 0a 83 d8 bc
       -0.109481536 9114.319 -0.0015159175 -0.026429672
0002e0 89 b0 96 bd 9b 55 d9 bc 77 26 dd bc ee 79 07 be
       -0.0735789 -0.026530078 -0.02699588 -0.13230106
0002f0 05 0e 81 bd 26 87 ce bd f0 27 f9 ba 92 2f f9 bb
       -0.06301502 -0.10084371 -0.0019009095 -0.007604548
000300 52 2b a9 bd 39 3b d1 bd db 7d ff bd 83 7a e6 bc
       -0.08260216 -0.10216374 -0.12475177 -0.02813459
000310 91 76 5a 3c 13 a4 1f 3c fc 00 a9 3b d9 76 85 bc
       0.0133339325 0.009743708 0.005157588 -0.016292023
000320 01 e6 71 45 5d 15 f5 bb e6 57 a2 3b 84 1d 93 bd
       3870.3752 -0.0074793533 0.004954326 -0.07183364
000330 a9 d2 e6 bd d2 eb ae bd 6e af 00 3d a2 20 8a 45
       -0.11270649 -0.08541073 0.031417303 4420.079
000340 5b 7f b4 bd f0 e6 8c bd c1 00 8a bd 05 99 64 36
       -0.08813354 -0.06879985 -0.06738425 3.4063717e-06
000350 fe 7b 61 45 87 e6 de bb 02 0b a0 3c 61 a3 22 3d
       3607.7495 -0.0068023833 0.019536499 0.03970659
000360 3f 9d 52 3c d3 f0 ab 3c 9d 21 f5 3c 81 8f c6 bb
       0.012854873 0.020988857 0.029923255 -0.0060595875
000370 d0 11 b3 bc 96 2e 80 3c 98 ab a0 bc 1d e8 89 bb
       -0.02185908 0.015647214 -0.019613072 -0.0042085783
000380 5c a7 14 bc 16 8e 54 bd 8d b1 be 3c 36 5a aa bb
       -0.009073105 -0.051893316 0.023278022 -0.0051987423
000390 c0 6b 9d bd 6c b2 b5 bd a9 9e 12 3d 17 12 16 bc
       -0.07686567 -0.08871922 0.03579584 -0.009159586
0003a0 1d e6 ca 3a 98 64 2c ba f5 6a 91 3a 8a ce 2f 3c
       0.0015479956 -0.0006576269 0.0011094498 0.010730395
0003b0 44 eb c5 bb 84 aa ff 43 7b 0f a0 bd e7 07 9a bd
       -0.0060400087 511.33215 -0.07815453 -0.075210385
0003c0 30 a1 f4 bc f2 83 90 bb 23 65 8d bd 48 0c 80 3b
       -0.029862016 -0.0044102604 -0.06904056 0.003907714
0003d0 7e 4c aa b8 be 7b bc bd 36 7e 48 bd 34 bf 40 bd
       -8.1204795e-05 -0.092032894 -0.04894849 -0.047057346
0003e0 a9 de 51 3b 11 bb a8 ba 71 82 a4 bd 14 2f 43 46
       0.0032023585 -0.0012873133 -0.08032692 12491.77
0003f0 de 7d 93 bd b9 34 3c bc 0f d4 84 b9 f9 fe 72 bd
       -0.07201742 -0.011487179 -0.00025334998 -0.059325192

actor_linear1.weight f4 [512, 63]
000000 9a 19 ca bc e2 f1 a2 bd 5b ac c3 3c 3c 9c 4e bd
       -0.02467041 -0.07956292 0.023885896 -0.050441965
000010 60 9b 62 3d a2 ae 88 bd 77 55 88 3d 14 c9 03 be
       0.05532396 -0.066739336 0.06656926 -0.12869674
000020 c7 d8 11 be 62 ce a1 3d 05 ee 27 3d 2f c6 4b bd
       -0.1424285 0.079006925 0.040998477 -0.04974955
000030 28 23 84 3c b4 60 df bd e4 a1 31 3d 22 74 5d 3d
       0.016130045 -0.109071165 0.04336728 0.05406583
000040 c6 49 a8 3c f5 a8 23 bd 1b a1 31 bc a7 40 3d bd
       0.02054299 -0.03995605 -0.010841633 -0.046204235
000050 62 b2 8b bd 1c 62 6f bd 72 de f7 bc 60 76 5c bd
       -0.06821133 -0.058443174 -0.030257437 -0.05382383
000060 d7 a0 e1 bd 1f 3a 87 bd 0f 7c 0c be 5a b5 96 bd
       -0.11017006 -0.066028826 -0.137192 -0.07358809
000070 31 f6 e4 bb ec 83 9c bc 5f 8b 8a bd 74 84 c7 3d
       -0.006987356 -0.019105874 -0.06764864 0.0974206
000080 f5 e0 14 be a7 94 17 be 74 25 86 3c 8d ad f9 3c
       -0.1453894 -0.148028 0.01637528 0.030478263
000090 e7 64 91 bd cb f4 90 bd 53 52 bd bd 49 30 78 bd
       -0.07099324 -0.070779406 -0.09244218 -0.060592923
0000a0 7d 0b 00 3a 9f fa 12 be b1 a5 9b 3d 01 d6 2f bd
       0.00048845244 -0.14353417 0.075999625 -0.0429287
0000b0 c5 36 ec bd 34 ed b0 bd 78 97 ea bc ae 03 d6 3b
       -0.11533884 -0.08638993 -0.028636679 0.0065312004
0000c0 be 5d 01 bd 58 07 c7 3c d8 7c a7 bd cb fc f6 bd
       -0.03158354 0.024295494 -0.08178109 -0.12059935
0000d0 5b 32 7d bd cf 35 30 b9 a3 27 f9 bd a1 9e 9c bd
       -0.0618156 -0.00016804713 -0.12165763 -0.076474436
0000e0 9d 4b ec bd 85 9b bf 3d b9 e1 96 3d 79 33 ec bc
       -0.115378596 0.09355835 0.07367272 -0.028833138
0000f0 62 e6 9a 3d 2d 8d 92 3d ff 34 24 bd 02 c9 37 be
       0.07563473 0.071558334 -0.040089604 -0.17947772
000100 a9 e4 9b 3d a5 81 d5 bb 50 d1 23 3d 90 4e b4 3d
       0.07611973 -0.006515699 0.039994538 0.08804047
000110 a2 4e 96 3d c2 f5 78 3d b4 89 1e 3d bf da ad 3d
       0.07339217 0.060781248 0.038705543 0.08488988
000120 c5 e9 a9 bd 66 22 18 be 7b 4c 43 bd 8b 7e 9e 3d
       -0.08296541 -0.14856872 -0.04768036 0.0773898
000130 cb 1b 2c bd 81 9b f6 3c 5d e5 a1 3c 87 50 19 3c
       -0.042018693 0.030103447 0.01976269 0.009357578
000140 8d f1 da bd 18 a8 99 bd b1 88 f1 bc 19 de bc bb
       -0.106906034 -0.075027645 -0.029484125 -0.005763781
000150 65 f0 e8 bc 3b 5f da 3d 29 f8 c8 bd 40 f1 86 bd
       -0.028434942 0.10662695 -0.09812958 -0.065889835
000160 9a 88 ce bd dc 94 5c bd 3e 3f 44 3d 4e 34 0f bd
       -0.100846484 -0.0538529 0.047911875 -0.03496199
000170 06 75 cb 3d e4 4e 0e bd 7a 13 b3 3d d8 f5 93 bc
       0.0993443 -0.034743205 0.08743949 -0.018061563
000180 a9 4e b1 3c a9 71 b5 bd ff 2e 4f 3d 73 64 57 3d
       0.021643953 -0.088595696 0.05058193 0.05258603
000190 56 a5 af bd 44 31 bc 3d d4 77 4c 3d 49 34 04 bd
       -0.08576457 0.09189084 0.049918965 -0.032276426
0001a0 0a f5 4e be 14 0a 8b be a7 d6 9f be 41 1a c6 be
       -0.20210662 -0.27156126 -0.31218454 -0.38691905
0001b0 bb 4b 79 be 0a 16 de be d6 15 b5 be ee 68 cc be
       -0.24345295 -0.4337619 -0.35368222 -0.39923805
0001c0 19 67 35 be 8d 91 10 3c 71 01 a0 bd e4 c4 64 be
       -0.1771511 0.0088237645 -0.07812775 -0.22340733
0001d0 b1 52 65 be a9 ef 54 be 8f 7f eb bd 0f c7 c8 3c
       -0.22394826 -0.20794548 -0.11498939 0.024508981
0001e0 22 eb 0e 3e 4d 85 08 3e 7a bd 2c 3f 4c 03 15 be
       0.13956884 0.133321 0.6747662 -0.14552039
0001f0 bb e1 de bd ef 7b ff bb 96 b8 3b bb 96 7f 04 be
       -0.108828984 -0.0077967565 -0.0028643957 -0.12939295
000200 78 9f 17 be bd a6 86 3d 9b 5b 9a 3d dc 02 76 bd
       -0.14806926 0.065747716 0.075370036 -0.06006132
000210 f9 46 e3 bd b1 28 81 bd 8a 98 68 bd b5 0c 12 be
       -0.11097521 -0.063065894 -0.056786098 -0.1426266
000220 80 34 99 3d 7a d7 b0 3b 76 5a 2a be cb cc f9 bc
       0.07480717 0.0053967806 -0.1663607 -0.03049316
000230 87 9d c8 bd 91 ec 8f bd 1b 6f 85 bc b6 83 2c be
       -0.09795671 -0.07027543 -0.01628833 -0.16847119
000240 ec a2 39 bd 6f 78 9d 3b 65 5b 11 bb 61 36 b1 3c
       -0.04532139 0.0048056166 -0.002217972 0.021632375
000250 6a 10 01 be d6 5a e6 bb cd 5f 20 bd e7 43 08 be
       -0.12603918 -0.0070298715 -0.039153863 -0.13307153
000260 c6 1b e3 bd 86 e8 6a 3d 14 2d cc 3d fb cb 22 bd
       -0.11089282 0.057350658 0.099695355 -0.039745312
000270 06 6e fb bd 1c 31 01 be c1 85 3d be 58 0b a5 bd
       -0.12276845 -0.1261639 -0.18508054 -0.08058804
000280 73 4d 2e bd 50 3c 2a be 6d b4 38 3d d8 f7 5e 3b
       -0.04255433 -0.1662457 0.045093942 0.0034022238
000290 8f 07 3f bc 91 5e ae 3d 03 b0 82 3d ab 10 c4 bd
       -0.011659517 0.08514131 0.06381228 -0.09573492
0002a0 fe e3 74 bc 8e 5a d0 3d 09 20 2e 3c 8d fc 83 3a
       -0.014946936 0.10173522 0.010627755 0.0010069773
0002b0 f4 02 ad 3d 12 a9 1b be 59 45 4f bd 2b b4 ba 3d
       0.08447829 -0.15201214 -0.050603244 0.091163956
0002c0 15 de ec 3d c5 82 be bd 54 5b 9d 3d 3c 7b 14 3e
       0.11565796 -0.09302286 0.07683435 0.14500135
0002d0 32 f6 06 be 28 4a 3e bc af 6e 88 3d c0 49 07 3e
       -0.13179854 -0.01161436 0.06661736 0.13211727
0002e0 55 ba 80 bd 32 09 8c 3d ca 90 08 bd 84 70 ce bd
       -0.0628554 0.06837691 -0.033341207 -0.100800544
0002f0 7c d4 a5 bd 40 4a 81 bd bb 55 db bd 4c 5c bd bd
       -0.08097169 -0.0631299 -0.10709711 -0.0924612
000300 86 aa 29 bd 1a 0e 48 be d5 35 2e be 99 ad 24 3d
       -0.04142239 -0.1953663 -0.17012723 0.040204618
000310 4b 84 25 bc 03 0d 7c 3d 23 b7 43 bd c5 e9 40 3b
       -0.010102342 0.061535846 -0.047782075 0.0029436212
000320 3a 67 c4 b9 63 15 dc 3d 1f 6b d2 bd 92 97 5d 3c
       -0.00037460943 0.10746267 -0.10274338 0.013524907
000330 27 98 97 bb a6 1b fd 3c 06 cc 09 3e ee 4c ca bd
       -0.0046262923 0.030896973 0.13456735 -0.098779544
000340 03 d7 32 bd 03 00 41 3d b4 a0 cb bc 0c 40 3a 3d
       -0.043662082 0.04711915 -0.024856903 0.045471236
000350 1b 93 24 bc 69 21 4c 3d a9 f1 f0 bd bc 12 9f 3d
       -0.010044838 0.04983655 -0.11764843 0.07767245
000360 0c 97 3a be 39 34 36 be 60 48 57 bd f0 cc cf bd
       -0.18221682 -0.17793359 -0.052559257 -0.101465106
000370 30 e3 ff 3c 86 22 2e 3d c8 29 f6 3c fd 72 f7 bd
       0.031236261 0.042513393 0.03004922 -0.12082479
000380 b6 1e b8 bd 6c c9 0f be e9 c0 f7 bd 38 c4 cb bd
       -0.08990233 -0.1404168 -0.120973416 -0.09949535
000390 c1 4b c3 bb 69 a1 5f be be 17 5d be 6f 92 4e be
       -0.0059599583 -0.21838917 -0.21591088 -0.20173047
0003a0 d7 3e 09 be d3 da fb bd 5d 15 a8 bc 81 6e 60 3c
       -0.13402878 -0.12297597 -0.020518 0.013698221
0003b0 b8 73 c3 bb 41 35 0d be 2e 2a c4 bd 48 51 8f 3c
       -0.0059647225 -0.13789846 -0.09578358 0.017494813
0003c0 41 2c 32 be c2 e1 3f bc fb cc a4 be 8a 77 82 3d
       -0.17399694 -0.01171154 -0.32187638 0.063704565
0003d0 81 85 05 3d a2 cc a6 3d ac 6f af 3d e1 5f 55 bd
       0.032598022 0.08144499 0.085662216 -0.05209339
0003e0 59 2b 73 3e 72 a5 5d 3d 06 71 7b 3c 3e 80 98 3d
       0.23747005 0.05411286 0.015346771 0.07446335
0003f0 a9 f2 6e be be d5 9d be 48 e9 45 be a0 aa a2 bd
       -0.23334755 -0.30827135 -0.19327271 -0.079427004

actor_linear1.bias f4 [512]
000000 e4 cb 5f bd 16 c1 06 bd 04 0e c5 bc 17 d4 38 bd
       -0.054637805 -0.032898985 -0.024054535 -0.04512414
000010 11 3e 99 bc 5d 84 9d bd 4c 54 15 be d5 5d 09 3c
       -0.018706353 -0.07691262 -0.14582938 0.008384188
000020 d4 fc b3 3c 4b d8 c6 bd 6e 75 25 3d 7b 03 07 be
       0.021971144 -0.09709223 0.040395193 -0.13184921
000030 35 ba 0f be cc 8f 1c 37 50 64 9a 3d e2 21 6a 3d
       -0.14035876 9.331805e-06 0.07538664 0.05716122
000040 5d 88 15 be cc 78 7c 3d ac 45 a4 3d b5 fa 41 3d
       -0.146028 0.06163864 0.08021101 0.047358233
000050 66 24 8e 3d d3 c3 bb bd 2a 25 24 be 65 53 67 bd
       0.06940536 -0.0916821 -0.16029802 -0.056476016
000060 ab 85 f3 bd ff 69 6c 3d f1 f9 ef bc 32 25 1c bd
       -0.118907295 0.057718273 -0.029293986 -0.03812141
000070 ae 0e 9d 3d 92 64 b0 3d 84 0a 48 bd 99 ff 1b be
       0.076688156 0.08612932 -0.048838153 -0.15234222
000080 92 37 d1 bc c6 41 e5 bd a3 c8 e6 ca 45 a2 9a bd
       -0.025539193 -0.11194186 -7.5623215e+06 -0.07550482
000090 a2 99 6a bd c0 1e 57 3d 6d 7c 9b bd 84 3a ba 3d
       -0.057275422 0.05251956 -0.07592092 0.09093192
0000a0 87 bc 12 bd 9e 3a f7 bc 26 1f d9 3b 03 66 f3 bd
       -0.035824325 -0.030179318 0.0066260276 -0.118846916
0000b0 e9 bf 54 3c 1e a9 2f be 2d 6a 0a be 1e 8c 22 be
       0.012985208 -0.17154357 -0.13517065 -0.15873763
0000c0 e7 42 15 be bd 13 10 be 19 1b 3a bd 79 1f 06 3c
       -0.14576302 -0.1407003 -0.045436 0.008186215
0000d0 65 c5 35 be 2e 9a 95 3d 8f e5 2b be e1 d8 11 be
       -0.17751081 0.07304798 -0.16786788 -0.14242889
0000e0 83 03 d1 bd 79 1a ed 3c e3 37 ba bd 9b c9 5a 3d
       -0.10205748 0.028943287 -0.09092691 0.053414922
0000f0 15 66 00 be e5 6f b2 bc 05 48 66 bd ae 22 20 be
       -0.12538941 -0.021781871 -0.056221027 -0.15638229
000100 56 63 4d 3d 77 ac ce bc 91 4b 28 3d d4 fe 02 be
       0.050143562 -0.025228722 0.04108769 -0.12792522
000110 92 de e9 bd 44 80 23 3d e5 08 3e be 72 8a 2b bd
       -0.11419405 0.039917246 -0.1855808 -0.04188008
000120 bc 53 f8 bb 76 ad 16 bd 88 cd 25 bc 37 22 bc bd
       -0.0075783413 -0.03678652 -0.010119803 -0.091862135
000130 38 47 86 bd 4c d0 75 bc fa 07 1e 3d 0c 70 66 3c
       -0.06556553 -0.015003275 0.038581826 0.0140648
000140 cd 71 03 be 99 f2 0a be 34 3a c2 bc 7e 03 b6 3c
       -0.1283638 -0.13569106 -0.023709394 0.022218462
000150 ee e8 2f be 9d 8f 05 be 33 b5 bf 3c 02 01 87 bd
       -0.171787 -0.13043065 0.023401832 -0.06591989
000160 dc 2a 2b 3c f7 6a fe bd e2 e9 8d 3d 30 f6 1f bd
       0.01044723 -0.12422746 0.06929375 -0.039053142
000170 69 cb 64 bd 9f b2 16 be f1 85 b9 bd c1 62 0a 3d
       -0.05585805 -0.14716576 -0.090587504 0.033785585
000180 b9 e6 df bd 87 94 0c be 61 7d c1 3c 54 9c b0 bc
       -0.10932679 -0.13728534 0.023619356 -0.021558918
000190 90 ec 2a bd 25 5b 05 be 1e fc b0 3a d2 20 3b 3c
       -0.04172951 -0.1302305 0.0013502871 0.011421399
0001a0 e3 bf b8 bd f7 da 1b 3d f9 6e 61 bd 6f e9 93 3d
       -0.090209745 0.038050618 -0.055037472 0.07222258
0001b0 a0 ba 8a bc 38 d8 13 be 8a 94 c4 3d 4b ec 2c bc
       -0.016934693 -0.1443795 0.09598644 -0.0105543835
0001c0 7f 83 63 3d e1 c7 06 be 73 46 01 be d5 ca c0 3d
       0.055545326 -0.13162185 -0.1262453 0.09413687
0001d0 e0 ff 04 3d 33 ab 3a bd e2 ec ac bd 5d 5e c2 bd
       0.032470584 -0.045573425 -0.08443619 -0.094906546
0001e0 ee 64 57 bd 60 21 10 be be be 14 be 7e 8f f5 bc
       -0.05258649 -0.14075232 -0.14525887 -0.029975649
0001f0 7c a4 13 be b8 af 6d 3b cb 21 94 3d 7c e0 77 bd
       -0.14418215 0.0036268067 0.07233008 -0.06051682
000200 f1 7a 8b 3c 57 7d d7 bc 17 8c 54 bc 11 8f a1 bd
       0.017026396 -0.026304884 -0.012972853 -0.07888616
000210 31 cb c1 3a b4 44 f4 3c fc 77 31 bd 92 d9 f2 3c
       0.0014785287 0.029817916 -0.043327317 0.029644761
000220 a7 7c 22 be 91 e1 33 be be 8f e3 bd d4 16 26 be
       -0.15867864 -0.17566516 -0.11111401 -0.16219646
000230 71 5b b1 bd f6 7a 2e bd 02 3e 86 3d f5 d0 4e be
       -0.08660019 -0.042597733 0.06554796 -0.20196898
000240 08 ae 1c be 35 e1 82 bd ee 2e 49 3c 00 82 00 be
       -0.15300763 -0.06390611 0.012279255 -0.12549591
000250 4d 43 0c be 82 cc 5c 3c b3 ff 0b be de 9c c0 3d
       -0.13697548 0.013476493 -0.1367176 0.0940492
000260 fb 8b 39 be f0 36 f5 bd 93 c3 d3 bd c1 24 03 3c
       -0.18119805 -0.11973369 -0.10340037 0.008004368
000270 62 e5 35 bd a3 e0 49 3b 6c 01 25 3d c9 ad 81 3d
       -0.04440821 0.003080406 0.04028456 0.06331975
000280 67 b5 f1 bd de 7c ed 3c f8 6a ed bb cf c4 be bd
       -0.11802178 0.028990205 -0.0072454177 -0.09314882
000290 38 a8 20 3d 31 83 a8 3d 12 2b e0 bd 4e 43 45 3d
       0.039222926 0.08228148 -0.10945715 0.04815989
0002a0 34 be 37 3d 28 fa 88 3d d1 59 29 bd 12 7c 12 3c
       0.044859126 0.066883385 -0.04134542 0.0089407135
0002b0 66 45 16 be 1e 78 ca 3d 40 77 58 3d 18 93 92 bb
       -0.14674911 0.09886192 0.0528481 -0.0044731013
0002c0 37 62 81 bd af e3 92 bd 1d 2b 82 bd e6 9e d9 bc
       -0.06317561 -0.071723334 -0.063558795 -0.026565026
0002d0 dd a7 f8 bd f0 77 be bd 3d d0 e5 bd 26 6d 1d be
       -0.121413924 -0.0930022 -0.11221359 -0.15373668
0002e0 d9 b8 1a be ed 7f 18 be 3a 35 bf bd d6 25 6e bd
       -0.15109576 -0.1489255 -0.09336324 -0.058141552
0002f0 bc 48 02 be 73 fa 24 bd d4 4c 95 39 3c a3 20 be
       -0.12723058 -0.04027791 0.00028476736 -0.15687269
000300 7d ec 12 be e5 9e 9c bd 8e 78 20 3c b7 80 b4 bd
       -0.14348026 -0.07647494 0.0097943675 -0.08813613
000310 9f 3b 02 be 05 51 47 bd e2 1b aa bd 38 6c 40 be
       -0.12718056 -0.04866125 -0.083060995 -0.18791282
000320 4d 47 85 bc 6d 6c 31 be cb cd ad bd f9 3c 06 cc
       -0.01626935 -0.17326517 -0.084865175 -3.5189732e+07
000330 2c 23 f1 bd f5 60 fd bd 11 5d 1a be 67 8a f9 bd
       -0.11774287 -0.12372009 -0.15074565 -0.12184601
000340 a1 7f 0f 3d 22 cb 23 bb 87 40 97 bd 2a 04 83 3d
       0.035033826 -0.0024992903 -0.073853545 0.063972786
000350 a8 9a b6 bd a9 7e 8c 3d 50 a9 bb bc d1 eb f4 bd
       -0.08916217 0.06860096 -0.022907883 -0.11959041
000360 0b 14 5e bd fd ef aa 3d 9c af c8 3c 9e fe 9e bd
       -0.054218333 0.083465554 0.0244978 -0.07763408
000370 c8 34 f0 bd 8c 1d fb bd 5c 41 2a be ad aa e2 bd
       -0.11728817 -0.12261495 -0.16626495 -0.1106771
000380 4b ac 1b 3d 01 96 c3 bc 9c 5c b9 bd 73 9c 5f bd
       0.03800611 -0.023875238 -0.09050867 -0.05459256
000390 44 3b 98 3d da ad 03 be 85 bc 1b be e0 1e 33 3c
       0.07433179 -0.12859288 -0.15208633 0.010932654
0003a0 d2 bb 07 bd 8d a9 24 bd 33 63 34 3d c4 34 56 bd
       -0.033138104 -0.04020076 0.044039916 -0.052296415
0003b0 f8 04 87 3d e7 77 aa bd ed f4 e4 bd 8e 3d eb 3a
       0.065927446 -0.08323651 -0.111795284 0.0017947422
0003c0 4f b2 03 be e5 28 82 bb e7 d4 57 bd bb e1 9a bd
       -0.12860988 -0.00397216 -0.052693274 -0.07562586
0003d0 19 e2 9b 3d 7f 60 9f 3d 0e f6 68 bd 82 ca ae bd
       0.07611484 0.07782077 -0.05687528 -0.08534719
0003e0 b4 a6 74 bd 37 1d 4c 3d 2b 81 1b bd cb d2 b9 bc
       -0.059729293 0.04983255 -0.03796498 -0.022683522
0003f0 02 e8 0e be bf 19 c5 bd 94 e9 15 3d 6e 97 03 be
       -0.13955691 -0.09624051 0.03659971 -0.12850735

actor_linear3.weight f4 [8, 512]
000000 f5 df 51 bb 72 87 2d 3e 72 2b d5 3d ae fa 8b 3d
       -0.0032024358 0.169462 0.10408677 0.06834923
000010 21 be 35 3e 45 a0 8f bd 70 47 05 3e ed 41 e3 3d
       0.1774831 -0.07012991 0.13015532 0.11096559
000020 b7 a6 29 3d 23 8d 1f 3d 74 05 c8 3c 04 90 d0 3d
       0.041418757 0.038952958 0.024416663 0.10183719
000030 f9 ec fe 3d 1b c5 22 3d 30 bc e4 3d 77 af 0c 3e
       0.12447543 0.039738756 0.111687064 0.1373881
000040 2c 0f 61 bc 24 c6 0e bd 8d b1 9e 3c ea 9b 13 3e
       -0.013736527 -0.03485693 0.019371772 0.14414945
000050 48 b6 cf 3d 59 89 d2 3d 4c d6 1f 3e 46 25 88 bc
       0.10142189 0.10280103 0.15609092 -0.016619336
000060 c5 cf 83 3d 19 8d b8 3c 48 cf 28 3d da ff 0f 3e
       0.06436113 0.022528218 0.041213304 0.14062443
000070 71 82 16 3e ef ca 28 3e d5 4d d8 3c f6 c8 f5 ba
       0.14698197 0.16483663 0.0264043 -0.0018751908
000080 25 65 30 3d 06 d0 52 bc 57 21 2a 4b 05 f7 06 3d
       0.04306521 -0.012866979 1.1149655e+07 0.03295042
000090 5d 36 2a 3d e2 bd 9c 3d 7d 8b 6a 3d f5 32 f1 3a
       0.04155575 0.07653405 0.057261933 0.0018402027
0000a0 10 79 9c bc 54 f0 a6 ba 13 92 37 3d 45 1e 0c 3e
       -0.019100696 -0.0012736418 0.04481704 0.13683422
0000b0 17 bc 3b 3d cb 07 c9 3c c0 64 b4 bc 06 9b 77 3d
       0.045833673 0.024539849 -0.022020698 0.060450576
0000c0 04 6a be 3d f9 d6 31 3d c4 5f 3a 3c b2 99 a7 3c
       0.092975646 0.043417905 0.011375371 0.02045903
0000d0 75 f4 13 3e 6e 50 9d bb 0e df 13 3d 15 af a9 bc
       0.14448722 -0.0048008477 0.036101393 -0.020713368
0000e0 72 2c 32 3d 4b 25 2d 3e e4 5b ad 3c e3 ca ae bd
       0.043499418 0.16908757 0.02116198 -0.08534791
0000f0 db cb 7b 3d c4 58 db 3d 10 94 26 bc aa 4a 08 bc
       0.06147371 0.1071029 -0.010167137 -0.008318583
000100 bd 19 86 3c e7 d1 9c 3d 16 21 a3 ba ee 85 a2 3d
       0.016369695 0.07657223 -0.0012445773 0.07935701
000110 4d 57 12 3d 94 fa e8 3d 8e f2 1d 3d d2 6c ab 3d
       0.035727788 0.11375919 0.038561396 0.08370365
000120 9e 7c 06 3d 4d b3 09 3d 36 bb 9e 3d a4 c0 e1 3d
       0.032833688 0.03361826 0.077505514 0.110230714
000130 b3 a5 17 bd 36 d3 11 bd bf 84 10 3e a8 7f 38 bc
       -0.037023257 -0.035601817 0.14113139 -0.011260904
000140 7f 58 db 3c 09 7f 9c 3d db 16 9e 3c 6a 95 46 3d
       0.026775597 0.076414175 0.019298008 0.048482336
000150 da 6f 20 3d 9c 76 11 bc 2c 5b a5 3c 67 56 d3 bc
       0.03916917 -0.008878376 0.020185076 -0.025798036
000160 3e 53 b3 3d ea cc b3 bb 99 77 d2 3d 10 70 0f bd
       0.087561116 -0.005487074 0.10276718 -0.03501898
000170 9b ab 50 3d f2 e6 58 3c 79 ea 8d 3d ec b0 94 3d
       0.050944906 0.013238655 0.06929488 0.07260308
000180 ca f8 a2 3d 32 ce ff bc 55 69 9c 3d 34 68 20 3d
       0.07957609 -0.031226251 0.07637278 0.039161876
000190 f6 fe d7 3d c4 41 77 bb dd 0b 34 3c f4 eb ca 3d
       0.10546677 -0.0037728408 0.010989157 0.09908286
0001a0 5c c7 f8 bb 16 10 63 3d 02 d0 a5 3d 16 ea 8d 3c
       -0.007592125 0.055435263 0.08096315 0.017323535
0001b0 cd e0 85 bc 1b 75 1b 3e ec 72 49 bc 77 51 b4 3d
       -0.016342545 0.15181391 -0.012295466 0.08804601
0001c0 42 d3 83 3d e6 53 f5 3b 2f f6 ec bc 00 e4 9b 3d
       0.064367786 0.007486808 -0.028925983 0.07611847
0001d0 e1 cb fc 3a 8f a0 66 3d 7d 6a 85 3b b1 bf 8c 3d
       0.0019286835 0.056305464 0.0040715323 0.068725
0001e0 0f ba 50 3d 77 dc 7c 3c 0e 75 b9 3d f0 8c c5 3d
       0.05095869 0.015433422 0.090555295 0.09646022
0001f0 06 8f 0a 3d 4b c1 2e 3e 66 17 25 3b d9 5c 25 3d
       0.033827804 0.17065923 0.0025190949 0.04037175
000200 00 52 41 3d 11 9a 54 3c 4c 5e 9e 3b 78 89 b9 3c
       0.047197342 0.012976185 0.0048330184 0.022648558
000210 b3 80 bf 3d a4 e2 9b bc ff 1e c8 bb 40 3b be 3a
       0.09350719 -0.01902897 -0.0061072106 0.0014513507
000220 e0 c3 cc 3d f6 d7 db 3d f8 26 42 3d a9 39 b9 3d
       0.09998298 0.10734551 0.047400445 0.09044201
000230 31 5e d3 3c ad 48 8c 3d 51 dd 5b 3b dc 96 01 3e
       0.02580175 0.06849799 0.0033548663 0.12655205
000240 0d b5 af 3a 7f 4d a3 bc dd f5 11 3d 2f 5f 52 3d
       0.0013405398 -0.019934414 0.035634864 0.051360305
000250 d5 e1 e0 3c 75 c1 25 3c f3 08 5f 3d 50 5b 61 3d
       0.027451435 0.0101169245 0.054451894 0.055018723
000260 0c ac 0a 3d 0c 1e 03 3c 3d 66 0c 3d b3 8b b8 3c
       0.033855483 0.008002769 0.03427719 0.022527551
000270 ce 13 b7 3b 96 65 a3 3d 61 91 ad 3d 8a 81 c0 3d
       0.0055870777 0.0797836 0.084749945 0.093997076
000280 bb b5 86 bd 7e 01 ed 3c 75 3b 45 3d 68 34 cb 3d
       -0.06577631 0.028931376 0.048152406 0.09922105
000290 0d 2c 6f bc 85 91 02 3e f1 b7 be 3d 7d e7 f6 3d
       -0.014597905 0.12750824 0.09312428 0.12055872
0002a0 eb 92 a0 bc 04 75 1a 3d 90 93 39 3d a5 40 7a 3d
       -0.019601306 0.03770925 0.045306742 0.061096806
0002b0 71 dc 03 3e 2b a1 8f 3d 7d ec 10 3e de 5b e5 3c
       0.1287706 0.07013162 0.14152713 0.027997907
0002c0 61 21 bc bc 1b 7c 96 3b 72 e9 09 bd 9f 7a 1a 3d
       -0.022965135 0.0045924312 -0.033669896 0.037714597
0002d0 e1 65 20 3e b2 78 62 3d 25 02 c0 3d a6 ee c9 3d
       0.15663864 0.055290885 0.09375409 0.09859972
0002e0 8c 19 ab bc d4 f4 e1 bc b9 83 85 3d e1 b2 8c 3d
       -0.020886205 -0.027582563 0.06519265 0.06870056
0002f0 99 94 c0 3d 36 8a 1c 3e 84 80 92 3c 2a c1 a7 3d
       0.09403343 0.15287098 0.017883547 0.0819114
000300 ed 15 6c 3c 8b 7b cd 3d 7d 8e a5 3d c5 61 d2 3d
       0.014409524 0.100333296 0.08083818 0.10272554
000310 46 5a e6 3c b2 26 23 3d 30 12 97 3d 2a d9 fa 3d
       0.028119218 0.039831825 0.07376516 0.12248452
000320 be 8b 83 3d bd 23 43 3d 26 39 8f 3c 22 e8 a5 4d
       0.06423138 0.047641505 0.017483305 3.479317e+08
000330 ea f0 87 3d c5 b7 7c 3d a4 f7 e8 3b b6 58 9e 3c
       0.066377476 0.061698694 0.007109599 0.01932941
000340 b1 42 b2 3d a1 6d 15 3e 48 57 c6 3d 55 39 73 bc
       0.087041266 0.14592601 0.09684616 -0.014845212
000350 32 43 8f 3d 4b 62 8c 3d 2d e1 c3 bb 3b ad 18 3d
       0.06995238 0.068546854 -0.005977771 0.03727458
000360 73 9b ca bb 33 2a 17 3d 34 fb e5 3d dd cb 94 bc
       -0.006183082 0.03690548 0.11229554 -0.018163616
000370 96 62 07 3d 57 89 66 3c 76 27 8b 3d 40 3b 72 3c
       0.033053003 0.01407083 0.06794636 0.014784634
000380 a0 bb 3c 3d 4d cf c5 3d 47 1f 0a 3c b1 87 94 3d
       0.04607737 0.0965868 0.008430309 0.072524436
000390 e3 0b f8 3d 28 25 8c 3d 5c ff 4c 3d 7d 51 4d 3d
       0.12111642 0.068430245 0.050048217 0.05012654
0003a0 e2 53 50 3d 3c 88 6c 3d 22 07 c0 3c 96 4d 07 3d
       0.050861247 0.05774711 0.023440901 0.033032976
0003b0 e6 dc 91 3d fa 54 fb 3d 03 75 90 3d c1 50 0f 3e
       0.07122211 0.12272067 0.07053568 0.13995649
0003c0 28 b7 48 3d 2b 65 a0 3d 19 03 4e 3e a6 91 85 3b
       0.049002796 0.07831796 0.20118369 0.0040762005
0003d0 a2 0d 8e bc ae 36 56 3d 71 7a 2d bc 24 db 85 3d
       -0.017340485 0.05229824 -0.010588274 0.065359384
0003e0 56 bc b4 3d 15 e9 30 3d 40 df c9 3c 31 b9 6d bd
       0.08824985 0.043191034 0.024642587 -0.05803794
0003f0 3c 1f 4f bc 69 0b b8 3d 93 ae cc bc 84 5f 0d 3d
       -0.012641724 0.08986551 -0.024985587 0.03451492

actor_linear3.bias f4 [8]
000000 cf da 70 3d 30 fd 6f 3d be 90 72 3d d9 aa 74 3d
       0.058802422 0.058591068 0.05922007 0.059733246
000010 ff 2a 73 3d 84 81 70 3d 8c 0d 52 3d 37 e6 70 3d
       0.059367176 0.058717266 0.05128245 0.0588133
