model/model_5_backup.pth (torch, 283087 bytes, 7 tensors)

critic_linear1.weight f4 [512, 63]
0	0xbdf072ee	-0.11740671
1	0xbde1387d	-0.109971024
2	0x3d2458c9	0.040123735
3	0xbcc49ec2	-0.024001483
4	0xbc10dcde	-0.008841721
5	0x3cf9ad72	0.030478213
6	0x3db110f5	0.086458124
7	0x3d17b975	0.0370421
8	0xbd7a527d	-0.061113823
9	0xbcc18db9	-0.023627149
10	0xbd34063f	-0.04395127
11	0xbde5590a	-0.111986235
12	0x3db4e2ba	0.08832307
13	0xbdaabb9d	-0.08336566
14	0xbd8482e5	-0.06470279
15	0x3ceacf90	0.028663427
16	0x3d8e4327	0.06946402
17	0xbd3429ff	-0.043985363
18	0xbd950d51	-0.072779305
19	0x3b1d5c76	0.002401141
20	0x3df3fc93	0.11913409
21	0x3ba11aba	0.004916516
22	0x3c43d91d	0.011953619
23	0x3de4231e	0.111395106
24	0x3c99a8f8	0.018757328
25	0xbca03413	-0.01955608
26	0xbc0c1ffa	-0.008552546
27	0x3dbfc1dc	0.093631476
28	0xbccb166e	-0.024790969
29	0x3df72afc	0.120687455
30	0xb86082ca	-5.352757e-05
31	0xbe009f8e	-0.12560865
32	0xbd238d44	-0.039929643
33	0x3b8c7a2f	0.0042870264
34	0x3dab51dd	0.083652236
35	0x3bcf6f61	0.006330416
36	0xbdb5a0f6	-0.088685915
37	0x3d28e2e6	0.041232012
38	0x3dc29a2c	0.09502062
39	0xbd92ec69	-0.07173998
40	0x3d89c1c3	0.0672641
41	0xbc9fe13d	-0.019516582
42	0x3cadd612	0.02122024
43	0x3d925174	0.07144442
44	0x3dd71b6c	0.10503277
45	0x3d085457	0.033283558
46	0xbd485281	-0.048906807
47	0x3dd2e16c	0.10296902
48	0x3c03d93c	0.008047398
49	0xbdbbaa18	-0.09163302
50	0xbded6ca2	-0.11592986
51	0x3da545d9	0.08069963
52	0xbe00539a	-0.12531891
53	0x3dc0100b	0.0937806
54	0x3df95e0f	0.121761434
55	0x3ddf11b5	0.10892049
56	0xbda4dd65	-0.0805004
57	0x3de9a784	0.11408904
58	0x3c34c1f0	0.011032566
59	0xbbbd78cf	-0.005782224
60	0xbc9572e3	-0.018243259
61	0x3c369040	0.01114279
62	0x3d1fe32c	0.039035007
63	0xbda853e7	-0.08219128
64	0x3dc798e2	0.09745957
65	0x3d73aa17	0.059488382
66	0x3d869a9c	0.06572458
67	0x3da793b5	0.0818247
68	0x3cf1c142	0.029511098
69	0x3dbddd1b	0.09270688
70	0x3dbbce59	0.09170217
71	0xbcbcd137	-0.02304898
72	0xbdfdb550	-0.12388098
73	0xbd326a20	-0.04355824
74	0x3da148cd	0.07875214
75	0xbd95d640	-0.073162556
76	0xbd0acc4c	-0.03388624
77	0xbc119036	-0.00888448
78	0xbdc47d8b	-0.09594258
79	0xbdc47bc5	-0.0959392
80	0x3da2d37d	0.079504944
81	0x3da0caec	0.07851204
82	0xbd9c8bcd	-0.076438524
83	0x3dc51b9e	0.09624408
84	0x3d5c79f8	0.053827256
85	0x3b8c77cb	0.0042867414
86	0x3d3b6e26	0.045759343
87	0xbde00026	-0.10937528
88	0x3d5dafd2	0.054122753
89	0xbb3609c2	-0.0027776812
90	0xbd25302d	-0.040329147
91	0x3d945e23	0.07244518
92	0xbc3e7f9f	-0.011627107
93	0xbd9f8074	-0.07788172
94	0xbd2ad2ba	-0.04170487
95	0xbd833b67	-0.064078145
96	0x3c29fdf2	0.010375487
97	0xbd609313	-0.05482776
98	0xbdcfbea2	-0.10143782
99	0xbdc1d217	-0.094638996
100	0xbdb89d2e	-0.09014355
101	0xbd86ed6d	-0.06588254
102	0xbd184490	-0.03717476
103	0x3c11940d	0.008885396
104	0x3dcf852e	0.10132824
105	0xbd95fcf6	-0.07323639
106	0xbdefc5f7	-0.11707681
107	0x3d343fcb	0.04400615
108	0xbc51d501	-0.012807132
109	0xbdc9953b	-0.098429166
110	0xbdc8b43d	-0.09800003
111	0xbb951d06	-0.004550579
112	0xbda5ed29	-0.08101875
113	0xbd23d528	-0.039998204
114	0x3d86ec54	0.06588045
115	0xbd7b3b9d	-0.06133615
116	0x3cbe4ae5	0.023229072
117	0xbb09f581	-0.0021050873
118	0xbd8991fb	-0.06717297
119	0xbd9d161d	-0.076702334
120	0xbd016441	-0.03158975
121	0xbd568a20	-0.05237782
122	0x3daee491	0.08539689
123	0x3de406f7	0.11134141
124	0xbd877c6c	-0.066155285
125	0xbd2e1a43	-0.042505514
126	0xbd3d160d	-0.046163607
127	0xbc7e3173	-0.015514719
128	0xbda7853e	-0.08179711
129	0x3c26e67d	0.010186789
130	0xbd19bec3	-0.03753544
131	0xbd70fb9d	-0.058833707
132	0x3d513f28	0.05108562
133	0x3d95e78b	0.07319554
134	0xbd449932	-0.04799766
135	0x3dbe5bdf	0.09294867
136	0xbde1245c	-0.10993263
137	0xbd2f07dc	-0.042732105
138	0xbdbe8e44	-0.09304479
139	0xbc08854e	-0.008332564
140	0x3d2e59c7	0.042566087
141	0x3d817e41	0.06322909
142	0xbda81f88	-0.08209139
143	0x3ce1a9e2	0.027546827
144	0x3d826966	0.063677594
145	0xbd98f2e8	-0.07468206
146	0xbdd9a9da	-0.106281
147	0x3da84c9e	0.082177386
148	0x3dcd69ee	0.1002997
149	0x3db76c2a	0.089561775
150	0x3c24c291	0.010056154
151	0xbda2c76b	-0.07948192
152	0x3ce4c4b6	0.02792583
153	0x3c10dd5f	0.0088418415
154	0xba31c0e8	-0.00067807594
155	0xbd92b934	-0.07164231
156	0x3db6f488	0.089333594
157	0x3c736565	0.014855717
158	0xbd130f77	-0.03590342
159	0x3ccfdae9	0.02537294
160	0xbdad9f44	-0.08477643
161	0xbd1726be	-0.03690218
162	0xbdaae1fe	-0.08343886
163	0x3d15da5b	0.036585193
164	0x3d29ba2a	0.041437306
165	0x3dbcef1d	0.09225295
166	0xbbec5ad2	-0.007212975
167	0x3dd43ef8	0.10363573
168	0x3c4fd329	0.012684622
169	0xbcb25e9d	-0.02177363
170	0x3d7b451c	0.061345205
171	0xbdefb409	-0.11704261
172	0x3d8dbe97	0.06921118
173	0x3d430160	0.047608733
174	0x3c726b90	0.014796153
175	0xbbaf97b1	-0.005358659
176	0xbda48854	-0.08033815
177	0x3ba29838	0.0049619935
178	0xbbbbe2c0	-0.005733818
179	0xbb6a7787	-0.003577681
180	0xbdaad4c0	-0.0834136
181	0xbdd797cc	-0.10527
182	0x3e002e04	0.12517554
183	0x3be6859c	0.0070349704
184	0x3dc2b218	0.09506625
185	0xbdd21c01	-0.102592476
186	0x3ce5a1aa	0.028031189
187	0xbd96dc46	-0.073662326
188	0x3dc42909	0.09578139
189	0xbbd0542c	-0.0063576903
190	0x3d9b5ef7	0.075864725
191	0xb9b0a2a9	-0.00033690527
192	0xbda50d98	-0.080592334
193	0xbdbe00b2	-0.09277476
194	0xbdd1c869	-0.10243303
195	0x3dd0bb6b	0.10191997
196	0x3d875788	0.06608492
197	0xbd729c7a	-0.05923126
198	0xbd1da38d	-0.038486052
199	0xbddd0e4e	-0.10793744
200	0x3cf94f75	0.030433396
201	0xbd639cbc	-0.055569395
202	0x3e00e632	0.12587813
203	0x3dc62050	0.09674132
204	0xbc2f6ebf	-0.010707556
205	0xbdc185f0	-0.09449375
206	0xbd435799	-0.04769096
207	0x3daca52e	0.08429943
208	0xbdd0f939	-0.102037854
209	0xbdb946f9	-0.0904674
210	0xbd7425a3	-0.059606206
211	0xbd4f4aeb	-0.050608557
212	0xbc1a0027	-0.00939945
213	0x3dfae41c	0.1225054
214	0xbd988482	-0.07447149
215	0xbe00b6ca	-0.12569728
216	0xbc83b862	-0.016079132
217	0x3d9a68ef	0.07539546
218	0xbda494e5	-0.08036212
219	0x395e82c6	0.00021220287
220	0xbcbe1d11	-0.02320722
221	0xbd4e2ea9	-0.050337467
222	0xbd08ad82	-0.033368595
223	0xbdb7769b	-0.08958169
224	0x3be40ee9	0.0069597852
225	0x3d9fa464	0.07795027
226	0xbd9dc720	-0.07703996
227	0xbd36cc31	-0.044628326
228	0x3c5ab08a	0.013347754
229	0xbd164db6	-0.036695205
230	0x3de0efdb	0.10983249
231	0x3de9198d	0.113818265
232	0xbd15f110	-0.03660685
233	0xbdf150e6	-0.11783008
234	0x3d9aa4c3	0.07550957
235	0xbe00f309	-0.1259271
236	0xbdb475f3	-0.088115595
237	0xbd8b7ee5	-0.068113126
238	0x3dc8b661	0.09800411
239	0x3d1b8eeb	0.037978094
240	0x3d585552	0.052815743
241	0x3d0dc40e	0.0346108
242	0x3d933037	0.071869306
243	0x3dfeef9f	0.12448048
244	0x3d43982a	0.047752537
245	0xbb927a7c	-0.0044701677
246	0x3df12abf	0.11775731
247	0x3df937e4	0.121688634
248	0xbdab9854	-0.08378664
249	0xbd630436	-0.055423938
250	0x3ce7e105	0.02830554
251	0xb998c6c1	-0.00029139782
252	0x3d0620d4	0.03274615
253	0x3d732361	0.05935991
254	0xbdef1c08	-0.116752684
255	0x3d0664ed	0.032811094

critic_linear1.bias f4 [512]
0	0x3dd82f3e	0.10555886
1	0xbdbdb9fa	-0.09263988
2	0xbd226fab	-0.039657276
3	0xbd94aa64	-0.07259062
4	0x3ce92be6	0.028463315
5	0xbdf895ca	-0.12137945
6	0xbdc4ffa8	-0.09619075
7	0xbdc8ec88	-0.0981074
8	0xbd8a957e	-0.067667946
9	0x3df4ed76	0.119593546
10	0xbdfd3db8	-0.123652875
11	0x3dc4e925	0.09614781
12	0xbd869f28	-0.065733254
13	0x3d0ec475	0.034855325
14	0x3d923ab4	0.07140103
15	0xbde712bd	-0.11282871
16	0xbde6e9d7	-0.1127507
17	0xbdb392a9	-0.087682076
18	0x3d2255cb	0.0396326
19	0xbdd2ccff	-0.10293006
20	0xbdb168e1	-0.08662582
21	0x3c9f4adf	0.019444881
22	0x3ddf658f	0.10908043
23	0x3d9b7a19	0.07591648
24	0x3dae105b	0.08499213
25	0xbd26bc99	-0.040707204
26	0x3de1ac13	0.11019149
27	0xbdb7f00d	-0.08981333
28	0xbd75fd2e	-0.060055904
29	0x3daab2ee	0.083349094
30	0xbd2700d6	-0.04077228
31	0x3d7e97b4	0.062156394
32	0xbd30315a	-0.043015815
33	0x3ddddbb4	0.10832921
34	0xbdaa8a87	-0.08327203
35	0xbd4f9a57	-0.0506843
36	0x3dbf5187	0.09341722
37	0xbdaa65e1	-0.08320213
38	0xbba4a1af	-0.005024157
39	0x3dbbfa84	0.091786414
40	0xbdfcb8d7	-0.12339943
41	0xbc36b3f8	-0.011151306
42	0x3d8af15b	0.06784316
43	0xbd58710e	-0.052842192
44	0xbd9aa042	-0.07550098
45	0x3b085884	0.0020804713
46	0xbc6505f9	-0.013978475
47	0xbca32069	-0.019912915
48	0x3d306e3c	0.043073878
49	0x3d38c408	0.045108825
50	0x3de8f586	0.11374955
51	0xbd4f5252	-0.050615616
52	0xbd95b4b3	-0.07309856
53	0xbcc8686d	-0.024463857
54	0x3dc98800	0.09840393
55	0xbd9f6236	-0.07782404
56	0xbc6d6335	-0.014488985
57	0x3dd085be	0.10181759
58	0xbd9ea830	-0.07746923
59	0xbd8d0b41	-0.06886912
60	0x3cd15e3a	0.025557626
61	0x3cf2012a	0.02954157
62	0x3d5c1146	0.05372741
63	0x3cf3cced	0.029760802
64	0x3dad7995	0.084704556
65	0xbdce3f70	-0.100706935
66	0xbdb4f1f0	-0.088352084
67	0xbdf8f32c	-0.12155756
68	0x3df5ae74	0.11996165
69	0x3dc90e5e	0.098171934
70	0x3bdcfbf5	0.006743903
71	0xbdc21666	-0.094769284
72	0xbdc5f739	-0.096662946
73	0x3dd9284a	0.10603388
74	0x3c5beb92	0.013422864
75	0x3cbd229a	0.023087788
76	0x3dbf3efd	0.09338186
77	0xbcc678d2	-0.024227533
78	0xbb85a1d1	-0.004078128
79	0x3d630db9	0.05543301
80	0x3cff6637	0.03117667
81	0x3db6ac59	0.089195915
82	0x3da90fb4	0.08254948
83	0xbd29ab71	-0.041423265
84	0xbc4d2496	-0.01252093
85	0x3d576375	0.052585084
86	0xbd003a9c	-0.031305894
87	0xbd9db504	-0.077005416
88	0xbb2a8562	-0.0026019444
89	0x3c077c6a	0.008269409
90	0xbc8b0881	-0.016971828
91	0xbd6b43ad	-0.057437588
92	0x3d996198	0.07489318
93	0xbcd8234a	-0.026384015
94	0xbd05f84f	-0.03270751
95	0x3c5ce940	0.0134833455
96	0x3d1871c7	0.03721788
97	0xbd4a7e95	-0.049437124
98	0xbdac7328	-0.08420402
99	0xbdd9f162	-0.10641743
100	0x3da6755a	0.08127852
101	0xbd9fa554	-0.07795206
102	0x3d27392b	0.040826004
103	0xbca3549a	-0.019937802
104	0x3dc07702	0.09397699
105	0xbdc778f4	-0.09739867
106	0x3db8e6a2	0.09028365
107	0xbdcdf2ff	-0.100561135
108	0x3ddf8361	0.109137304
109	0xbc2971d9	-0.010342085
110	0xbd371e25	-0.044706482
111	0xbd90ee3e	-0.07076691
112	0x3d940397	0.07227247
113	0x3d960331	0.073248275
114	0x3d1cb767	0.038260844
115	0xbd76ab07	-0.060221698
116	0x3d0dcb54	0.034617737
117	0xbcdcfc56	-0.026975792
118	0xbced74d0	-0.028986365
119	0xbd536585	-0.05161049
120	0x3dceb2bc	0.100926846
121	0xbda9a808	-0.082840025
122	0xbde74a89	-0.11293513
123	0x3df8a5be	0.12140988
124	0xbdc072a7	-0.09396868
125	0xbc44188c	-0.011968743
126	0x3dec659b	0.11542817
127	0xbdb3aa57	-0.08772724
128	0x3cd2b8aa	0.02572282
129	0xbdc12760	-0.09431338
130	0xbdc21db4	-0.09478322
131	0xbc877388	-0.016534582
132	0x3d1b8f10	0.037978232
133	0x3d9ec342	0.07752086
134	0x3dd588f4	0.10426512
135	0xbd8a27ca	-0.067458704
136	0xbd4a7038	-0.049423426
137	0x3d062f91	0.032760207
138	0xbde881aa	-0.113528565
139	0x3d7ad401	0.06123734
140	0xbb41dc3f	-0.002958074
141	0xbc8510ce	-0.016243365
142	0xbdd922db	-0.10602351
143	0xbd7c47a0	-0.061591744
144	0x3d921d79	0.07134528
145	0xbdb490bd	-0.08816669
146	0xbcda264c	-0.02662959
147	0xbd4683e4	-0.048465624
148	0x3d53acb4	0.051678374
149	0x3d5efd8c	0.05444102
150	0xbdad3888	-0.08458048
151	0xbddbd2b6	-0.10733549
152	0x3d87b8ef	0.0662707
153	0xbd91401d	-0.07092307
154	0x3de7fd2e	0.11327587
155	0xbc595bbd	-0.013266501
156	0x3df39133	0.11892929
157	0x3d716057	0.058929767
158	0xbdb37164	-0.08761862
159	0x3d691e66	0.056913756
160	0x3c460d7a	0.012088174
161	0x3dc7e117	0.09759729
162	0x3d3c06b8	0.045904845
163	0x3dff1171	0.124544986
164	0xbbe62030	-0.00702288
165	0x3dad538c	0.08463201
166	0x3c39926b	0.011326413
167	0xbdd66d63	-0.104700826
168	0xbd5093f8	-0.050922364
169	0xbdd6a6cc	-0.10481033
170	0x3d2a4f09	0.04157928
171	0x3dde88ce	0.10865937
172	0x3dfe252c	0.12409434
173	0xbda89a06	-0.08232503
174	0xbd81b440	-0.06333208
175	0xbdf8a99c	-0.121417254
176	0x3d3312ff	0.043719288
177	0xbd1e17f2	-0.038597055
178	0x3d7b3171	0.061326448
179	0xbd2b67c1	-0.041846994
180	0x3d800534	0.062509924
181	0xbba6283f	-0.0050707157
182	0xbde159c6	-0.11003451
183	0x3df0dc15	0.11760727
184	0x3db722f9	0.089422174
185	0xbcaec7b8	-0.021335468
186	0x3cb304aa	0.02185281
187	0x3d2be0e8	0.041962534
188	0x3dc4eeaa	0.09615834
189	0x3d1a9f26	0.037749432
190	0xbd116d74	-0.035504773
191	0xbde45bf6	-0.11150353
192	0xbd69c319	-0.057070825
193	0x3d1f291b	0.03885756
194	0xbde40b5c	-0.11134979
195	0xbd9e3139	-0.07724232
196	0x3d82f2a5	0.06393937
197	0x3cbc6783	0.022998577
198	0x3c34010d	0.010986579
199	0x3dd31668	0.10307008
200	0x3de43ca9	0.111443825
201	0xbc45da13	-0.012075919
202	0xbd8541a6	-0.06506662
203	0xbc316d10	-0.010829225
204	0x3c30d7e4	0.01079366
205	0x3c2a3623	0.010388884
206	0xbd7b7749	-0.061393056
207	0x389347b8	7.022865e-05
208	0x3d0f7c66	0.035030745
209	0xbd6c22cd	-0.057650376
210	0xbdd5fa07	-0.104480796
211	0x3daa5d9e	0.08318637
212	0x3da6e3a8	0.08148891
213	0x3d870579	0.06592841
214	0xbd0aace1	-0.033856276
215	0xbda07d8e	-0.07836448
216	0xbd6ceeef	-0.057845052
217	0xbd6861a3	-0.05673374
218	0xbda347e7	-0.07972699
219	0x3ccab92b	0.024746498
220	0xbd0b4fe8	-0.03401175
221	0x3d30ed73	0.0431952
222	0xbdd89fa8	-0.10577327
223	0xbc991d90	-0.018690854
224	0xbcd78e87	-0.02631308
225	0xbc96a336	-0.018388372
226	0x3d598e6b	0.053114336
227	0xbdd79ba0	-0.1052773
228	0x3d05abe5	0.032634635
229	0xbbdfe329	-0.0068324995
230	0x3ce103cd	0.027467633
231	0x3de238ec	0.11046013
232	0xbd23a769	-0.039954577
233	0xbdf89e5c	-0.1213958
234	0x3d0ad444	0.03389384
235	0x3d544068	0.051819235
236	0x3d7b4402	0.061344154
237	0xbd50b88a	-0.05095724
238	0x3da0b8e4	0.07847765
239	0xbde93b89	-0.113883086
240	0x3c413eb3	0.011794734
241	0xbabb6442	-0.0014296847
242	0x3e006d69	0.12541737
243	0x3de743c3	0.112922214
244	0xbd1a7baf	-0.03771561
245	0xbd59e3fb	-0.053195935
246	0xbdf3ffe9	-0.11914045
247	0x3c042535	0.0080655115
248	0xbda81e66	-0.08208923
249	0x3b18447c	0.002323418
250	0x3d81abbb	0.06331583
251	0xbddd265e	-0.107983336
252	0x3df8ae62	0.12142636
253	0x3d9893f3	0.07450094
254	0xbdeb3f8f	-0.11486732
255	0x3d7cd69f	0.061728116

critic_linear3.weight f4 [1, 512]
0	0xbc7e9d03	-0.015540364
1	0x3cbbe8f8	0.022938237
2	0x3b815290	0.00394661
3	0x3c50bfaf	0.012741013
4	0xbd3371b2	-0.0438096
5	0xbc890d20	-0.016729891
6	0xbd2895a0	-0.04115832
7	0xbcaaf778	-0.020869955
8	0x3cd8e1a3	0.02647478
9	0xbc2766ef	-0.010217412
10	0x3bf94b91	0.007607885
11	0x3c49a293	0.012306827
12	0x3bdabb6e	0.0066751754
13	0xbbef3b50	-0.007300772
14	0x3d07fd63	0.033200633
15	0x3d00556a	0.031331457
16	0x3d265eee	0.040617876
17	0xbc9b0e1a	-0.018927623
18	0xbc8dd71b	-0.017314484
19	0x3cb368d4	0.021900572
20	0xbbe55c28	-0.0069995113
21	0xbc8c066a	-0.017092902
22	0x3d1b91dc	0.0379809
23	0x3ba797f8	0.0051145516
24	0x3c75ae4c	0.014995169
25	0xbc3a8615	-0.011384507
26	0xbc95d6ee	-0.018290963
27	0x3c324ca6	0.010882532
28	0xbd202cb2	-0.039105125
29	0xbd19e874	-0.0375752
30	0xbd171d2a	-0.036893047
31	0x3d297766	0.041373633
32	0x3cddc8b8	0.02707325
33	0xbd2957ad	-0.04134338
34	0x3cb2a961	0.021809282
35	0xbb9348a8	-0.0044947453
36	0xbbebd822	-0.007197396
37	0x3cd9e80a	0.026599903
38	0x3d0d0d67	0.03443661
39	0xbc6a5a63	-0.014303776
40	0xbd2f281d	-0.042762864
41	0x3d194954	0.037423447
42	0xbcb43c02	-0.02200127
43	0xbd086a0c	-0.03330426
44	0x3d19bfd4	0.037536457
45	0xbcdcb74d	-0.026942873
46	0xbc898a8c	-0.016789697
47	0xbb140d74	-0.0022591026
48	0x3b8feee4	0.0043924917
49	0x3c74d5f7	0.014943591
50	0xbd102e5f	-0.035200473
51	0x3b98fa9f	0.0046685482
52	0xbcf1d357	-0.02951972
53	0xbc92f387	-0.017938389
54	0xbc2fe86d	-0.010736567
55	0xbcbfcfa0	-0.023414433
56	0xbcc91bdc	-0.024549417
57	0xbc9bab6f	-0.019002644
58	0xbc02cd6b	-0.007983546
59	0xbc0b5754	-0.008504707
60	0x3cac680f	0.021045713
61	0xbc8b8b5e	-0.017034229
62	0x3c8166e1	0.015796127
63	0x3d0514e2	0.03249062
64	0xbaefa5ff	-0.0018283724
65	0x3cf8c74e	0.030368473
66	0xbc3a1f05	-0.011359935
67	0xbb46214d	-0.003023225
68	0xbd30244e	-0.043003373
69	0xbceceebc	-0.028922431
70	0xbd270ce5	-0.04078378
71	0x3d1d7da6	0.038449906
72	0xbd2fddb8	-0.042936057
73	0x3c8a0cca	0.016851801
74	0xbcbad837	-0.022808177
75	0x3979606d	0.00023782412
76	0xbc7aaaef	-0.015299543
77	0xbd0b44c4	-0.034001127
78	0xbc09ea7b	-0.008417721
79	0x3c9b7439	0.018976318
80	0x3d2081eb	0.0391864
81	0x3cdafd3f	0.026732085
82	0xbc7a8591	-0.015290634
83	0xbcc1a4d3	-0.023638165
84	0xbd0bc526	-0.034123562
85	0xbc2e8bd3	-0.010653454
86	0x3ca80ac3	0.020512944
87	0x3bb8ec39	0.0056433943
88	0xbccd536f	-0.025064198
89	0x3cb854ea	0.022501428
90	0xbcf2b1d1	-0.029625805
91	0x3d074cec	0.033032343
92	0xbc84e942	-0.016224507
93	0xbd1adab3	-0.037806224
94	0x3c032d02	0.008006336
95	0xbcf45cfc	-0.029829495
96	0x3be911b7	0.0071127075
97	0xbcb31f55	-0.021865526
98	0xbcbd419e	-0.023102578
99	0x3d1e200d	0.038604785
100	0xbc787fec	-0.015167218
101	0x3d27e0f9	0.040986035
102	0xbcfe8b67	-0.031072332
103	0x3cf30708	0.029666439
104	0x3b94e0ca	0.0045433985
105	0x3d1128f4	0.035439447
106	0x3c8dd9db	0.017315796
107	0xbd0cf2a0	-0.034411073
108	0x3b962319	0.0045818207
109	0xbc9f8f89	-0.019477623
110	0xbd19f383	-0.037585746
111	0x3d14df19	0.036345575
112	0xbc0f5f4e	-0.00875075
113	0x3ce39f39	0.027785884
114	0x3c97b864	0.018520541
115	0xbb949efc	-0.004535554
116	0xbb9bfd0f	-0.0047603915
117	0xbd2e5de3	-0.042570006
118	0x3d297906	0.041375183
119	0x3cc5090d	0.024052167
120	0xbcf56426	-0.029954981
121	0xbcec1cae	-0.02882227
122	0x3c1b2449	0.0094691
123	0x3cdcc44e	0.026949074
124	0xbc2f15b5	-0.010686328
125	0xbd293b2c	-0.041316196
126	0xbc3f8104	-0.011688475
127	0xbc5d5132	-0.013508128
128	0x3b09e3a7	0.0021040232
129	0x3c27998a	0.010229478
130	0x3d327b06	0.043574356
131	0x3d23f982	0.04003287
132	0x3cf08388	0.029359594
133	0xbc3d63d6	-0.011559447
134	0xbc50a30b	-0.012734185
135	0x3be91206	0.0071127443
136	0x3cb74935	0.022373775
137	0xbd163d29	-0.03667942
138	0xbbb39fdc	-0.005481703
139	0xbd02deef	-0.031950887
140	0xbc58ed0d	-0.013240111
141	0xbd0c02ac	-0.034182236
142	0x3d310ffe	0.043228142
143	0xbbdcae08	-0.0067346133
144	0x3ca0b51e	0.019617613
145	0x3d0f654a	0.035008706
146	0x3cabc6fb	0.020968905
147	0x3b1459ff	0.002263665
148	0x3ce9af60	0.028526008
149	0x3d32aafa	0.043620087
150	0xbd168fa1	-0.03675807
151	0x3c84c102	0.016205315
152	0xbbe6ec9a	-0.007047248
153	0x3d08f12a	0.033433117
154	0xbb68ce7e	-0.003552347
155	0xbd2af022	-0.041732915
156	0xbcf63db5	-0.030058721
157	0x3c1e7f06	0.009673839
158	0xbab7eca6	-0.0014032319
159	0x3d319359	0.043353412
160	0xbd15a37a	-0.036532857
161	0xbc97416f	-0.018463818
162	0x3cce1405	0.02515603
163	0xbce460ce	-0.027878191
164	0x3d0a9fdc	0.03384386
165	0x3c3194bc	0.010838684
166	0xbc330e70	-0.010928735
167	0x3b83dc21	0.004024044
168	0xbc2e3145	-0.010631864
169	0x3c170910	0.009218469
170	0xbcfb3285	-0.030663738
171	0x3c97021d	0.018433625
172	0xbc1e672e	-0.009668155
173	0xbcb93fbb	-0.022613397
174	0x3ce13d5d	0.02749508
175	0xbb411d31	-0.0029466862
176	0x3cd6684a	0.026172776
177	0xbd335ebf	-0.04379153
178	0x3ca6f1fa	0.020379055
179	0xbc75a323	-0.014992508
180	0xbd1769ad	-0.036966015
181	0xbcb90c11	-0.022588762
182	0xba5f0db3	-0.0008508816
183	0xbd2a863e	-0.04163193
184	0xbcbe9a94	-0.023267068
185	0xbd1db8d6	-0.03850635
186	0x3d0b334e	0.033984475
187	0xbd194926	-0.037423275
188	0x3b5fa0de	0.0034122984
189	0xbcf8f909	-0.030392187
190	0x3cd1927a	0.02558254
191	0xbc267afb	-0.010161157
192	0x3bbd091b	0.0057689077
193	0xbd24112a	-0.04005543
194	0xbcd90e70	-0.026496142
195	0xbd19f4d2	-0.037586994
196	0x3c405225	0.011738335
197	0x3c9f8915	0.019474545
198	0xbab5b970	-0.0013864469
199	0x3cfcec5a	0.03087442
200	0x3ccd0bb8	0.025030002
201	0xbc9f18d7	-0.019421024
202	0x3d03d9a7	0.03218999
203	0x3bcfe2fa	0.0063441964
204	0xbd193994	-0.037408426
205	0xbb6dc448	-0.0036280323
206	0x3d141a7f	0.03615808
207	0x3d17df8f	0.037078436
208	0x3b9eb009	0.0048427624
209	0x3d17720d	0.036974
210	0x3cfb1593	0.030649936
211	0x3cf163ee	0.029466596
212	0x3d299bf8	0.04140851
213	0xbbc8dc8a	-0.006129806
214	0x3d24304e	0.04008513
215	0x3d22a361	0.03970659
216	0x3c9c9e26	0.01911838
217	0x3d2762f4	0.040865853
218	0xbbde633e	-0.006786733
219	0x3b8f931a	0.0043815495
220	0xbc994bf9	-0.018712984
221	0x3c7988e9	0.015230396
222	0xbc6748f7	-0.014116517
223	0xbc9c32f1	-0.01906726
224	0x3bf73044	0.0075435955
225	0xbbd256e3	-0.006419049
226	0xbc624cba	-0.013812238
227	0x3c00015c	0.007812824
228	0xbc5cd11f	-0.013477593
229	0xbc94b047	-0.018150462
230	0x3d34e55f	0.044164058
231	0xbccc688d	-0.024952197
232	0x3cf54c6e	0.029943671
233	0xbd142932	-0.0361721
234	0x3cb02e79	0.021506535
235	0x3d2e8423	0.042606484
236	0x3b4734b8	0.0030396413
237	0x3c886bc5	0.016652951
238	0x3c8847a4	0.016635723
239	0xbc2d151f	-0.010564118
240	0xbceff839	-0.029293166
241	0xba38398c	-0.0007027618
242	0x3cf8d84c	0.030376576
243	0x3d1e19a9	0.03859869
244	0x3b2306f2	0.0024875966
245	0xbceafbcb	-0.028684517
246	0x39978238	0.00028897985
247	0x3a73fea1	0.0009307657
248	0x3c231a0f	0.009954943
249	0xbb4a80ea	-0.0030899593
250	0x3c1b4e84	0.009479169
251	0x3d2011d5	0.039079506
252	0xbcff0750	-0.031131417
253	0xbc4bc92b	-0.012438099
254	0xbc5f2711	-0.013620154
255	0x3bb24df4	0.0054414216

actor_linear1.weight f4 [512, 63]
0	0xbcca199a	-0.02467041
1	0xbda2f1e2	-0.07956292
2	0x3cc3ac5b	0.023885896
3	0xbd4e9c3c	-0.050441965
4	0x3d629b60	0.05532396
5	0xbd88aea2	-0.066739336
6	0x3d885577	0.06656926
7	0xbe03c914	-0.12869674
8	0xbe11d8c7	-0.1424285
9	0x3da1ce62	0.079006925
10	0x3d27ee05	0.040998477
11	0xbd4bc62f	-0.04974955
12	0x3c842328	0.016130045
13	0xbddf60b4	-0.109071165
14	0x3d31a1e4	0.04336728
15	0x3d5d7422	0.05406583
16	0x3ca849c6	0.02054299
17	0xbd23a8f5	-0.03995605
18	0xbc31a11b	-0.010841633
19	0xbd3d40a7	-0.046204235
20	0xbd8bb262	-0.06821133
21	0xbd6f621c	-0.058443174
22	0xbcf7de72	-0.030257437
23	0xbd5c7660	-0.05382383
24	0xbde1a0d7	-0.11017006
25	0xbd873a1f	-0.066028826
26	0xbe0c7c0f	-0.137192
27	0xbd96b55a	-0.07358809
28	0xbbe4f631	-0.006987356
29	0xbc9c83ec	-0.019105874
30	0xbd8a8b5f	-0.06764864
31	0x3dc78474	0.0974206
32	0xbe14e0f5	-0.1453894
33	0xbe1794a7	-0.148028
34	0x3c862574	0.01637528
35	0x3cf9ad8d	0.030478263
36	0xbd9164e7	-0.07099324
37	0xbd90f4cb	-0.070779406
38	0xbdbd5253	-0.09244218
39	0xbd783049	-0.060592923
40	0x3a000b7d	0.00048845244
41	0xbe12fa9f	-0.14353417
42	0x3d9ba5b1	0.075999625
43	0xbd2fd601	-0.0429287
44	0xbdec36c5	-0.11533884
45	0xbdb0ed34	-0.08638993
46	0xbcea9778	-0.028636679
47	0x3bd603ae	0.0065312004
48	0xbd015dbe	-0.03158354
49	0x3cc70758	0.024295494
50	0xbda77cd8	-0.08178109
51	0xbdf6fccb	-0.12059935
52	0xbd7d325b	-0.0618156
53	0xb93035cf	-0.00016804713
54	0xbdf927a3	-0.12165763
55	0xbd9c9ea1	-0.076474436
56	0xbdec4b9d	-0.115378596
57	0x3dbf9b85	0.09355835
58	0x3d96e1b9	0.07367272
59	0xbcec3379	-0.028833138
60	0x3d9ae662	0.07563473
61	0x3d928d2d	0.071558334
62	0xbd2434ff	-0.040089604
63	0xbe13a336	-0.14417729
64	0x3dd51123	0.10403659
65	0x3c597eb9	0.013274842
66	0x3d8f5aab	0.069997154
67	0x3de50823	0.111831926
68	0x3dc2570e	0.094892606
69	0x3db933c1	0.090430744
70	0x3d947169	0.07248194
71	0x3e02331d	0.1271481
72	0xbd070aa1	-0.03296912
73	0xbdbd2371	-0.092352755
74	0x3b806b53	0.003919044
75	0x3e0334bf	0.1281309
76	0x3c06eb07	0.008234746
77	0x3da757fd	0.08171079
78	0x3d81adee	0.063320026
79	0x3d68898b	0.056771796
80	0xbd8d391d	-0.06895659
81	0xbd1b7a65	-0.03795852
82	0x3cb46f5c	0.022025757
83	0x3d3810c7	0.044937875
84	0x3c42937e	0.011875985
85	0x3e0b4d9b	0.13603823
86	0xbd5d2710	-0.05399233
87	0xbc8ac5d9	-0.016940044
88	0xbd2f1239	-0.042741988
89	0xbb7e7a79	-0.0038830324
90	0x3dcbaad9	0.09944696
91	0x3b2e24d7	0.0026572251
92	0x3de91132	0.11380233
93	0xbd44c9c6	-0.04804399
94	0x3d9e7110	0.07736409
95	0xbca2ee50	-0.019889027
96	0x3d22f76c	0.03978674
97	0xbd9ab374	-0.07553759
98	0x3d5ca3ff	0.053867336
99	0x3d70c8c0	0.0587852
100	0xbdaefc70	-0.085442424
101	0x3dcc4d88	0.099757254
102	0x3d831419	0.06400318
103	0xbcb83682	-0.022486929
104	0xbe5445ff	-0.20729826
105	0xbe766426	-0.24061641
106	0xbe8d35d6	-0.27580136
107	0xbeb57108	-0.35437799
108	0xbe527712	-0.20553234
109	0xbecc1c53	-0.3986536
110	0xbea1cb1f	-0.31600282
111	0xbeb9b544	-0.36271107
112	0xbe154e14	-0.14580566
113	0xbcb18c7a	-0.02167343
114	0xbd88fcee	-0.066888675
115	0xbe61fa84	-0.2206822
116	0xbe7be57e	-0.24599263
117	0xbe5a36f2	-0.21310022
118	0xbdd2e1c5	-0.10296968
119	0x3c996c66	0.018728446
120	0x3e2b09ca	0.16702953
121	0x3e7ea60d	0.24868031
122	0x3f339f89	0.70165306
123	0xbe2fbf13	-0.17162733
124	0xbd8e4cb7	-0.06948226
125	0x3c6da380	0.0145043135
126	0x3d06750f	0.03282648
127	0xbdbf672f	-0.093458526
128	0xbdeddaf8	-0.116140306
129	0x3ddd840c	0.108162016
130	0x3decc2c4	0.11560586
131	0xbc871a0c	-0.016491912
132	0xbd8e7285	-0.069554366
133	0xbcfa71b2	-0.030571792
134	0xbcac1d86	-0.021010172
135	0xbdd5fba4	-0.10448387
136	0x3df0a8cd	0.11750946
137	0x3d4b02d5	0.049563248
138	0xbdfd9f93	-0.12383952
139	0x3c2aeadb	0.0104319705
140	0xbd6682ab	-0.05627696
141	0xbcefce99	-0.029273318
142	0x3cc5b703	0.024135118
143	0xbe049fb6	-0.1295155
144	0xbbf57646	-0.007490906
145	0x3d25b609	0.040456805
146	0x3cee8825	0.029117653
147	0x3d641f3c	0.05569385
148	0xbdbb8a0f	-0.09157192
149	0x3cd65fc2	0.026168708
150	0xbc1dca25	-0.009630715
151	0xbdd8160b	-0.10551079
152	0xbdb0ed05	-0.08638958
153	0x3daf119c	0.085482806
154	0x3dfbd972	0.12297334
155	0xbc50d08c	-0.012745034
156	0xbdd3c3a1	-0.10340048
157	0xbe06a4f0	-0.13148856
158	0xbe401c96	-0.18760905
159	0xbd8f36bd	-0.069928624
160	0xbce737f3	-0.02822492
161	0xbe21f833	-0.15817337
162	0x3d34255e	0.04398095
163	0x3c275315	0.010212679
164	0x3a201534	0.0006106675
165	0x3dc3019d	0.09521792
166	0x3da06ec6	0.07833628
167	0xbdb10d32	-0.08645095
168	0xbbfffbdd	-0.007812007
169	0x3de2dc00	0.11077118
170	0x3caca067	0.02107258
171	0x3cac1aab	0.02100881
172	0x3e001597	0.12508236
173	0xbddac0a8	-0.106812775
174	0xbc37911a	-0.0112040285
175	0x3e013564	0.12618023
176	0x3e01c075	0.12671073
177	0xbda676f4	-0.08128157
178	0x3dd1ae91	0.10238374
179	0x3e1c0c41	0.1523905
180	0xbe44e641	-0.1922846
181	0xbcdd0fcb	-0.02698507
182	0x3da58e31	0.080837615
183	0x3e1fa4c1	0.15590192
184	0xbd5d2808	-0.053993255
185	0x3dc93d58	0.098261535
186	0xbbf1ac7d	-0.0073752985
187	0xbddd55ff	-0.10807418
188	0xbd92fbcb	-0.07176932
189	0xbc05c043	-0.008163515
190	0xbd5f3cb2	-0.054501243
191	0xbd4a4aad	-0.049387623
192	0x3cbe9c17	0.023267789
193	0xbe0aaa7b	-0.13541596
194	0xbddb6f7b	-0.107146226
195	0x3de07e6f	0.10961615
196	0x3d84a184	0.06476119
197	0x3e078301	0.13233568
198	0x3c33f8b1	0.010984586
199	0x3d5fd1d5	0.05464347
200	0x3d82e8df	0.06392073
201	0x3e25a3cf	0.1617577
202	0xbd3ab3fd	-0.045581806
203	0x3d932b68	0.071860135
204	0x3d213a29	0.039362106
205	0x3dc50068	0.09619218
206	0x3e53f180	0.20697594
207	0xbcfae59f	-0.03062707
208	0x3d0ba719	0.034094904
209	0x3de90772	0.11378373
210	0x3d081c18	0.033229917
211	0x3dc1f47a	0.09470458
212	0x3cb1d7c2	0.021709327
213	0x3da73d5c	0.08166
214	0xbda2cb72	-0.0794896
215	0x3ddc7f86	0.10766511
216	0xbe1a63d4	-0.15077144
217	0xbe04e4cc	-0.12977904
218	0x3b710509	0.0036776683
219	0xbd7cda83	-0.061731827
220	0x3d8e7b75	0.06957141
221	0x3da1bc36	0.078972265
222	0x3d767c3d	0.060177077
223	0xbdae7b93	-0.08519664
224	0xbd6c0e55	-0.057630856
225	0xbdf05bbd	-0.11736248
226	0xbdb8912e	-0.09012066
227	0xbd85fa23	-0.065418504
228	0x3d07474e	0.033026986
229	0xbe246410	-0.16053796
230	0xbe1cfc42	-0.15330604
231	0xbe197515	-0.1498607
232	0xbdb805c7	-0.08985477
233	0xbd9a565c	-0.07536003
234	0x3d0694a3	0.032856595
235	0x3d885633	0.06657066
236	0x3d364a90	0.044504702
237	0xbda939f8	-0.0826301
238	0xbd2d4970	-0.042306364
239	0x3dc0720f	0.09396755
240	0xbe41d624	-0.18929344
241	0xbbf6aaa0	-0.0075276643
242	0xbedb024b	-0.42775187
243	0x3d671519	0.056416605
244	0x3ce1f86b	0.027584275
245	0x3d875ee6	0.06609897
246	0x3e0120fd	0.1261024
247	0xbdccdca8	-0.10003024
248	0x3e61e3ef	0.22059606
249	0x3d93a3aa	0.07208951
250	0x3d31a05a	0.043365814
251	0x3df83b03	0.121206306
252	0xbe6e5577	-0.2327479
253	0xbe987aeb	-0.2978128
254	0xbe3e71ca	-0.18598095
255	0xbd7b97d1	-0.06142408

actor_linear1.bias f4 [512]
0	0xbd5fcbe4	-0.054637805
1	0xbc34ca7a	-0.011034602
2	0xbc249d57	-0.010047278
3	0x3c5125a6	0.012765324
4	0x3cd94554	0.026522316
5	0xbd976fed	-0.07394395
6	0xbddfa2b2	-0.109197035
7	0x3d768315	0.060183603
8	0x3cb3fcd4	0.021971144
9	0xbdc6d84b	-0.09709223
10	0x3d25756e	0.040395193
11	0xbe02ce09	-0.12773909
12	0xbdb97f0c	-0.090574354
13	0x3d20c73b	0.0392525
14	0x3dc4d5fa	0.09611125
15	0x3da0837c	0.07837579
16	0xbde44000	-0.111450195
17	0x3d7b9755	0.06142362
18	0x3da445ac	0.08021101
19	0x3d936602	0.07197191
20	0x3da50010	0.080566525
21	0xbd8a017a	-0.06738563
22	0xbe0d09b0	-0.13773227
23	0xbd178101	-0.036988262
24	0xbdaec7d9	-0.08534212
25	0x3d6c69ff	0.057718273
26	0x3abff3e1	0.0014644825
27	0xbc839d65	-0.016066262
28	0x3de54914	0.11195579
29	0x3dd8e248	0.10590035
30	0xbcbf7311	-0.023370298
31	0xbdf110dc	-0.11770794
32	0xbcd13792	-0.025539193
33	0xbdca7cf0	-0.09887111
34	0xbbd870c3	-0.006605239
35	0xbd9aa245	-0.07550482
36	0xbd6a99a2	-0.057275422
37	0x3d699578	0.05702731
38	0xbd9b7c6d	-0.07592092
39	0x3dba3a84	0.09093192
40	0xbb63f081	-0.0034780803
41	0xbcf73a9e	-0.030179318
42	0x3d31a32c	0.043368503
43	0xbdbab20a	-0.091159895
44	0x3c54bfe9	0.012985208
45	0xbe12eb43	-0.14347558
46	0xbe0d426e	-0.13794872
47	0xbe14c25a	-0.14527264
48	0xbde3be6b	-0.11120304
49	0xbe04d13c	-0.12970442
50	0xbd3a1b19	-0.045436
51	0x3c061f79	0.008186215
52	0xbe19b9e9	-0.15012325
53	0x3d959a2e	0.07304798
54	0xbe131ab9	-0.14365663
55	0xbdd75c24	-0.10515621
56	0xbdd068e1	-0.10176254
57	0x3c120c0c	0.008914005
58	0xbdc80544	-0.09766629
59	0x3d9d9523	0.07694461
60	0xbe006615	-0.12538941
61	0x3ce05230	0.02738294
62	0xbd664004	-0.056213394
63	0xbe02e2e4	-0.12781864
64	0x3d4d6356	0.050143562
65	0xbcceac77	-0.025228722
66	0x3d284b91	0.04108769
67	0xbdeb499d	-0.1148865
68	0xbde9de92	-0.11419405
69	0x3d99088a	0.07472332
70	0xbe395365	-0.18098219
71	0xbb1d0607	-0.0023959891
72	0x3af093ea	0.0018354629
73	0xbba87398	-0.005140733
74	0x3d33bc94	0.043881014
75	0xbd5d4d5f	-0.054028865
76	0xbd612f4f	-0.054976758
77	0xbc75d04c	-0.015003275
78	0x3d994cd7	0.07485359
79	0x3d40a628	0.04703346
80	0xbe0371cd	-0.1283638
81	0xbddfaf34	-0.10922089
82	0x3a9eeb06	0.0012124486
83	0x3cb6037e	0.022218462
84	0xbe2fe8ee	-0.171787
85	0xbe058f9d	-0.13043065
86	0x3cbfb533	0.023401832
87	0xbd870102	-0.06591989
88	0x3c81eaf6	0.015859108
89	0xbdfe6af7	-0.12422746
90	0x3dc4f3af	0.096167915
91	0xbd1ffacd	-0.03905754
92	0xbc35a4a0	-0.011086613
93	0xbdfa1f8c	-0.12213048
94	0xbdb985f1	-0.090587504
95	0x3d639691	0.055563513
96	0xbd6b7c89	-0.057491813
97	0xbded473c	-0.115858525
98	0x3d4d887b	0.050178986
99	0x3651499e	3.1186278e-06
100	0xbbc637f4	-0.0060491506
101	0xbe055b25	-0.1302305
102	0x3ab0fc1e	0.0013502871
103	0x3d5fa5c1	0.054601435
104	0xbd792b2e	-0.060832195
105	0x3cfc78ec	0.030819379
106	0xbd0edb59	-0.034877155
107	0x3d93e96f	0.07222258
108	0xbc163a14	-0.00916912
109	0xbe0f3fa9	-0.13989128
110	0x3dd96835	0.10615579
111	0x3d6e38ad	0.05815952
112	0x3d63837f	0.055545326
113	0xbe06c7e1	-0.13162185
114	0xbdcf666a	-0.10126956
115	0x3de507f4	0.111831576
116	0x3d04ffe0	0.032470584
117	0xbd3aab33	-0.045573425
118	0xbdacece2	-0.08443619
119	0xbd95611a	-0.07293911
120	0xbd5764ee	-0.05258649
121	0xbe102160	-0.14075232
122	0xbdf4d9fa	-0.11955638
123	0x3cdda91f	0.027058182
124	0xbe0bd42f	-0.1365516
125	0x3d2e63f4	0.04257579
126	0x3d9421cb	0.07233008
127	0xbd77e07c	-0.06051682
128	0x3c8790f0	0.016548604
129	0xbb95e150	-0.0045739785
130	0xbbb3763f	-0.0054767425
131	0xbd71b189	-0.0590072
132	0x3ca4d58a	0.020121355
133	0x3d6c5164	0.057694808
134	0xbd3f674f	-0.046729382
135	0x3d4c874b	0.049933713
136	0xbde58089	-0.11206157
137	0xbdff423b	-0.12463804
138	0xbde38fbe	-0.11111401
139	0xbe0a086b	-0.13479774
140	0xbdb15b71	-0.08660019
141	0xbc709b82	-0.014685513
142	0x3d863e02	0.06554796
143	0xbe23e7ec	-0.1600644
144	0xbdda117b	-0.106478654
145	0xbd82e135	-0.06390611
146	0x3c492eee	0.012279255
147	0xbe04902f	-0.12945627
148	0xbde77057	-0.11300724
149	0x3c5ccc82	0.013476493
150	0xbdf76153	-0.1207911
151	0x3dc09cde	0.0940492
152	0xbe270c77	-0.16313349
153	0xbdf536f0	-0.11973369
154	0xbdd3c393	-0.10340037
155	0x3d687186	0.05674889
156	0xbd35e562	-0.04440821
157	0x3d2115b8	0.039327353
158	0x3d25016c	0.04028456
159	0x3dbbab47	0.09163528
160	0xbdaf8b8f	-0.085715406
161	0x3ced7cde	0.028990205
162	0xbbed6af8	-0.0072454177
163	0xbda62fd0	-0.08114588
164	0x3d5e0cf4	0.05421157
165	0x3dacba4b	0.0843397
166	0xbda5ee66	-0.081021115
167	0x3d8aa484	0.0676966
168	0x3d33f8be	0.04393839
169	0x3d883d0c	0.06652269
170	0xbd282d57	-0.041058864
171	0x3d22cc86	0.03974583
172	0xbddd0737	-0.10792392
173	0x3e08875e	0.13332888
174	0x3dacc42f	0.084358566
175	0xbbc5c6e8	-0.0060356744
176	0xbd816237	-0.06317561
177	0xbd28285f	-0.041054126
178	0xbd822b1d	-0.063558795
179	0xbc0320be	-0.008003412
180	0xbdfdcdfb	-0.12392803
181	0xbdbe77f0	-0.0930022
182	0xbdd30ac4	-0.10304788
183	0xbe26296e	-0.16226742
184	0xbdfd740a	-0.12375648
185	0xbe2c4db6	-0.1682652
186	0xbdbf353a	-0.09336324
187	0xbc220f0a	-0.009891281
188	0xbdd5ac95	-0.10433308
189	0x3ae1a1ea	0.0017214392
190	0x3cc85096	0.024452489
191	0xbdefa4ad	-0.11701331
192	0xbe1bfdbd	-0.15233512
193	0xbd593642	-0.05303026
194	0x3d338325	0.04382624
195	0xbd5a325a	-0.053270675
196	0xbe051605	-0.12996681
197	0xbd475105	-0.04866125
198	0xbdacf9b7	-0.08446067
199	0xbe13e4ff	-0.14442824
200	0xbae14907	-0.0017187902
201	0xbe09131e	-0.13386199
202	0xbdadcdcb	-0.084865175
203	0xbc039053	-0.008030015
204	0xbde275a8	-0.110575974
205	0xbdd486b4	-0.10377255
206	0xbe1a5d11	-0.15074565
207	0xbdcaf8fa	-0.0991077
208	0x3d5315b9	0.05153439
209	0x3cd5c3bf	0.026094316
210	0xbd3521e9	-0.044221792
211	0x3d83042a	0.063972786
212	0xbd86fc58	-0.065910995
213	0x3d9f2920	0.07771516
214	0x3a8be4da	0.0010673061
215	0xbdccaaa5	-0.09993485
216	0xbccc84f0	-0.024965733
217	0x3daaeffd	0.083465554
218	0x3d95c612	0.073131695
219	0xbd567d73	-0.05236573
220	0xbdf034c8	-0.11728817
221	0xbdfb1d8c	-0.12261495
222	0xbe2a415c	-0.16626495
223	0xbde2aaad	-0.1106771
224	0x3d1bac4b	0.03800611
225	0xb5eb8df6	-1.755018e-06
226	0xbdb95c9c	-0.09050867
227	0xbd0738de	-0.033013217
228	0x3dda128d	0.106480695
229	0xbe0442db	-0.12916128
230	0xbdec6afa	-0.11543842
231	0x3d02668e	0.031836085
232	0xbd07bbd2	-0.033138104
233	0xbc937ceb	-0.018003901
234	0x3d346333	0.044039916
235	0xbd0acc2e	-0.033886127
236	0x3dbfed92	0.09371485
237	0xbdb6f8b3	-0.08934154
238	0xbd749403	-0.059711467
239	0x3d0797e2	0.03310383
240	0xbddf61c6	-0.10907321
241	0x3d0aec56	0.033916794
242	0x3c3f4250	0.011673525
243	0xbd9ae1bb	-0.07562586
244	0x3d9be219	0.07611484
245	0x3db68b89	0.08913333
246	0xbd68f60e	-0.05687528
247	0xbd8e39c8	-0.06944615
248	0xbd74a6b4	-0.059729293
249	0x3d39e2d0	0.04538232
250	0xbc206e2f	-0.009791895
251	0x3be6af25	0.007039922
252	0xbdce4cb0	-0.10073221
253	0xbd6216a2	-0.055197366
254	0x3d9c701b	0.0763857
255	0xbe03976e	-0.12850735

actor_linear3.weight f4 [8, 512]
0	0xbb51dff5	-0.0032024358
1	0x3e48ea7b	0.19620697
2	0x3dfc4696	0.12318151
3	0x3d7b8db3	0.06141443
4	0x3e201790	0.15633988
5	0xbd91102b	-0.07083162
6	0x3e37b5ec	0.17940491
7	0x3e0b0a25	0.13578089
8	0x3d29a6b7	0.041418757
9	0x3d1f8d23	0.038952958
10	0x3cc80574	0.024416663
11	0x3dbeb6c6	0.09312205
12	0x3ddcfc9d	0.1079037
13	0x3d3f4200	0.046693802
14	0x3dd35aba	0.10320039
15	0x3e00e89c	0.12588733
16	0xbd4857e7	-0.048911955
17	0xba9632c0	-0.0011459216
18	0x3c9eb18d	0.019371772
19	0x3e308477	0.17238031
20	0x3ddd54f1	0.10807217
21	0x3cb9540b	0.022623083
22	0x3e325021	0.17413379
23	0xba4e79d7	-0.0007876432
24	0x3d33a6ed	0.043860365
25	0x3cb88d19	0.022528218
26	0x3cfa5e85	0.030562649
27	0x3bf6a8cc	0.0075274464
28	0x3e2ae9b1	0.16690709
29	0x3e3d552a	0.18489519
30	0xbcaa0ec1	-0.020758988
31	0xbcf672a1	-0.030083956
32	0x3d306525	0.04306521
33	0xbbfb18ea	-0.007662882
34	0x3dccfdc9	0.10009343
35	0x3d06f705	0.03295042
36	0x3d2a365d	0.04155575
37	0x3da8a8b8	0.082353055
38	0x3d6a8b7d	0.057261933
39	0x3af132f5	0.0018402027
40	0xbc53eff2	-0.012935625
41	0xbaa6f054	-0.0012736418
42	0x3cde7342	0.027154569
43	0x3e2beeaa	0.16790262
44	0x3d3bbc17	0.045833673
45	0x3c90a136	0.017654996
46	0x3c514977	0.012773863
47	0x3d6767e6	0.05649557
48	0x3ddd1753	0.10795464
49	0x3ced4da9	0.028967695
50	0x3c3a5fc4	0.011375371
51	0x3ca799b2	0.02045903
52	0x3e271069	0.16314854
53	0xbb9d506e	-0.0048008477
54	0x3dbe9dba	0.09307428
55	0xbcb42bb9	-0.021993505
56	0x3d2de97f	0.042459007
57	0x3d9e4f9c	0.07730028
58	0xbbbef9d9	-0.005828124
59	0xbd96caf1	-0.07362927
60	0x3d7bcbdb	0.06147371
61	0x3de63c61	0.11241985
62	0xbc269410	-0.010167137
63	0xbd13c6c6	-0.036078237
64	0x3c8619bd	0.016369695
65	0x3d9cd1e7	0.07657223
66	0xbaa32116	-0.0012445773
67	0x3bc425d5	0.0059859552
68	0x3d12574d	0.035727788
69	0x3d8954b3	0.06705608
70	0x3d0d6d22	0.034527905
71	0x3dca01de	0.098636374
72	0x3cc0fca5	0.02355797
73	0x3cfa44a2	0.030550305
74	0x3dd60f0a	0.10452087
75	0x3d71c5b7	0.059026446
76	0xbcf60d12	-0.03003553
77	0xbd11d336	-0.035601817
78	0x3e08d4ef	0.13362478
79	0xbc7654e2	-0.015034886
80	0x3cdb587f	0.026775597
81	0x3da7fb7c	0.08202264
82	0xbc45a796	-0.012063881
83	0x3d46956a	0.048482336
84	0x3d206fda	0.03916917
85	0xbc11769c	-0.008878376
86	0x3ca55b2c	0.020185076
87	0xbcd35667	-0.025798036
88	0x3db73e6b	0.08947452
89	0xbbb3ccea	-0.005487074
90	0x3de71ea8	0.11285144
91	0xbcc17750	-0.023616463
92	0x3d638f71	0.05555672
93	0x3ca76436	0.020433526
94	0x3d8dea79	0.06929488
95	0x3db6abc0	0.089194775
96	0x3dba9b1e	0.091116175
97	0xbd2ae8c0	-0.041725874
98	0x3dadcc05	0.08486179
99	0xbbbdddf7	-0.0057942825
100	0x3df5531d	0.11978743
101	0xbb7741c4	-0.0037728408
102	0x3c340bdd	0.010989157
103	0x3dcfeba2	0.10152365
104	0xbcf72e49	-0.030173438
105	0x3d900de5	0.070339
106	0x3d7090b1	0.05873174
107	0x3c8dea16	0.017323535
108	0xbcb4b0f8	-0.022057042
109	0x3e26293c	0.16226667
110	0xbd62e888	-0.05539754
111	0x3db197a6	0.08671503
112	0x3d83d342	0.064367786
113	0x3bf553e6	0.007486808
114	0xbd07f040	-0.033188105
115	0x3dc06789	0.09394748
116	0x3afccbe1	0.0019286835
117	0x3d66a08f	0.056305464
118	0x3b856a7d	0.0040715323
119	0x3d681edd	0.05667006
120	0x3d50ba0f	0.05095869
121	0x3c7cdc77	0.015433422
122	0x3df0503e	0.11734055
123	0x3da73d78	0.08166021
124	0x3d1fd646	0.039022706
125	0x3e4000f4	0.18750364
126	0x3b251766	0.0025190949
127	0x3d255cd9	0.04037175
128	0x3d511349	0.051043782
129	0x3d4817b1	0.04885072
130	0x3b29deae	0.002592008
131	0xbd291119	-0.04127607
132	0x3d5c7ba9	0.05382887
133	0xbd8d3cb6	-0.06896345
134	0xbc6ee9f9	-0.014582151
135	0xbd1263ac	-0.035739586
136	0x3e19057d	0.149435
137	0x3d66a263	0.056307208
138	0x3d4226f8	0.047400445
139	0x3e0daf7e	0.13836476
140	0x3cd35e31	0.02580175
141	0x3db65d7f	0.08904552
142	0x3b5bdd51	0.0033548663
143	0x3e0c6fe3	0.13714556
144	0xbacd0df9	-0.0015644423
145	0xbca34d7f	-0.019934414
146	0x3d11f5dd	0.035634864
147	0x3d4b23d3	0.04959471
148	0xbbca3a4b	-0.0061715
149	0x3c25c175	0.0101169245
150	0x3dd10841	0.102066524
151	0x3d615b50	0.055018723
152	0x3d723a96	0.059137903
153	0x3c031e0c	0.008002769
154	0x3d0c663d	0.03427719
155	0x3d9f933a	0.07791753
156	0x3bb713ce	0.0055870777
157	0x3da52b91	0.0806495
158	0x3dad9161	0.084749945
159	0x3deec9d6	0.11659591
160	0xbdc52a2f	-0.096271865
161	0x3ced017e	0.028931376
162	0x3d453b75	0.048152406
163	0x3dd88f69	0.10574228
164	0xbd6b1406	-0.057392143
165	0x3dc9253d	0.09821556
166	0x3deba6a2	0.11506392
167	0x3df85b17	0.12126749
168	0xbb90b51b	-0.0044161207
169	0x3cf2bd8d	0.0296314
170	0x3d39938d	0.04530673
171	0x3d97cfe1	0.07412697
172	0x3df684d9	0.120370574
173	0x3dd78271	0.105229266
174	0x3e1fc632	0.1560295
175	0x3d2703e3	0.04077519
176	0xbcbc2161	-0.022965135
177	0xbca894c9	-0.020578759
178	0xbd09e972	-0.033669896
179	0xbc63f9c0	-0.0139145255
180	0x3e07430a	0.13209167
181	0x3d6278b2	0.055290885
182	0x3d232b79	0.03983638
183	0x3db76d3f	0.08956384
184	0xbd113827	-0.03545394
185	0xbd1b4428	-0.037906796
186	0x3d8583b9	0.06519265
187	0x3db70f0c	0.08938417
188	0x3db5d0d7	0.08877724
189	0x3e44cc48	0.19218552
190	0x3d2718e7	0.040795233
191	0x3d91598d	0.070971586
192	0x3c6c170b	0.014409791
193	0x3da2ca88	0.07948786
194	0x3d98cb47	0.07460647
195	0x3e0cc670	0.13747573
196	0x3d24ccbe	0.04023432
197	0x3d2326b2	0.039831825
198	0x3d687661	0.05675352
199	0x3db735c8	0.08945805
200	0x3c86b388	0.016443029
201	0x3d43877a	0.047736622
202	0x3c8f3926	0.017483305
203	0x3d98c550	0.074595094
204	0x3d572c97	0.05253276
205	0x3d960565	0.07325248
206	0x3be8f7a4	0.007109599
207	0xbd2d23ad	-0.04227035
208	0x3db630c7	0.08896022
209	0x3df84819	0.121231265
210	0x3d9c4803	0.07630923
211	0xbc733955	-0.014845212
212	0x3d33e4af	0.04391926
213	0x3cb72d75	0.022360543
214	0x3a9a1c5d	0.001175772
215	0xbb343750	-0.002749879
216	0xbda3d997	-0.08000486
217	0x3d172a33	0.03690548
218	0x3e1c5a84	0.15268904
219	0xbd34a9bc	-0.044107184
220	0x3d076296	0.033053003
221	0x3c668957	0.01407083
222	0x3d8b2776	0.06794636
223	0x3c723b40	0.014784634
224	0x3d3cbba0	0.04607737
225	0x3dbf2609	0.093334265
226	0x3c0a1f47	0.008430309
227	0x3db5a5e6	0.08869533
228	0x3dd64b99	0.10463638
229	0x3d593dfc	0.05303763
230	0x3d597e82	0.053099163
231	0x3d852b3e	0.065023884
232	0x3d5053e2	0.050861247
233	0x3d8e415c	0.0694606
234	0x3cc00722	0.023440901
235	0xbcac5ccb	-0.02104034
236	0x3d6e54d5	0.05818637
237	0x3d42162a	0.04738442
238	0x3dc83303	0.09775355
239	0x3dce8377	0.10083669
240	0x3d57be38	0.05267164
241	0x3da9153e	0.08256005
242	0x3e451f68	0.19250262
243	0x3b8591a6	0.0040762005
244	0xbc8e0da2	-0.017340485
245	0x3d139713	0.036032747
246	0xbc2d7a71	-0.010588274
247	0x3d0879a8	0.033319145
248	0x3db4bc56	0.08824985
249	0x3c1ec817	0.00969126
250	0x3d06d0f1	0.032914106
251	0xbd8cee23	-0.068813585
252	0x3c76bb25	0.015059267
253	0x3deadf39	0.114683576
254	0xbdb4bee0	-0.08825469
255	0x3d0d5f84	0.03451492

actor_linear3.bias f4 [8]
0	0xbc309f4f	-0.01078017
1	0x3d710702	0.058844574
2	0x3cbd7f81	0.023132088
3	0x39bf227f	0.0003645606
4	0x3db2b1fa	0.087253526
5	0x3d9220e2	0.07135178
6	0x3bffa450	0.00780157
7	0x3da882d2	0.08228077
