model/model_4_backup.pth (torch, 283087 bytes, 7 tensors)

critic_linear1.weight f4 [512, 63]
-0.11740671 -0.109971024 0.040123735 -0.024001483 -0.008841721 0.030478213 0.086458124 0.0370421
-0.061113823 -0.023627149 -0.04395127 -0.111986235 0.08832307 -0.08336566 -0.06470279 0.028663427
0.06946402 -0.043985363 -0.072779305 0.002401141 0.11913409 0.004916516 0.011953619 0.111395106
0.018757328 -0.01955608 -0.008552546 0.093631476 -0.024790969 0.120687455 -5.352757e-05 -0.12560865
-0.039929643 0.0042870264 0.083652236 0.006330416 -0.088685915 0.041232012 0.09502062 -0.07173998
0.0672641 -0.019516582 0.02122024 0.07144442 0.10503277 0.033283558 -0.048906807 0.10296902
0.008047398 -0.09163302 -0.11592986 0.08069963 -0.12531891 0.0937806 0.121761434 0.10892049
-0.0805004 0.11408904 0.011032566 -0.005782224 -0.018243259 0.01114279 0.039035007 -0.08219128
0.09745957 0.059488382 0.06572458 0.0818247 0.029511098 0.09270688 0.09170217 -0.02304898
-0.12388098 -0.04355824 0.07875214 -0.073162556 -0.03388624 -0.00888448 -0.09594258 -0.0959392
0.079504944 0.07851204 -0.076438524 0.09624408 0.053827256 0.0042867414 0.045759343 -0.10937528
0.054122753 -0.0027776812 -0.040329147 0.07244518 -0.011627107 -0.07788172 -0.04170487 -0.064078145
0.010375487 -0.05482776 -0.10143782 -0.094638996 -0.09014355 -0.06588254 -0.03717476 0.008885396
0.10132824 -0.07323639 -0.11707681 0.04400615 -0.012807132 -0.098429166 -0.09800003 -0.004550579
-0.08101875 -0.039998204 0.06588045 -0.06133615 0.023229072 -0.0021050873 -0.06717297 -0.076702334
-0.03158975 -0.05237782 0.08539689 0.11134141 -0.066155285 -0.042505514 -0.046163607 -0.015514719
-0.08179711 0.010186789 -0.03753544 -0.058833707 0.05108562 0.07319554 -0.04799766 0.09294867
-0.10993263 -0.042732105 -0.09304479 -0.008332564 0.042566087 0.06322909 -0.08209139 0.027546827
0.063677594 -0.07468206 -0.106281 0.082177386 0.1002997 0.089561775 0.010056154 -0.07948192
0.02792583 0.0088418415 -0.00067807594 -0.07164231 0.089333594 0.014855717 -0.03590342 0.02537294
-0.08477643 -0.03690218 -0.08343886 0.036585193 0.041437306 0.09225295 -0.007212975 0.10363573
0.012684622 -0.02177363 0.061345205 -0.11704261 0.06921118 0.047608733 0.014796153 -0.005358659
-0.08033815 0.0049619935 -0.005733818 -0.003577681 -0.0834136 -0.10527 0.12517554 0.0070349704
0.09506625 -0.102592476 0.028031189 -0.073662326 0.09578139 -0.0063576903 0.075864725 -0.00033690527
-0.080592334 -0.09277476 -0.10243303 0.10191997 0.06608492 -0.05923126 -0.038486052 -0.10793744
0.030433396 -0.055569395 0.12587813 0.09674132 -0.010707556 -0.09449375 -0.04769096 0.08429943
-0.102037854 -0.0904674 -0.059606206 -0.050608557 -0.00939945 0.1225054 -0.07447149 -0.12569728
-0.016079132 0.07539546 -0.08036212 0.00021220287 -0.02320722 -0.050337467 -0.033368595 -0.08958169
0.0069597852 0.07795027 -0.07703996 -0.044628326 0.013347754 -0.036695205 0.10983249 0.113818265
-0.03660685 -0.11783008 0.07550957 -0.1259271 -0.088115595 -0.068113126 0.09800411 0.037978094
0.052815743 0.0346108 0.071869306 0.12448048 0.047752537 -0.0044701677 0.11775731 0.121688634
-0.08378664 -0.055423938 0.02830554 -0.00029139782 0.03274615 0.05935991 -0.116752684 0.032811094
00000000: ee72 f0bd 7d38 e1bd c958 243d c29e c4bc
00000010: dedc 10bc 72ad f93c f510 b13d 75b9 173d
00000020: 7d52 7abd b98d c1bc 3f06 34bd 0a59 e5bd
00000030: bae2 b43d 9dbb aabd e582 84bd 90cf ea3c
00000040: 2743 8e3d ff29 34bd 510d 95bd 765c 1d3b
00000050: 93fc f33d ba1a a13b 1dd9 433c 1e23 e43d
00000060: f8a8 993c 1334 a0bc fa1f 0cbc dcc1 bf3d
00000070: 6e16 cbbc fc2a f73d ca82 60b8 8e9f 00be
00000080: 448d 23bd 2f7a 8c3b dd51 ab3d 616f cf3b
00000090: f6a0 b5bd e6e2 283d 2c9a c23d 69ec 92bd
000000a0: c3c1 893d 3de1 9fbc 12d6 ad3c 7451 923d
000000b0: 6c1b d73d 5754 083d 8152 48bd 6ce1 d23d
000000c0: 3cd9 033c 18aa bbbd a26c edbd d945 a53d
000000d0: 9a53 00be 0b10 c03d 0f5e f93d b511 df3d
000000e0: 65dd a4bd 84a7 e93d f0c1 343c cf78 bdbb
000000f0: e372 95bc 4090 363c 2ce3 1f3d e753 a8bd
00000100: e298 c73d 17aa 733d 9c9a 863d b593 a73d
00000110: 42c1 f13c 1bdd bd3d 59ce bb3d 37d1 bcbc
00000120: 50b5 fdbd 206a 32bd cd48 a13d 40d6 95bd
00000130: 4ccc 0abd 3690 11bc 8b7d c4bd c57b c4bd
00000140: 7dd3 a23d ecca a03d cd8b 9cbd 9e1b c53d
00000150: f879 5c3d cb77 8c3b 266e 3b3d 2600 e0bd
00000160: d2af 5d3d c209 36bb 2d30 25bd 235e 943d
00000170: 9f7f 3ebc 7480 9fbd bad2 2abd 673b 83bd
00000180: f2fd 293c 1393 60bd a2be cfbd 17d2 c1bd
00000190: 2e9d b8bd 6ded 86bd 9044 18bd 0d94 113c
000001a0: 2e85 cf3d f6fc 95bd f7c5 efbd cb3f 343d
000001b0: 01d5 51bc 3b95 c9bd 3db4 c8bd 061d 95bb
000001c0: 29ed a5bd 28d5 23bd 54ec 863d 9d3b 7bbd
000001d0: e54a be3c 81f5 09bb fb91 89bd 1d16 9dbd
000001e0: 4164 01bd 208a 56bd 91e4 ae3d f706 e43d
000001f0: 6c7c 87bd 431a 2ebd 0d16 3dbd 7331 7ebc
00000200: 3e85 a7bd 7de6 263c c3be 19bd 9dfb 70bd
00000210: 283f 513d 8be7 953d 3299 44bd df5b be3d
00000220: 5c24 e1bd dc07 2fbd 448e bebd 4e85 08bc
00000230: c759 2e3d 417e 813d 881f a8bd e2a9 e13c
00000240: 6669 823d e8f2 98bd daa9 d9bd 9e4c a83d
00000250: ee69 cd3d 2a6c b73d 91c2 243c 6bc7 a2bd
00000260: b6c4 e43c 5fdd 103c e8c0 31ba 34b9 92bd
00000270: 88f4 b63d 6565 733c 770f 13bd e9da cf3c
00000280: 449f adbd be26 17bd fee1 aabd 5bda 153d
00000290: 2aba 293d 1def bc3d d25a ecbb f83e d43d
000002a0: 29d3 4f3c 9d5e b2bc 1c45 7b3d 09b4 efbd
000002b0: 97be 8d3d 6001 433d 906b 723c b197 afbb
000002c0: 5488 a4bd 3898 a23b c0e2 bbbb 8777 6abb
000002d0: c0d4 aabd cc97 d7bd 042e 003e 9c85 e63b
000002e0: 18b2 c23d 011c d2bd aaa1 e53c 46dc 96bd
000002f0: 0929 c43d 2c54 d0bb f75e 9b3d a9a2 b0b9
00000300: 980d a5bd b200 bebd 69c8 d1bd 6bbb d03d
00000310: 8857 873d 7a9c 72bd 8da3 1dbd 4e0e ddbd
00000320: 754f f93c bc9c 63bd 32e6 003e 5020 c63d
00000330: bf6e 2fbc f085 c1bd 9957 43bd 2ea5 ac3d
00000340: 39f9 d0bd f946 b9bd a325 74bd eb4a 4fbd
00000350: 2700 1abc 1ce4 fa3d 8284 98bd cab6 00be
00000360: 62b8 83bc ef68 9a3d e594 a4bd c682 5e39
00000370: 111d bebc a92e 4ebd 82ad 08bd 9b76 b7bd
00000380: e90e e43b 64a4 9f3d 20c7 9dbd 31cc 36bd
00000390: 8ab0 5a3c b64d 16bd dbef e03d 8d19 e93d
000003a0: 10f1 15bd e650 f1bd c3a4 9a3d 09f3 00be
000003b0: f375 b4bd e57e 8bbd 61b6 c83d eb8e 1b3d
000003c0: 5255 583d 0ec4 0d3d 3730 933d 9fef fe3d
000003d0: 2a98 433d 7c7a 92bb bf2a f13d e437 f93d
000003e0: 5498 abbd 3604 63bd 05e1 e73c c1c6 98b9
000003f0: d420 063d 6123 733d 081c efbd ed64 063d

critic_linear1.bias f4 [512]
0.10555886 -0.09263988 -0.039657276 -0.07259062 0.028463315 -0.12137945 -0.09619075 -0.0981074
-0.067667946 0.119593546 -0.123652875 0.09614781 -0.065733254 0.034855325 0.07140103 -0.11282871
-0.1127507 -0.087682076 0.0396326 -0.10293006 -0.08662582 0.019444881 0.10908043 0.07591648
0.08499213 -0.040707204 0.11019149 -0.08981333 -0.060055904 0.083349094 -0.04077228 0.062156394
-0.043015815 0.10832921 -0.08327203 -0.0506843 0.09341722 -0.08320213 -0.005024157 0.091786414
-0.12339943 -0.011151306 0.06784316 -0.052842192 -0.07550098 0.0020804713 -0.013978475 -0.019912915
0.043073878 0.045108825 0.11374955 -0.050615616 -0.07309856 -0.024463857 0.09840393 -0.07782404
-0.014488985 0.10181759 -0.07746923 -0.06886912 0.025557626 0.02954157 0.05372741 0.029760802
0.084704556 -0.100706935 -0.088352084 -0.12155756 0.11996165 0.098171934 0.006743903 -0.094769284
-0.096662946 0.10603388 0.013422864 0.023087788 0.09338186 -0.024227533 -0.004078128 0.05543301
0.03117667 0.089195915 0.08254948 -0.041423265 -0.01252093 0.052585084 -0.031305894 -0.077005416
-0.0026019444 0.008269409 -0.016971828 -0.057437588 0.07489318 -0.026384015 -0.03270751 0.0134833455
0.03721788 -0.049437124 -0.08420402 -0.10641743 0.08127852 -0.07795206 0.040826004 -0.019937802
0.09397699 -0.09739867 0.09028365 -0.100561135 0.109137304 -0.010342085 -0.044706482 -0.07076691
0.07227247 0.073248275 0.038260844 -0.060221698 0.034617737 -0.026975792 -0.028986365 -0.05161049
0.100926846 -0.082840025 -0.11293513 0.12140988 -0.09396868 -0.011968743 0.11542817 -0.08772724
0.02572282 -0.09431338 -0.09478322 -0.016534582 0.037978232 0.07752086 0.10426512 -0.067458704
-0.049423426 0.032760207 -0.113528565 0.06123734 -0.002958074 -0.016243365 -0.10602351 -0.061591744
0.07134528 -0.08816669 -0.02662959 -0.048465624 0.051678374 0.05444102 -0.08458048 -0.10733549
0.0662707 -0.07092307 0.11327587 -0.013266501 0.11892929 0.058929767 -0.08761862 0.056913756
0.012088174 0.09759729 0.045904845 0.124544986 -0.00702288 0.08463201 0.011326413 -0.104700826
-0.050922364 -0.10481033 0.04157928 0.10865937 0.12409434 -0.08232503 -0.06333208 -0.121417254
0.043719288 -0.038597055 0.061326448 -0.041846994 0.062509924 -0.0050707157 -0.11003451 0.11760727
0.089422174 -0.021335468 0.02185281 0.041962534 0.09615834 0.037749432 -0.035504773 -0.11150353
-0.057070825 0.03885756 -0.11134979 -0.07724232 0.06393937 0.022998577 0.010986579 0.10307008
0.111443825 -0.012075919 -0.06506662 -0.010829225 0.01079366 0.010388884 -0.061393056 7.022865e-05
0.035030745 -0.057650376 -0.104480796 0.08318637 0.08148891 0.06592841 -0.033856276 -0.07836448
-0.057845052 -0.05673374 -0.07972699 0.024746498 -0.03401175 0.0431952 -0.10577327 -0.018690854
-0.02631308 -0.018388372 0.053114336 -0.1052773 0.032634635 -0.0068324995 0.027467633 0.11046013
-0.039954577 -0.1213958 0.03389384 0.051819235 0.061344154 -0.05095724 0.07847765 -0.113883086
0.011794734 -0.0014296847 0.12541737 0.112922214 -0.03771561 -0.053195935 -0.11914045 0.0080655115
-0.08208923 0.002323418 0.06331583 -0.107983336 0.12142636 0.07450094 -0.11486732 0.061728116
00000000: 3e2f d83d fab9 bdbd ab6f 22bd 64aa 94bd
00000010: e62b e93c ca95 f8bd a8ff c4bd 88ec c8bd
00000020: 7e95 8abd 76ed f43d b83d fdbd 25e9 c43d
00000030: 289f 86bd 75c4 0e3d b43a 923d bd12 e7bd
00000040: d7e9 e6bd a992 b3bd cb55 223d ffcc d2bd
00000050: e168 b1bd df4a 9f3c 8f65 df3d 197a 9b3d
00000060: 5b10 ae3d 99bc 26bd 13ac e13d 0df0 b7bd
00000070: 2efd 75bd eeb2 aa3d d600 27bd b497 7e3d
00000080: 5a31 30bd b4db dd3d 878a aabd 579a 4fbd
00000090: 8751 bf3d e165 aabd afa1 a4bb 84fa bb3d
000000a0: d7b8 fcbd f8b3 36bc 5bf1 8a3d 0e71 58bd
000000b0: 42a0 9abd 8458 083b f905 65bc 6920 a3bc
000000c0: 3c6e 303d 08c4 383d 86f5 e83d 5252 4fbd
000000d0: b3b4 95bd 6d68 c8bc 0088 c93d 3662 9fbd
000000e0: 3563 6dbc be85 d03d 30a8 9ebd 410b 8dbd
000000f0: 3a5e d13c 2a01 f23c 4611 5c3d edcc f33c
00000100: 9579 ad3d 703f cebd f0f1 b4bd 2cf3 f8bd
00000110: 74ae f53d 5e0e c93d f5fb dc3b 6616 c2bd
00000120: 39f7 c5bd 4a28 d93d 92eb 5b3c 9a22 bd3c
00000130: fd3e bf3d d278 c6bc d1a1 85bb b90d 633d
00000140: 3766 ff3c 59ac b63d b40f a93d 71ab 29bd
00000150: 9624 4dbc 7563 573d 9c3a 00bd 04b5 9dbd
00000160: 6285 2abb 6a7c 073c 8108 8bbc ad43 6bbd
00000170: 9861 993d 4a23 d8bc 4ff8 05bd 40e9 5c3c
00000180: c771 183d 957e 4abd 2873 acbd 62f1 d9bd
00000190: 5a75 a63d 54a5 9fbd 2b39 273d 9a54 a3bc
000001a0: 0277 c03d f478 c7bd a2e6 b83d fff2 cdbd
000001b0: 6183 df3d d971 29bc 251e 37bd 3eee 90bd
000001c0: 9703 943d 3103 963d 67b7 1c3d 07ab 76bd
000001d0: 54cb 0d3d 56fc dcbc d074 edbc 8565 53bd
000001e0: bcb2 ce3d 08a8 a9bd 894a e7bd bea5 f83d
000001f0: a772 c0bd 8c18 44bc 9b65 ec3d 57aa b3bd
00000200: aab8 d23c 6027 c1bd b41d c2bd 8873 87bc
00000210: 108f 1b3d 42c3 9e3d f488 d53d ca27 8abd
00000220: 3870 4abd 912f 063d aa81 e8bd 01d4 7a3d
00000230: 3fdc 41bb ce10 85bc db22 d9bd a047 7cbd
00000240: 791d 923d bd90 b4bd 4c26 dabc e483 46bd
00000250: b4ac 533d 8cfd 5e3d 8838 adbd b6d2 dbbd
00000260: efb8 873d 1d40 91bd 2efd e73d bd5b 59bc
00000270: 3391 f33d 5760 713d 6471 b3bd 661e 693d
00000280: 7a0d 463c 17e1 c73d b806 3c3d 7111 ff3d
00000290: 3020 e6bb 8c53 ad3d 6b92 393c 636d d6bd
000002a0: f893 50bd cca6 d6bd 094f 2a3d ce88 de3d
000002b0: 2c25 fe3d 069a a8bd 40b4 81bd 9ca9 f8bd
000002c0: ff12 333d f217 1ebd 7131 7b3d c167 2bbd
000002d0: 3405 803d 3f28 a6bb c659 e1bd 15dc f03d
000002e0: f922 b73d b8c7 aebc aa04 b33c e8e0 2b3d
000002f0: aaee c43d 269f 1a3d 746d 11bd f65b e4bd
00000300: 19c3 69bd 1b29 1f3d 5c0b e4bd 3931 9ebd
00000310: a5f2 823d 8367 bc3c 0d01 343c 6816 d33d
00000320: a93c e43d 13da 45bc a641 85bd 106d 31bc
00000330: e4d7 303c 2336 2a3c 4977 7bbd b847 9338
00000340: 667c 0f3d cd22 6cbd 07fa d5bd 9e5d aa3d
00000350: a8e3 a63d 7905 873d e1ac 0abd 8e7d a0bd
00000360: efee 6cbd a361 68bd e747 a3bd 2bb9 ca3c
00000370: e84f 0bbd 73ed 303d a89f d8bd 901d 99bc
00000380: 878e d7bc 36a3 96bc 6b8e 593d a09b d7bd
00000390: e5ab 053d 29e3 dfbb cd03 e13c ec38 e23d
000003a0: 69a7 23bd 5c9e f8bd 44d4 0a3d 6840 543d
000003b0: 0244 7b3d 8ab8 50bd e4b8 a03d 893b e9bd
000003c0: b33e 413c 4264 bbba 696d 003e c343 e73d
000003d0: af7b 1abd fbe3 59bd e9ff f3bd 3525 043c
000003e0: 661e a8bd 7c44 183b bbab 813d 5e26 ddbd
000003f0: 62ae f83d f393 983d 8f3f ebbd 9fd6 7c3d

critic_linear3.weight f4 [1, 512]
-0.015540364 0.022938237 0.00394661 0.012741013 -0.0438096 -0.016729891 -0.04115832 -0.020869955
0.02647478 -0.010217412 0.007607885 0.012306827 0.0066751754 -0.007300772 0.033200633 0.031331457
0.040617876 -0.018927623 -0.017314484 0.021900572 -0.0069995113 -0.017092902 0.0379809 0.0051145516
0.014995169 -0.011384507 -0.018290963 0.010882532 -0.039105125 -0.0375752 -0.036893047 0.041373633
0.02707325 -0.04134338 0.021809282 -0.0044947453 -0.007197396 0.026599903 0.03443661 -0.014303776
-0.042762864 0.037423447 -0.02200127 -0.03330426 0.037536457 -0.026942873 -0.016789697 -0.0022591026
0.0043924917 0.014943591 -0.035200473 0.0046685482 -0.02951972 -0.017938389 -0.010736567 -0.023414433
-0.024549417 -0.019002644 -0.007983546 -0.008504707 0.021045713 -0.017034229 0.015796127 0.03249062
-0.0018283724 0.030368473 -0.011359935 -0.003023225 -0.043003373 -0.028922431 -0.04078378 0.038449906
-0.042936057 0.016851801 -0.022808177 0.00023782412 -0.015299543 -0.034001127 -0.008417721 0.018976318
0.0391864 0.026732085 -0.015290634 -0.023638165 -0.034123562 -0.010653454 0.020512944 0.0056433943
-0.025064198 0.022501428 -0.029625805 0.033032343 -0.016224507 -0.037806224 0.008006336 -0.029829495
0.0071127075 -0.021865526 -0.023102578 0.038604785 -0.015167218 0.040986035 -0.031072332 0.029666439
0.0045433985 0.035439447 0.017315796 -0.034411073 0.0045818207 -0.019477623 -0.037585746 0.036345575
-0.00875075 0.027785884 0.018520541 -0.004535554 -0.0047603915 -0.042570006 0.041375183 0.024052167
-0.029954981 -0.02882227 0.0094691 0.026949074 -0.010686328 -0.041316196 -0.011688475 -0.013508128
0.0021040232 0.010229478 0.043574356 0.04003287 0.029359594 -0.011559447 -0.012734185 0.0071127443
0.022373775 -0.03667942 -0.005481703 -0.031950887 -0.013240111 -0.034182236 0.043228142 -0.0067346133
0.019617613 0.035008706 0.020968905 0.002263665 0.028526008 0.043620087 -0.03675807 0.016205315
-0.007047248 0.033433117 -0.003552347 -0.041732915 -0.030058721 0.009673839 -0.0014032319 0.043353412
-0.036532857 -0.018463818 0.02515603 -0.027878191 0.03384386 0.010838684 -0.010928735 0.004024044
-0.010631864 0.009218469 -0.030663738 0.018433625 -0.009668155 -0.022613397 0.02749508 -0.0029466862
0.026172776 -0.04379153 0.020379055 -0.014992508 -0.036966015 -0.022588762 -0.0008508816 -0.04163193
-0.023267068 -0.03850635 0.033984475 -0.037423275 0.0034122984 -0.030392187 0.02558254 -0.010161157
0.0057689077 -0.04005543 -0.026496142 -0.037586994 0.011738335 0.019474545 -0.0013864469 0.03087442
0.025030002 -0.019421024 0.03218999 0.0063441964 -0.037408426 -0.0036280323 0.03615808 0.037078436
0.0048427624 0.036974 0.030649936 0.029466596 0.04140851 -0.006129806 0.04008513 0.03970659
0.01911838 0.040865853 -0.006786733 0.0043815495 -0.018712984 0.015230396 -0.014116517 -0.01906726
0.0075435955 -0.006419049 -0.013812238 0.007812824 -0.013477593 -0.018150462 0.044164058 -0.024952197
0.029943671 -0.0361721 0.021506535 0.042606484 0.0030396413 0.016652951 0.016635723 -0.010564118
-0.029293166 -0.0007027618 0.030376576 0.03859869 0.0024875966 -0.028684517 0.00028897985 0.0009307657
0.009954943 -0.0030899593 0.009479169 0.039079506 -0.031131417 -0.012438099 -0.013620154 0.0054414216
00000000: 039d 7ebc f8e8 bb3c 9052 813b afbf 503c
00000010: b271 33bd 200d 89bc a095 28bd 78f7 aabc
00000020: a3e1 d83c ef66 27bc 914b f93b 93a2 493c
00000030: 6ebb da3b 503b efbb 63fd 073d 6a55 003d
00000040: ee5e 263d 1a0e 9bbc 1bd7 8dbc d468 b33c
00000050: 285c e5bb 6a06 8cbc dc91 1b3d f897 a73b
00000060: 4cae 753c 1586 3abc eed6 95bc a64c 323c
00000070: b22c 20bd 74e8 19bd 2a1d 17bd 6677 293d
00000080: b8c8 dd3c ad57 29bd 61a9 b23c a848 93bb
00000090: 22d8 ebbb 0ae8 d93c 670d 0d3d 635a 6abc
000000a0: 1d28 2fbd 5449 193d 023c b4bc 0c6a 08bd
000000b0: d4bf 193d 4db7 dcbc 8c8a 89bc 740d 14bb
000000c0: e4ee 8f3b f7d5 743c 5f2e 10bd 9ffa 983b
000000d0: 57d3 f1bc 87f3 92bc 6de8 2fbc a0cf bfbc
000000e0: dc1b c9bc 6fab 9bbc 6bcd 02bc 5457 0bbc
000000f0: 0f68 ac3c 5e8b 8bbc e166 813c e214 053d
00000100: ffa5 efba 4ec7 f83c 051f 3abc 4d21 46bb
00000110: 4e24 30bd bcee ecbc e50c 27bd a67d 1d3d
00000120: b8dd 2fbd ca0c 8a3c 37d8 babc 6d60 7939
00000130: efaa 7abc c444 0bbd 7bea 09bc 3974 9b3c
00000140: eb81 203d 3ffd da3c 9185 7abc d3a4 c1bc
00000150: 26c5 0bbd d38b 2ebc c30a a83c 39ec b83b
00000160: 6f53 cdbc ea54 b83c d1b1 f2bc ec4c 073d
00000170: 42e9 84bc b3da 1abd 022d 033c fc5c f4bc
00000180: b711 e93b 551f b3bc 9e41 bdbc 0d20 1e3d
00000190: ec7f 78bc f9e0 273d 678b febc 0807 f33c
000001a0: cae0 943b f428 113d dbd9 8d3c a0f2 0cbd
000001b0: 1923 963b 898f 9fbc 83f3 19bd 19df 143d
000001c0: 4e5f 0fbc 399f e33c 64b8 973c fc9e 94bb
000001d0: 0ffd 9bbb e35d 2ebd 0679 293d 0d09 c53c
000001e0: 2664 f5bc ae1c ecbc 4924 1b3c 4ec4 dc3c
000001f0: b515 2fbc 2c3b 29bd 0481 3fbc 3251 5dbc
00000200: a7e3 093b 8a99 273c 067b 323d 82f9 233d
00000210: 8883 f03c d663 3dbc 0ba3 50bc 0612 e93b
00000220: 3549 b73c 293d 16bd dc9f b3bb efde 02bd
00000230: 0ded 58bc ac02 0cbd fe0f 313d 08ae dcbb
00000240: 1eb5 a03c 4a65 0f3d fbc6 ab3c ff59 143b
00000250: 60af e93c faaa 323d a18f 16bd 02c1 843c
00000260: 9aec e6bb 2af1 083d 7ece 68bb 22f0 2abd
00000270: b53d f6bc 067f 1e3c a6ec b7ba 5993 313d
00000280: 7aa3 15bd 6f41 97bc 0514 ce3c ce60 e4bc
00000290: dc9f 0a3d bc94 313c 700e 33bc 21dc 833b
000002a0: 4531 2ebc 1009 173c 8532 fbbc 1d02 973c
000002b0: 2e67 1ebc bb3f b9bc 5d3d e13c 311d 41bb
000002c0: 4a68 d63c bf5e 33bd faf1 a63c 23a3 75bc
000002d0: ad69 17bd 110c b9bc b30d 5fba 3e86 2abd
000002e0: 949a bebc d6b8 1dbd 4e33 0b3d 2649 19bd
000002f0: dea0 5f3b 09f9 f8bc 7a92 d13c fb7a 26bc
00000300: 1b09 bd3b 2a11 24bd 700e d9bc d2f4 19bd
00000310: 2552 403c 1589 9f3c 70b9 b5ba 5aec fc3c
00000320: b80b cd3c d718 9fbc a7d9 033d fae2 cf3b
00000330: 9439 19bd 48c4 6dbb 7f1a 143d 8fdf 173d
00000340: 09b0 9e3b 0d72 173d 9315 fb3c ee63 f13c
00000350: f89b 293d 8adc c8bb 4e30 243d 61a3 223d
00000360: 269e 9c3c f462 273d 3e63 debb 1a93 8f3b
00000370: f94b 99bc e988 793c f748 67bc f132 9cbc
00000380: 4430 f73b e356 d2bb ba4c 62bc 5c01 003c
00000390: 1fd1 5cbc 47b0 94bc 5fe5 343d 8d68 ccbc
000003a0: 6e4c f53c 3229 14bd 792e b03c 2384 2e3d
000003b0: b834 473b c56b 883c a447 883c 1f15 2dbc
000003c0: 39f8 efbc 8c39 38ba 4cd8 f83c a919 1e3d
000003d0: f206 233b cbfb eabc 3882 9739 a1fe 733a
000003e0: 0f1a 233c ea80 4abb 844e 1b3c d511 203d
000003f0: 5007 ffbc 2bc9 4bbc 1127 5fbc f44d b23b

actor_linear1.weight f4 [512, 63]
-0.02467041 -0.07956292 0.023885896 -0.050441965 0.05532396 -0.066739336 0.06656926 -0.12869674
-0.1424285 0.079006925 0.040998477 -0.04974955 0.016130045 -0.109071165 0.04336728 0.05406583
0.02054299 -0.03995605 -0.010841633 -0.046204235 -0.06821133 -0.058443174 -0.030257437 -0.05382383
-0.11017006 -0.066028826 -0.137192 -0.07358809 -0.006987356 -0.019105874 -0.06764864 0.0974206
-0.1453894 -0.148028 0.01637528 0.030478263 -0.07099324 -0.070779406 -0.09244218 -0.060592923
0.00048845244 -0.14353417 0.075999625 -0.0429287 -0.11533884 -0.08638993 -0.028636679 0.0065312004
-0.03158354 0.024295494 -0.08178109 -0.12059935 -0.0618156 -0.00016804713 -0.12165763 -0.076474436
-0.115378596 0.09355835 0.07367272 -0.028833138 0.07563473 0.071558334 -0.040089604 -0.14146458
0.11059886 0.022016795 0.074256286 0.11467612 0.10108764 0.09447526 0.07417115 0.13328767
-0.027125798 -0.09292034 -0.0037321704 0.12725586 0.008347649 0.078178324 0.06695434 0.057785902
-0.06814169 -0.039984915 0.019299854 0.033248488 0.010523272 0.13815765 -0.059089106 -0.02396144
-0.050464127 -0.007804116 0.09498185 0.0119217755 0.12756363 -0.0347333 0.09094424 -0.0073172254
0.05131738 -0.060401976 0.06612051 0.06958632 -0.07281737 0.111009955 0.075046085 -0.011972304
-0.19429009 -0.2315339 -0.25944954 -0.3408805 -0.19649473 -0.38630205 -0.30455053 -0.35428622
-0.13476355 -0.020327197 -0.058304373 -0.23160076 -0.22176935 -0.20563391 -0.09845454 0.016831752
0.17039604 0.23042682 0.6840586 -0.15133676 -0.088789634 0.024696112 0.014271428 -0.11232673
-0.13094057 0.083404064 0.09328769 -0.042071562 -0.09298312 -0.045092646 -0.03879958 -0.124747105
0.092716634 0.023184512 -0.14838918 -0.012510469 -0.08016603 -0.052377373 0.0016658078 -0.15006372
-0.02645088 0.024349239 0.017920036 0.042252626 -0.104538076 0.014741179 -0.017417537 -0.11131313
-0.08916602 0.080468945 0.12400693 -0.015303056 -0.10426956 -0.10843287 -0.16786887 -0.06403131
-0.026194708 -0.15016079 0.056455337 0.016995234 0.0049824147 0.10389173 0.07962883 -0.07984687
-0.001132825 0.11499763 0.025175806 0.013496849 0.09723581 -0.1341247 -0.03347118 0.10822424
0.13027984 -0.09047648 0.07683435 0.14500135 -0.13179854 -0.01161436 0.06661736 0.13211727
-0.0628554 0.06837691 -0.033341207 -0.100800544 -0.068952255 -0.033255834 -0.076636545 -0.06107409
0.0046017417 -0.1495652 -0.12574726 0.08839445 0.040828258 0.10961728 -0.006826058 0.04127904
0.044962544 0.1422085 -0.06890979 0.045324437 0.020877529 0.07060403 0.17290786 -0.05788745
0.0011586105 0.09544075 0.02019067 0.091517806 0.03382379 0.09629142 -0.07073948 0.11632517
-0.15011863 -0.14208901 -0.021714311 -0.07345018 0.06300807 0.07372566 0.05539226 -0.094031215
-0.06538534 -0.11412202 -0.096162215 -0.07330789 0.02496551 -0.18579985 -0.17688665 -0.16476278
-0.09859016 -0.08569716 0.014191823 0.047798477 0.023222495 -0.10827683 -0.06455219 0.07934916
-0.17617896 0.0008921384 -0.32203066 0.059898157 0.031187583 0.052516438 0.11110819 -0.07434025
0.2356731 0.07131921 0.019990874 0.116777554 -0.20884165 -0.2869691 -0.17049621 -0.053658657
00000000: 9a19 cabc e2f1 a2bd 5bac c33c 3c9c 4ebd
00000010: 609b 623d a2ae 88bd 7755 883d 14c9 03be
00000020: c7d8 11be 62ce a13d 05ee 273d 2fc6 4bbd
00000030: 2823 843c b460 dfbd e4a1 313d 2274 5d3d
00000040: c649 a83c f5a8 23bd 1ba1 31bc a740 3dbd
00000050: 62b2 8bbd 1c62 6fbd 72de f7bc 6076 5cbd
00000060: d7a0 e1bd 1f3a 87bd 0f7c 0cbe 5ab5 96bd
00000070: 31f6 e4bb ec83 9cbc 5f8b 8abd 7484 c73d
00000080: f5e0 14be a794 17be 7425 863c 8dad f93c
00000090: e764 91bd cbf4 90bd 5352 bdbd 4930 78bd
000000a0: 7d0b 003a 9ffa 12be b1a5 9b3d 01d6 2fbd
000000b0: c536 ecbd 34ed b0bd 7897 eabc ae03 d63b
000000c0: be5d 01bd 5807 c73c d87c a7bd cbfc f6bd
000000d0: 5b32 7dbd cf35 30b9 a327 f9bd a19e 9cbd
000000e0: 9d4b ecbd 859b bf3d b9e1 963d 7933 ecbc
000000f0: 62e6 9a3d 2d8d 923d ff34 24bd 17dc 10be
00000100: a881 e23d 915c b43c ae13 983d 50db ea3d
00000110: 0907 cf3d 3f7c c13d 0be7 973d 907c 083e
00000120: ec36 debc 054d bebd 6e97 74bb 5c4f 023e
00000130: 94c4 083c f51b a03d 5b1f 893d e9b0 6c3d
00000140: df8d 8bbd 39c7 23bd ba1a 9e3c 912f 083d
00000150: cd69 2c3c 3379 0d3e 6b07 72bd c84a c4bc
00000160: 79b3 4ebd abb9 ffbb d885 c23d 8d53 433c
00000170: 0aa0 023e 8144 0ebd f940 ba3d 56c5 efbb
00000180: 2c32 523d 1068 77bd 316a 873d 4683 8e3d
00000190: 4621 95bd 3059 e33d c3b1 993d 7c27 44bc
000001a0: fbf3 46be 3917 6dbe 92d6 84be e487 aebe
000001b0: ea35 49be 62c9 c5be 0cee 9bbe 0165 b5be
000001c0: 75ff 09be 3985 a6bc 91d0 6ebd c028 6dbe
000001d0: 8117 63be b291 52be 89a2 c9bd bee2 893c
000001e0: 4d7c 2e3e 02f5 6b3e 771e 2f3f 06f8 1abe
000001f0: 57d7 b5bd 804f ca3c b5d2 693c 8e0b e6bd
00000200: 4915 06be c0cf aa3d 9e0d bf3d 3b53 2cbd
00000210: ef6d bebd 11b3 38bd 4fec 1ebd 697b ffbd
00000220: 38e2 bd3d 72ed bd3c 55f3 17be b6f8 4cbc
00000230: 162e a4bd a889 56bd 3c57 da3a 4eaa 19be
00000240: 84af d8bc 0e78 c73c 0acd 923c 1711 2d3d
00000250: 0f18 d6bd fc84 713c 39af 8ebc 23f8 e3bd
00000260: ad9c b6bd e7cc a43d 58f7 fd3d abb9 7abc
00000270: 478b d5bd 0d12 debd d1e5 2bbe d922 83bd
00000280: 4996 d6bc c0c3 19be b63d 673d 9739 8b3c
00000290: 8643 a33b 30c5 d43d 7114 a33d c186 a3bd
000002a0: 4d7b 94ba e183 eb3d 7e3d ce3c e321 5d3c
000002b0: 9123 c73d fc57 09be 1319 09bd aca4 dd3d
000002c0: 1468 053e bc4b b9bd 545b 9d3d 3c7b 143e
000002d0: 32f6 06be 284a 3ebc af6e 883d c049 073e
000002e0: 55ba 80bd 3209 8c3d ca90 08bd 8470 cebd
000002f0: d736 8dbd 4537 08bd 9ff3 9cbd d328 7abd
00000300: 35ca 963b 9f27 19be e4c3 00be 2608 b53d
00000310: 883b 273d 067f e03d 20ad dfbb 3614 293d
00000320: a52a 383d 1b9f 113e 9320 8dbd 1ea6 393d
00000330: 5a07 ab3c d898 903d c20e 313e 641b 6dbd
00000340: 84dc 973a 7176 c33d e766 a53c b06d bb3d
00000350: d08a 0a3d 7034 c53d dcdf 90bd e43b ee3d
00000360: b3b8 19be c87f 11be 36e2 b1bc 0c6d 96bd
00000370: 600a 813d 7bfd 963d ffe2 623d 7093 c0bd
00000380: c0e8 85bd ceb8 e9bd b2f0 c4bd 7222 96bd
00000390: 7884 cc3c 5142 3ebe c621 35be 93b7 28be
000003a0: a3e9 c9bd fe81 afbd d284 683c 56c8 433d
000003b0: 1a3d be3c 3ec0 ddbd f033 84bd d081 a23d
000003c0: 4268 34be 65de 693a 34e1 a4be c557 753d
000003d0: 1a7d ff3c 7a1b 573d b18c e33d b33f 98bd
000003e0: 4a54 713e ce0f 923d e7c3 a33c 1229 ef3d
000003f0: 96da 55be 9ded 92be 8f96 2ebe 2ec9 5bbd

actor_linear1.bias f4 [512]
-0.054637805 -0.0012344812 -0.007270617 -0.0011571033 0.021662371 -0.0651862 -0.11790239 0.05876067
0.021971144 -0.09709223 0.040395193 -0.10820087 -0.09332793 0.033138897 0.08872958 0.08168594
-0.11211692 0.06890481 0.08021101 0.06497022 0.0879489 -0.06308924 -0.13706814 -0.0345501
-0.084205516 0.057718273 0.00094831776 -0.02431691 0.11294052 0.113685146 -0.02274985 -0.1290677
-0.025539193 -0.098337345 -0.0005893152 -0.07550482 -0.057275422 0.057070546 -0.07592092 0.09093192
-0.021216802 -0.030179318 0.04352351 -0.093576096 0.012985208 -0.14889747 -0.13265434 -0.13302122
-0.10654551 -0.123722255 -0.045436 0.008186215 -0.15747069 0.07304798 -0.14180046 -0.11008643
-0.09333112 0.030460639 -0.09154398 0.07674528 -0.12538941 0.027182706 -0.056221027 -0.12374946
0.050143562 -0.025228722 0.04108769 -0.119598076 -0.11419405 0.066668764 -0.17735648 -0.005014646
0.0018401021 -0.004121055 0.041650023 -0.0615364 -0.04843633 -0.015003275 0.06111722 0.0381072
-0.1283638 -0.10330789 -0.0026424823 0.022218462 -0.171787 -0.13043065 0.023401832 -0.06591989
0.01044723 -0.12422746 0.11060171 -0.035689708 -0.0055856276 -0.11349662 -0.090587504 0.054824773
-0.061122034 -0.11850372 0.052156467 0.010970722 -0.013435546 -0.1302305 0.0013502871 0.041499082
-0.062553346 0.042875394 -0.04716353 0.07222258 -0.002594755 -0.13838357 0.112638205 0.048937228
0.055545326 -0.13162185 -0.10657973 0.105016254 0.032470584 -0.045573425 -0.08443619 -0.07453262
-0.05258649 -0.14075232 -0.13075224 0.02467336 -0.12961125 0.03651224 0.07233008 -0.06051682
0.016548604 0.010378673 -0.0022140155 -0.05511449 0.02290111 0.052635163 -0.03829155 0.05703316
-0.114342324 -0.12487494 -0.11111401 -0.13504224 -0.08660019 -0.00787777 0.06554796 -0.156256
-0.110959634 -0.06390611 0.012279255 -0.12549591 -0.10551662 0.013476493 -0.12802662 0.0940492
-0.15088718 -0.11973369 -0.10340037 0.057834107 -0.04440821 0.03458382 0.04028456 0.10236666
-0.08045697 0.028990205 -0.0072454177 -0.07863559 0.06227077 0.08859443 -0.07552157 0.073115826
0.054281857 0.079341754 -0.04134542 0.03659747 -0.10400159 0.12358606 0.094257064 0.0028171847
-0.06317561 -0.04484081 -0.063558795 -0.0007693256 -0.12234463 -0.0930022 -0.09819077 -0.15373668
-0.121490166 -0.1614934 -0.09336324 -0.00206352 -0.10987977 -0.0013399073 0.019874092 -0.1054725
-0.14348026 -0.05112452 0.049010046 -0.055976536 -0.11883864 -0.04866125 -0.08446067 -0.15554585
0.008290333 -0.13337953 -0.084865175 -0.002801273 -0.095883265 -0.097124584 -0.15074565 -0.088792816
0.05938793 0.0229686 -0.038234122 0.063972786 -0.06980687 0.07988342 0.00070010114 -0.10049073
-0.028931057 0.083465554 0.0639116 -0.052246798 -0.11728817 -0.12261495 -0.16626495 -0.1106771
0.03800611 0.0077128587 -0.09050867 -0.04716591 0.107448064 -0.119872674 -0.10165049 0.037872925
-0.033138104 -0.011191235 0.044039916 -0.035826057 0.09957682 -0.08165176 -0.05886981 0.038574707
-0.11361525 0.044878297 -0.004363963 -0.07562586 0.07611484 0.09146055 -0.05687528 -0.060101334
-0.059729293 0.04563383 0.0010332114 0.010391419 -0.09608188 -0.05970475 0.06862115 -0.12850735
00000000: e4cb 5fbd 51ce a1ba 5b3e eebb f2a9 97ba
00000010: 4975 b13c 5880 85bd cf76 f1bd 07af 703d
00000020: d4fc b33c 4bd8 c6bd 6e75 253d 6b98 ddbd
00000030: b722 bfbd a7bc 073d dbb7 b53d f54a a73d
00000040: 8e9d e5bd f71d 8d3d ac45 a43d 1b0f 853d
00000050: 8e1e b43d ee34 81bd 975b 0cbe 6884 0dbd
00000060: f173 acbd ff69 6c3d 8798 783a 4234 c7bc
00000070: 5c4d e73d c2d3 e83d e55d babc 532a 04be
00000080: 9237 d1bc 1765 c9bd 467c 1aba 45a2 9abd
00000090: a299 6abd cec2 693d 6d7c 9bbd 843a ba3d
000000a0: dcce adbc 9e3a f7bc b545 323d d3a4 bfbd
000000b0: e9bf 543c 9478 18be 8ad6 07be b736 08be
000000c0: 8834 dabd 1862 fdbd 191b 3abd 791f 063c
000000d0: ff3f 21be 2e9a 953d 2434 11be ff74 e1bd
000000e0: 6324 bfbd 9788 f93c 697b bbbd a12c 9d3d
000000f0: 1566 00be 44ae de3c 0548 66bd 5b70 fdbd
00000100: 5663 4d3d 77ac cebc 914b 283d d6ef f4bd
00000110: 92de e9bd a289 883d f09c 35be e651 a4bb
00000120: 952f f13a ea09 87bb 3799 2a3d 980d 7cbd
00000130: 2c65 46bd 4cd0 75bc 0d56 7a3d 4c16 1c3d
00000140: cd71 03be 1693 d3bd 7f2d 2dbb 7e03 b63c
00000150: eee8 2fbe 9d8f 05be 33b5 bf3c 0201 87bd
00000160: dc2a 2b3c f76a febd 2683 e23d 5f2f 12bd
00000170: a407 b7bb ea70 e8bd f185 b9bd f18f 603d
00000180: 195b 7abd 14b2 f2bd 05a2 553d 8bbe 333c
00000190: c420 5cbc 255b 05be 1efc b03a f1fa 293d
000001a0: f81b 80bd 1c9e 2f3d 8c2e 41bd 6fe9 933d
000001b0: c40c 2abb 6cb4 0dbe dcae e63d 6772 483d
000001c0: 7f83 633d e1c7 06be 7946 dabd c312 d73d
000001d0: e0ff 043d 33ab 3abd e2ec acbd 8fa4 98bd
000001e0: ee64 57bd 6021 10be eae3 05be c91f ca3c
000001f0: d0b8 04be dc8d 153d cb21 943d 7ce0 77bd
00000200: f090 873c 4f0b 2a3c 0419 11bb bbbf 61bd
00000210: 1c9b bb3c f897 573d 9ad7 1cbd 9a9b 693d
00000220: 4f2c eabd 6fbe ffbd be8f e3bd 8348 0abe
00000230: 715b b1bd c311 01bc 023e 863d 9301 20be
00000240: ce3e e3bd 35e1 82bd ee2e 493c 0082 00be
00000250: 1919 d8bd 82cc 5c3c 6919 03be de9c c03d
00000260: 2b82 1abe f036 f5bd 93c3 d3bd 75e3 6c3d
00000270: 62e5 35bd c3a7 0d3d 6c01 253d 9da5 d13d
00000280: a0c6 a4bd de7c ed3c f86a edbb b20b a1bd
00000290: a30f 7f3d ff70 b53d 0eab 9abd c0bd 953d
000002a0: a756 5e3d ee7d a23d d159 29bd 3be7 153d
000002b0: c9fe d4bd b01a fd3d d909 c13d 84a0 383b
000002c0: 3762 81bd ffaa 37bd 1d2b 82bd 91ac 49ba
000002d0: d28f fabd f077 bebd 3e18 c9bd 266d 1dbe
000002e0: d6cf f8bd 875e 25be 3a35 bfbd 1f3c 07bb
000002f0: a508 e1bd d49f afba fece a23c f701 d8bd
00000300: 7dec 12be f267 51bd c2be 483d a747 65bd
00000310: ac61 f3bd 0551 47bd b7f9 acbd 6947 1fbe
00000320: 2dd4 073c a594 08be cbcd adbd 9095 37bb
00000330: 725e c4bd 41e9 c6bd 115d 1abe 02d9 b5bd
00000340: c240 733d a528 bc3c 629b 1cbd 2a04 833d
00000350: e7f6 8ebd eb99 a33d fe86 373a 15ce cdbd
00000360: d300 edbc fdef aa3d 16e4 823d bd00 56bd
00000370: c834 f0bd 8c1d fbbd 5c41 2abe adaa e2bd
00000380: 4bac 1b3d 26bc fc3b 9c5c b9bd 0b31 41bd
00000390: bb0d dc3d ce7f f5bd 222e d0bd a420 1b3d
000003a0: d2bb 07bd 715b 37bc 3363 343d 58be 12bd
000003b0: efee cb3d 0a39 a7bd 7821 71bd 8300 1e3d
000003c0: 1daf e8bd 4ed2 373d 93ff 8ebb bbe1 9abd
000003d0: 19e2 9b3d ab4f bb3d 0ef6 68bd d12c 76bd
000003e0: b4a6 74bd 8aea 3a3d d26c 873a c540 2a3c
000003f0: 94c6 c4bd f88c 74bd 3f89 8c3d 6e97 03be

actor_linear3.weight f4 [8, 512]
-0.0032024358 0.18569486 0.08701745 0.048335183 0.1755303 -0.070002824 0.15124339 0.13730183
0.041418757 0.038952958 0.024416663 0.0863754 0.114663735 0.041138235 0.08445736 0.12341664
-0.044398233 -0.003041735 0.019371772 0.1578929 0.11608456 0.029698359 0.18229584 -0.0031717056
0.035399918 0.022528218 0.002378422 -0.011725858 0.15502506 0.18607579 -0.018048083 -0.03134453
0.04306521 0.013096197 0.08871727 0.03295042 0.04155575 0.081499815 0.057261933 0.0018402027
-0.024265349 -0.0012736418 0.026732171 0.1376129 0.045833673 0.017579725 -0.017772047 0.052826114
0.11220027 0.02379289 0.011375371 0.02045903 0.15062112 -0.0048008477 0.059092943 -0.02251256
0.035613 0.07564363 -0.0064463867 -0.08115487 0.06147371 0.11235202 -0.010167137 -0.03170865
0.016369695 0.07657223 -0.0012445773 0.023824481 0.035727788 0.07945917 0.029062152 0.09014627
0.02355797 0.026749855 0.10424293 0.06700046 -0.027822856 -0.035601817 0.13069336 -0.021540822
0.026775597 0.07737053 0.0064416104 0.048482336 0.03916917 -0.008878376 0.020185076 -0.025798036
0.087561116 -0.005487074 0.119038664 -0.037128948 0.052649297 0.028156145 0.06929488 0.08159935
0.0915231 -0.043607105 0.07491191 -0.010296215 0.12048691 -0.0037728408 0.010989157 0.10366519
-0.029042419 0.05033465 0.058376674 0.017323535 -0.025969839 0.15186077 -0.0551218 0.098077744
0.064367786 0.007486808 -0.030057048 0.069054954 0.0019286835 0.056305464 0.0040715323 0.03285795
0.05095869 0.015433422 0.10473663 0.070202015 0.03965662 0.17973785 0.0025190949 0.04037175
0.051043782 0.041229557 -0.004739917 -0.04797771 0.05430382 -0.053005517 -0.006106325 -0.05037514
0.12647864 0.052504387 0.047400445 0.12631147 0.02580175 0.078195184 0.0033548663 0.14180687
0.0097294375 -0.019934414 0.035634864 0.051360305 -0.0016667855 0.0101169245 0.07330716 0.055018723
0.05524682 0.008002769 0.03427719 0.082744844 0.0055870777 0.072618194 0.084749945 0.11676494
-0.103128314 0.028931376 0.048152406 0.06677341 -0.0548803 0.093936585 0.08755906 0.12722456
-0.011497079 0.030211017 0.045306742 0.07469473 0.13958813 0.0666282 0.15857828 0.040053263
-0.022965135 -0.03270629 -0.033669896 0.0056715338 0.13677584 0.055290885 0.05034261 0.09859972
-0.03020699 -0.04867256 0.06519265 0.09024048 0.08201376 0.18556732 0.04494657 0.07766627
0.014409524 0.09779278 0.07261017 0.12600517 0.022152115 0.039831825 0.05675352 0.07935695
0.018863965 0.05487415 0.017483305 0.043548457 0.04356074 0.06768565 0.007109599 -0.059109453
0.103418514 0.098003864 0.07351177 -0.014845212 0.050425038 0.0024555859 -0.007735766 -0.0117151
-0.07625307 0.03690548 0.14089288 -0.039969087 0.033053003 0.01407083 0.06794636 0.014784634
0.04607737 0.11343094 0.008430309 0.07049597 0.10370417 0.059569385 0.044828564 0.04024844
0.050861247 0.044634353 0.023440901 -0.00548004 0.043940194 0.071214035 0.09287626 0.1374552
0.029900247 0.086594 0.19581416 0.0040762005 -0.017340485 0.008437902 -0.010588274 0.023775876
0.08824985 -0.008018228 0.02716263 -0.071364805 0.009584027 0.09412939 -0.08069353 0.03451492
00000000: f5df 51bb cb26 3e3e 3436 b23d 1dfb 453d
00000010: 37be 333e a45d 8fbd 8cdf 1a3e da98 0c3e
00000020: b7a6 293d 238d 1f3d 7405 c83c 96e5 b03d
00000030: d2d4 ea3d 9180 283d fbf7 ac3d ddc1 fc3d
00000040: ecda 35bd d857 47bb 8db1 9e3c adae 213e
00000050: bebd ed3d f949 f33c c3ab 3a3e 64dc 4fbb
00000060: 81ff 103d 198d b83c 4ddf 1b3b d01d 40bc
00000070: e4be 1e3e a78a 3e3e 93d9 93bc 1f63 00bd
00000080: 2565 303d 6e91 563c 66b1 b53d 05f7 063d
00000090: 5d36 2a3d 60e9 a63d 7d8b 6a3d f532 f13a
000000a0: 20c8 c6bc 54f0 a6ba 6dfd da3c 65ea 0c3e
000000b0: 17bc 3b3d 5b03 903c af96 91bc 3260 583d
000000c0: 41c9 e53d 4fe9 c23c c45f 3a3c b299 a73c
000000d0: 6c3c 1a3e 6e50 9dbb 710b 723d 436c b8bc
000000e0: f0de 113d 0ceb 9a3d 363c d3bb 8634 a6bd
000000f0: dbcb 7b3d d118 e63d 1094 26bc eee0 01bd
00000100: bd19 863c e7d1 9c3d 1621 a3ba 8f2b c33c
00000110: 4d57 123d 7dbb a23d c013 ee3c 9c9e b83d
00000120: a5fc c03c 8322 db3c 517d d53d 8a37 893d
00000130: c2ec e3bc 36d3 11bd 7bd4 053e 6176 b0bc
00000140: 7f58 db3c 7174 9e3d 2514 d33b 6a95 463d
00000150: da6f 203d 9c76 11bc 2c5b a53c 6756 d3bc
00000160: 3e53 b33d eacc b3bb 8bca f33d 8614 18bd
00000170: caa6 573d b7a7 e63c 79ea 8d3d 8f1d a73d
00000180: 7770 bb3d 5d9d 32bd 6a6b 993d 75b1 28bc
00000190: d7c1 f63d c441 77bb dd0b 343c 6a4e d43d
000001a0: 5eea edbc b52b 4e3d 611c 6f3d 16ea 8d3c
000001b0: b3be d4bc 6481 1b3e 66c7 61bd fcdc c83d
000001c0: 42d3 833d e653 f53b 333a f6bc af6c 8d3d
000001d0: e1cb fc3a 8fa0 663d 7d6a 853b 0f96 063d
000001e0: 0fba 503d 77dc 7c3c 2980 d63d 13c6 8f3d
000001f0: fb6e 223d 330d 383e 6617 253b d95c 253d
00000200: 4913 513d 53e0 283d 4e51 9bbb 4684 44bd
00000210: af6d 5e3d 501c 59bd 9117 c8bb 2a56 4ebd
00000220: 9e83 013e d70e 573d f826 423d cb57 013e
00000230: 315e d33c cc24 a03d 51dd 5b3b d235 113e
00000240: 3868 1f3c 7f4d a3bc ddf5 113d 2f5f 523d
00000250: 0a78 daba 75c1 253c 1022 963d 505b 613d
00000260: 7d4a 623d 0c1e 033c 3d66 0c3d 2176 a93d
00000270: ce13 b73b d9b8 943d 6191 ad3d 7522 ef3d
00000280: f034 d3bd 7e01 ed3c 753b 453d 7fc0 883d
00000290: 2aca 60bd d361 c03d 2a52 b33d 2847 023e
000002a0: 3f5e 3cbc 187d f73c 9093 393d 8df9 983d
000002b0: 31f0 0e3e 5e74 883d 5862 223e e40e 243d
000002c0: 6121 bcbc 08f7 05bd 72e9 09bd 46d8 b93b
000002d0: f70e 0c3e b278 623d 0d34 4e3d a6ee c93d
000002e0: a674 f7bc e15c 47bd b983 853d 00d0 b83d
000002f0: d5f6 a73d 5c05 3e3e e519 383d 7e0f 9f3d
00000300: ed15 6c3c 9547 c83d a4b4 943d 8007 013e
00000310: 5a78 b53c b226 233d 6176 683d e685 a23d
00000320: 9a88 9a3c b7c3 603d 2639 8f3c de5f 323d
00000330: bf6c 323d c69e 8a3d a4f7 e83b c11c 72bd
00000340: 16cd d33d 40b6 c83d 578d 963d 5539 73bc
00000350: 7c8a 4e3d e5ed 203b 4f7c fdbb b1f0 3fbc
00000360: 922a 9cbd 332a 173d 3946 103e a0b6 23bd
00000370: 9662 073d 5789 663c 7627 8b3d 403b 723c
00000380: a0bb 3c3d 7b4e e83d 471f 0a3c 3160 903d
00000390: da62 d43d 07ff 733d 289e 373d 8cdb 243d
000003a0: e253 503d 83d2 363d 2207 c03c e891 b3bb
000003b0: a2fa 333d aad8 913d e935 be3d 0ec1 0c3e
000003c0: 5df1 f43c 3258 b13d 8283 483e a691 853b
000003d0: a20d 8ebc 203f 0a3c 717a 2dbc a0c5 c23c
000003e0: 56bc b43d e35e 03bc 2a84 de3c b627 92bd
000003f0: 5306 1d3c e9c6 c03d a642 a5bd 845f 0d3d

actor_linear3.bias f4 [8]
-0.014067639 0.05757942 0.015795812 -0.0034795038 0.08275976 0.077003665 0.021869875 0.082035296
00000000: f47b 66bc 66d8 6b3d 3866 813c 6308 64bb
00000010: f37d a93d 19b4 9d3d 7428 b33c 1f02 a83d
