model/model_2_backup.pth (torch, 283087 bytes, 7 tensors)

critic_linear1.weight f4 [512, 63]
00000000: ee72 f0bd 7d38 e1bd c958 243d c29e c4bc
00000010: dedc 10bc 72ad f93c f510 b13d 75b9 173d
00000020: 7d52 7abd b98d c1bc 3f06 34bd 0a59 e5bd
00000030: bae2 b43d 9dbb aabd e582 84bd 90cf ea3c
00000040: 2743 8e3d ff29 34bd 510d 95bd 765c 1d3b
00000050: 93fc f33d ba1a a13b 1dd9 433c 1e23 e43d
00000060: f8a8 993c 1334 a0bc fa1f 0cbc dcc1 bf3d
00000070: 6e16 cbbc fc2a f73d ca82 60b8 8e9f 00be
00000080: 448d 23bd 2f7a 8c3b dd51 ab3d 616f cf3b
00000090: f6a0 b5bd e6e2 283d 2c9a c23d 69ec 92bd
000000a0: c3c1 893d 3de1 9fbc 12d6 ad3c 7451 923d
000000b0: 6c1b d73d 5754 083d 8152 48bd 6ce1 d23d
000000c0: 3cd9 033c 18aa bbbd a26c edbd d945 a53d
000000d0: 9a53 00be 0b10 c03d 0f5e f93d b511 df3d
000000e0: 65dd a4bd 84a7 e93d f0c1 343c cf78 bdbb
000000f0: e372 95bc 4090 363c 2ce3 1f3d e753 a8bd
00000100: e298 c73d 17aa 733d 9c9a 863d b593 a73d
00000110: 42c1 f13c 1bdd bd3d 59ce bb3d 37d1 bcbc
00000120: 50b5 fdbd 206a 32bd cd48 a13d 40d6 95bd
00000130: 4ccc 0abd 3690 11bc 8b7d c4bd c57b c4bd
00000140: 7dd3 a23d ecca a03d cd8b 9cbd 9e1b c53d
00000150: f879 5c3d cb77 8c3b 266e 3b3d 2600 e0bd
00000160: d2af 5d3d c209 36bb 2d30 25bd 235e 943d
00000170: 9f7f 3ebc 7480 9fbd bad2 2abd 673b 83bd
00000180: f2fd 293c 1393 60bd a2be cfbd 17d2 c1bd
00000190: 2e9d b8bd 6ded 86bd 9044 18bd 0d94 113c
000001a0: 2e85 cf3d f6fc 95bd f7c5 efbd cb3f 343d
000001b0: 01d5 51bc 3b95 c9bd 3db4 c8bd 061d 95bb
000001c0: 29ed a5bd 28d5 23bd 54ec 863d 9d3b 7bbd
000001d0: e54a be3c 81f5 09bb fb91 89bd 1d16 9dbd
000001e0: 4164 01bd 208a 56bd 91e4 ae3d f706 e43d
000001f0: 6c7c 87bd 431a 2ebd 0d16 3dbd 7331 7ebc
00000200: 3e85 a7bd 7de6 263c c3be 19bd 9dfb 70bd
00000210: 283f 513d 8be7 953d 3299 44bd df5b be3d
00000220: 5c24 e1bd dc07 2fbd 448e bebd 4e85 08bc
00000230: c759 2e3d 417e 813d 881f a8bd e2a9 e13c
00000240: 6669 823d e8f2 98bd daa9 d9bd 9e4c a83d
00000250: ee69 cd3d 2a6c b73d 91c2 243c 6bc7 a2bd
00000260: b6c4 e43c 5fdd 103c e8c0 31ba 34b9 92bd
00000270: 88f4 b63d 6565 733c 770f 13bd e9da cf3c
00000280: 449f adbd be26 17bd fee1 aabd 5bda 153d
00000290: 2aba 293d 1def bc3d d25a ecbb f83e d43d
000002a0: 29d3 4f3c 9d5e b2bc 1c45 7b3d 09b4 efbd
000002b0: 97be 8d3d 6001 433d 906b 723c b197 afbb
000002c0: 5488 a4bd 3898 a23b c0e2 bbbb 8777 6abb
000002d0: c0d4 aabd cc97 d7bd 042e 003e 9c85 e63b
000002e0: 18b2 c23d 011c d2bd aaa1 e53c 46dc 96bd
000002f0: 0929 c43d 2c54 d0bb f75e 9b3d a9a2 b0b9
00000300: 980d a5bd b200 bebd 69c8 d1bd 6bbb d03d
00000310: 8857 873d 7a9c 72bd 8da3 1dbd 4e0e ddbd
00000320: 754f f93c bc9c 63bd 32e6 003e 5020 c63d
00000330: bf6e 2fbc f085 c1bd 9957 43bd 2ea5 ac3d
00000340: 39f9 d0bd f946 b9bd a325 74bd eb4a 4fbd
00000350: 2700 1abc 1ce4 fa3d 8284 98bd cab6 00be
00000360: 62b8 83bc ef68 9a3d e594 a4bd c682 5e39
00000370: 111d bebc a92e 4ebd 82ad 08bd 9b76 b7bd
00000380: e90e e43b 64a4 9f3d 20c7 9dbd 31cc 36bd
00000390: 8ab0 5a3c b64d 16bd dbef e03d 8d19 e93d
000003a0: 10f1 15bd e650 f1bd c3a4 9a3d 09f3 00be
000003b0: f375 b4bd e57e 8bbd 61b6 c83d eb8e 1b3d
000003c0: 5255 583d 0ec4 0d3d 3730 933d 9fef fe3d
000003d0: 2a98 433d 7c7a 92bb bf2a f13d e437 f93d
000003e0: 5498 abbd 3604 63bd 05e1 e73c c1c6 98b9
000003f0: d420 063d 6123 733d 081c efbd ed64 063d
-0.11740671 -0.109971024 0.040123735 -0.024001483 -0.008841721 0.030478213 0.086458124 0.0370421
-0.061113823 -0.023627149 -0.04395127 -0.111986235 0.08832307 -0.08336566 -0.06470279 0.028663427
0.06946402 -0.043985363 -0.072779305 0.002401141 0.11913409 0.004916516 0.011953619 0.111395106
0.018757328 -0.01955608 -0.008552546 0.093631476 -0.024790969 0.120687455 -5.352757e-05 -0.12560865
-0.039929643 0.0042870264 0.083652236 0.006330416 -0.088685915 0.041232012 0.09502062 -0.07173998
0.0672641 -0.019516582 0.02122024 0.07144442 0.10503277 0.033283558 -0.048906807 0.10296902
0.008047398 -0.09163302 -0.11592986 0.08069963 -0.12531891 0.0937806 0.121761434 0.10892049
-0.0805004 0.11408904 0.011032566 -0.005782224 -0.018243259 0.01114279 0.039035007 -0.08219128
0.09745957 0.059488382 0.06572458 0.0818247 0.029511098 0.09270688 0.09170217 -0.02304898
-0.12388098 -0.04355824 0.07875214 -0.073162556 -0.03388624 -0.00888448 -0.09594258 -0.0959392
0.079504944 0.07851204 -0.076438524 0.09624408 0.053827256 0.0042867414 0.045759343 -0.10937528
0.054122753 -0.0027776812 -0.040329147 0.07244518 -0.011627107 -0.07788172 -0.04170487 -0.064078145
0.010375487 -0.05482776 -0.10143782 -0.094638996 -0.09014355 -0.06588254 -0.03717476 0.008885396
0.10132824 -0.07323639 -0.11707681 0.04400615 -0.012807132 -0.098429166 -0.09800003 -0.004550579
-0.08101875 -0.039998204 0.06588045 -0.06133615 0.023229072 -0.0021050873 -0.06717297 -0.076702334
-0.03158975 -0.05237782 0.08539689 0.11134141 -0.066155285 -0.042505514 -0.046163607 -0.015514719
-0.08179711 0.010186789 -0.03753544 -0.058833707 0.05108562 0.07319554 -0.04799766 0.09294867
-0.10993263 -0.042732105 -0.09304479 -0.008332564 0.042566087 0.06322909 -0.08209139 0.027546827
0.063677594 -0.07468206 -0.106281 0.082177386 0.1002997 0.089561775 0.010056154 -0.07948192
0.02792583 0.0088418415 -0.00067807594 -0.07164231 0.089333594 0.014855717 -0.03590342 0.02537294
-0.08477643 -0.03690218 -0.08343886 0.036585193 0.041437306 0.09225295 -0.007212975 0.10363573
0.012684622 -0.02177363 0.061345205 -0.11704261 0.06921118 0.047608733 0.014796153 -0.005358659
-0.08033815 0.0049619935 -0.005733818 -0.003577681 -0.0834136 -0.10527 0.12517554 0.0070349704
0.09506625 -0.102592476 0.028031189 -0.073662326 0.09578139 -0.0063576903 0.075864725 -0.00033690527
-0.080592334 -0.09277476 -0.10243303 0.10191997 0.06608492 -0.05923126 -0.038486052 -0.10793744
0.030433396 -0.055569395 0.12587813 0.09674132 -0.010707556 -0.09449375 -0.04769096 0.08429943
-0.102037854 -0.0904674 -0.059606206 -0.050608557 -0.00939945 0.1225054 -0.07447149 -0.12569728
-0.016079132 0.07539546 -0.08036212 0.00021220287 -0.02320722 -0.050337467 -0.033368595 -0.08958169
0.0069597852 0.07795027 -0.07703996 -0.044628326 0.013347754 -0.036695205 0.10983249 0.113818265
-0.03660685 -0.11783008 0.07550957 -0.1259271 -0.088115595 -0.068113126 0.09800411 0.037978094
0.052815743 0.0346108 0.071869306 0.12448048 0.047752537 -0.0044701677 0.11775731 0.121688634
-0.08378664 -0.055423938 0.02830554 -0.00029139782 0.03274615 0.05935991 -0.116752684 0.032811094

critic_linear1.bias f4 [512]
00000000: 3e2f d83d fab9 bdbd ab6f 22bd 64aa 94bd
00000010: e62b e93c ca95 f8bd a8ff c4bd 88ec c8bd
00000020: 7e95 8abd 76ed f43d b83d fdbd 25e9 c43d
00000030: 289f 86bd 75c4 0e3d b43a 923d bd12 e7bd
00000040: d7e9 e6bd a992 b3bd cb55 223d ffcc d2bd
00000050: e168 b1bd df4a 9f3c 8f65 df3d 197a 9b3d
00000060: 5b10 ae3d 99bc 26bd 13ac e13d 0df0 b7bd
00000070: 2efd 75bd eeb2 aa3d d600 27bd b497 7e3d
00000080: 5a31 30bd b4db dd3d 878a aabd 579a 4fbd
00000090: 8751 bf3d e165 aabd afa1 a4bb 84fa bb3d
000000a0: d7b8 fcbd f8b3 36bc 5bf1 8a3d 0e71 58bd
000000b0: 42a0 9abd 8458 083b f905 65bc 6920 a3bc
000000c0: 3c6e 303d 08c4 383d 86f5 e83d 5252 4fbd
000000d0: b3b4 95bd 6d68 c8bc 0088 c93d 3662 9fbd
000000e0: 3563 6dbc be85 d03d 30a8 9ebd 410b 8dbd
000000f0: 3a5e d13c 2a01 f23c 4611 5c3d edcc f33c
00000100: 9579 ad3d 703f cebd f0f1 b4bd 2cf3 f8bd
00000110: 74ae f53d 5e0e c93d f5fb dc3b 6616 c2bd
00000120: 39f7 c5bd 4a28 d93d 92eb 5b3c 9a22 bd3c
00000130: fd3e bf3d d278 c6bc d1a1 85bb b90d 633d
00000140: 3766 ff3c 59ac b63d b40f a93d 71ab 29bd
00000150: 9624 4dbc 7563 573d 9c3a 00bd 04b5 9dbd
00000160: 6285 2abb 6a7c 073c 8108 8bbc ad43 6bbd
00000170: 9861 993d 4a23 d8bc 4ff8 05bd 40e9 5c3c
00000180: c771 183d 957e 4abd 2873 acbd 62f1 d9bd
00000190: 5a75 a63d 54a5 9fbd 2b39 273d 9a54 a3bc
000001a0: 0277 c03d f478 c7bd a2e6 b83d fff2 cdbd
000001b0: 6183 df3d d971 29bc 251e 37bd 3eee 90bd
000001c0: 9703 943d 3103 963d 67b7 1c3d 07ab 76bd
000001d0: 54cb 0d3d 56fc dcbc d074 edbc 8565 53bd
000001e0: bcb2 ce3d 08a8 a9bd 894a e7bd bea5 f83d
000001f0: a772 c0bd 8c18 44bc 9b65 ec3d 57aa b3bd
00000200: aab8 d23c 6027 c1bd b41d c2bd 8873 87bc
00000210: 108f 1b3d 42c3 9e3d f488 d53d ca27 8abd
00000220: 3870 4abd 912f 063d aa81 e8bd 01d4 7a3d
00000230: 3fdc 41bb ce10 85bc db22 d9bd a047 7cbd
00000240: 791d 923d bd90 b4bd 4c26 dabc e483 46bd
00000250: b4ac 533d 8cfd 5e3d 8838 adbd b6d2 dbbd
00000260: efb8 873d 1d40 91bd 2efd e73d bd5b 59bc
00000270: 3391 f33d 5760 713d 6471 b3bd 661e 693d
00000280: 7a0d 463c 17e1 c73d b806 3c3d 7111 ff3d
00000290: 3020 e6bb 8c53 ad3d 6b92 393c 636d d6bd
000002a0: f893 50bd cca6 d6bd 094f 2a3d ce88 de3d
000002b0: 2c25 fe3d 069a a8bd 40b4 81bd 9ca9 f8bd
000002c0: ff12 333d f217 1ebd 7131 7b3d c167 2bbd
000002d0: 3405 803d 3f28 a6bb c659 e1bd 15dc f03d
000002e0: f922 b73d b8c7 aebc aa04 b33c e8e0 2b3d
000002f0: aaee c43d 269f 1a3d 746d 11bd f65b e4bd
00000300: 19c3 69bd 1b29 1f3d 5c0b e4bd 3931 9ebd
00000310: a5f2 823d 8367 bc3c 0d01 343c 6816 d33d
00000320: a93c e43d 13da 45bc a641 85bd 106d 31bc
00000330: e4d7 303c 2336 2a3c 4977 7bbd b847 9338
00000340: 667c 0f3d cd22 6cbd 07fa d5bd 9e5d aa3d
00000350: a8e3 a63d 7905 873d e1ac 0abd 8e7d a0bd
00000360: efee 6cbd a361 68bd e747 a3bd 2bb9 ca3c
00000370: e84f 0bbd 73ed 303d a89f d8bd 901d 99bc
00000380: 878e d7bc 36a3 96bc 6b8e 593d a09b d7bd
00000390: e5ab 053d 29e3 dfbb cd03 e13c ec38 e23d
000003a0: 69a7 23bd 5c9e f8bd 44d4 0a3d 6840 543d
000003b0: 0244 7b3d 8ab8 50bd e4b8 a03d 893b e9bd
000003c0: b33e 413c 4264 bbba 696d 003e c343 e73d
000003d0: af7b 1abd fbe3 59bd e9ff f3bd 3525 043c
000003e0: 661e a8bd 7c44 183b bbab 813d 5e26 ddbd
000003f0: 62ae f83d f393 983d 8f3f ebbd 9fd6 7c3d
0.10555886 -0.09263988 -0.039657276 -0.07259062 0.028463315 -0.12137945 -0.09619075 -0.0981074
-0.067667946 0.119593546 -0.123652875 0.09614781 -0.065733254 0.034855325 0.07140103 -0.11282871
-0.1127507 -0.087682076 0.0396326 -0.10293006 -0.08662582 0.019444881 0.10908043 0.07591648
0.08499213 -0.040707204 0.11019149 -0.08981333 -0.060055904 0.083349094 -0.04077228 0.062156394
-0.043015815 0.10832921 -0.08327203 -0.0506843 0.09341722 -0.08320213 -0.005024157 0.091786414
-0.12339943 -0.011151306 0.06784316 -0.052842192 -0.07550098 0.0020804713 -0.013978475 -0.019912915
0.043073878 0.045108825 0.11374955 -0.050615616 -0.07309856 -0.024463857 0.09840393 -0.07782404
-0.014488985 0.10181759 -0.07746923 -0.06886912 0.025557626 0.02954157 0.05372741 0.029760802
0.084704556 -0.100706935 -0.088352084 -0.12155756 0.11996165 0.098171934 0.006743903 -0.094769284
-0.096662946 0.10603388 0.013422864 0.023087788 0.09338186 -0.024227533 -0.004078128 0.05543301
0.03117667 0.089195915 0.08254948 -0.041423265 -0.01252093 0.052585084 -0.031305894 -0.077005416
-0.0026019444 0.008269409 -0.016971828 -0.057437588 0.07489318 -0.026384015 -0.03270751 0.0134833455
0.03721788 -0.049437124 -0.08420402 -0.10641743 0.08127852 -0.07795206 0.040826004 -0.019937802
0.09397699 -0.09739867 0.09028365 -0.100561135 0.109137304 -0.010342085 -0.044706482 -0.07076691
0.07227247 0.073248275 0.038260844 -0.060221698 0.034617737 -0.026975792 -0.028986365 -0.05161049
0.100926846 -0.082840025 -0.11293513 0.12140988 -0.09396868 -0.011968743 0.11542817 -0.08772724
0.02572282 -0.09431338 -0.09478322 -0.016534582 0.037978232 0.07752086 0.10426512 -0.067458704
-0.049423426 0.032760207 -0.113528565 0.06123734 -0.002958074 -0.016243365 -0.10602351 -0.061591744
0.07134528 -0.08816669 -0.02662959 -0.048465624 0.051678374 0.05444102 -0.08458048 -0.10733549
0.0662707 -0.07092307 0.11327587 -0.013266501 0.11892929 0.058929767 -0.08761862 0.056913756
0.012088174 0.09759729 0.045904845 0.124544986 -0.00702288 0.08463201 0.011326413 -0.104700826
-0.050922364 -0.10481033 0.04157928 0.10865937 0.12409434 -0.08232503 -0.06333208 -0.121417254
0.043719288 -0.038597055 0.061326448 -0.041846994 0.062509924 -0.0050707157 -0.11003451 0.11760727
0.089422174 -0.021335468 0.02185281 0.041962534 0.09615834 0.037749432 -0.035504773 -0.11150353
-0.057070825 0.03885756 -0.11134979 -0.07724232 0.06393937 0.022998577 0.010986579 0.10307008
0.111443825 -0.012075919 -0.06506662 -0.010829225 0.01079366 0.010388884 -0.061393056 7.022865e-05
0.035030745 -0.057650376 -0.104480796 0.08318637 0.08148891 0.06592841 -0.033856276 -0.07836448
-0.057845052 -0.05673374 -0.07972699 0.024746498 -0.03401175 0.0431952 -0.10577327 -0.018690854
-0.02631308 -0.018388372 0.053114336 -0.1052773 0.032634635 -0.0068324995 0.027467633 0.11046013
-0.039954577 -0.1213958 0.03389384 0.051819235 0.061344154 -0.05095724 0.07847765 -0.113883086
0.011794734 -0.0014296847 0.12541737 0.112922214 -0.03771561 -0.053195935 -0.11914045 0.0080655115
-0.08208923 0.002323418 0.06331583 -0.107983336 0.12142636 0.07450094 -0.11486732 0.061728116

critic_linear3.weight f4 [1, 512]
00000000: 039d 7ebc f8e8 bb3c 9052 813b afbf 503c
00000010: b271 33bd 200d 89bc a095 28bd 78f7 aabc
00000020: a3e1 d83c ef66 27bc 914b f93b 93a2 493c
00000030: 6ebb da3b 503b efbb 63fd 073d 6a55 003d
00000040: ee5e 263d 1a0e 9bbc 1bd7 8dbc d468 b33c
00000050: 285c e5bb 6a06 8cbc dc91 1b3d f897 a73b
00000060: 4cae 753c 1586 3abc eed6 95bc a64c 323c
00000070: b22c 20bd 74e8 19bd 2a1d 17bd 6677 293d
00000080: b8c8 dd3c ad57 29bd 61a9 b23c a848 93bb
00000090: 22d8 ebbb 0ae8 d93c 670d 0d3d 635a 6abc
000000a0: 1d28 2fbd 5449 193d 023c b4bc 0c6a 08bd
000000b0: d4bf 193d 4db7 dcbc 8c8a 89bc 740d 14bb
000000c0: e4ee 8f3b f7d5 743c 5f2e 10bd 9ffa 983b
000000d0: 57d3 f1bc 87f3 92bc 6de8 2fbc a0cf bfbc
000000e0: dc1b c9bc 6fab 9bbc 6bcd 02bc 5457 0bbc
000000f0: 0f68 ac3c 5e8b 8bbc e166 813c e214 053d
00000100: ffa5 efba 4ec7 f83c 051f 3abc 4d21 46bb
00000110: 4e24 30bd bcee ecbc e50c 27bd a67d 1d3d
00000120: b8dd 2fbd ca0c 8a3c 37d8 babc 6d60 7939
00000130: efaa 7abc c444 0bbd 7bea 09bc 3974 9b3c
00000140: eb81 203d 3ffd da3c 9185 7abc d3a4 c1bc
00000150: 26c5 0bbd d38b 2ebc c30a a83c 39ec b83b
00000160: 6f53 cdbc ea54 b83c d1b1 f2bc ec4c 073d
00000170: 42e9 84bc b3da 1abd 022d 033c fc5c f4bc
00000180: b711 e93b 551f b3bc 9e41 bdbc 0d20 1e3d
00000190: ec7f 78bc f9e0 273d 678b febc 0807 f33c
000001a0: cae0 943b f428 113d dbd9 8d3c a0f2 0cbd
000001b0: 1923 963b 898f 9fbc 83f3 19bd 19df 143d
000001c0: 4e5f 0fbc 399f e33c 64b8 973c fc9e 94bb
000001d0: 0ffd 9bbb e35d 2ebd 0679 293d 0d09 c53c
000001e0: 2664 f5bc ae1c ecbc 4924 1b3c 4ec4 dc3c
000001f0: b515 2fbc 2c3b 29bd 0481 3fbc 3251 5dbc
00000200: a7e3 093b 8a99 273c 067b 323d 82f9 233d
00000210: 8883 f03c d663 3dbc 0ba3 50bc 0612 e93b
00000220: 3549 b73c 293d 16bd dc9f b3bb efde 02bd
00000230: 0ded 58bc ac02 0cbd fe0f 313d 08ae dcbb
00000240: 1eb5 a03c 4a65 0f3d fbc6 ab3c ff59 143b
00000250: 60af e93c faaa 323d a18f 16bd 02c1 843c
00000260: 9aec e6bb 2af1 083d 7ece 68bb 22f0 2abd
00000270: b53d f6bc 067f 1e3c a6ec b7ba 5993 313d
00000280: 7aa3 15bd 6f41 97bc 0514 ce3c ce60 e4bc
00000290: dc9f 0a3d bc94 313c 700e 33bc 21dc 833b
000002a0: 4531 2ebc 1009 173c 8532 fbbc 1d02 973c
000002b0: 2e67 1ebc bb3f b9bc 5d3d e13c 311d 41bb
000002c0: 4a68 d63c bf5e 33bd faf1 a63c 23a3 75bc
000002d0: ad69 17bd 110c b9bc b30d 5fba 3e86 2abd
000002e0: 949a bebc d6b8 1dbd 4e33 0b3d 2649 19bd
000002f0: dea0 5f3b 09f9 f8bc 7a92 d13c fb7a 26bc
00000300: 1b09 bd3b 2a11 24bd 700e d9bc d2f4 19bd
00000310: 2552 403c 1589 9f3c 70b9 b5ba 5aec fc3c
00000320: b80b cd3c d718 9fbc a7d9 033d fae2 cf3b
00000330: 9439 19bd 48c4 6dbb 7f1a 143d 8fdf 173d
00000340: 09b0 9e3b 0d72 173d 9315 fb3c ee63 f13c
00000350: f89b 293d 8adc c8bb 4e30 243d 61a3 223d
00000360: 269e 9c3c f462 273d 3e63 debb 1a93 8f3b
00000370: f94b 99bc e988 793c f748 67bc f132 9cbc
00000380: 4430 f73b e356 d2bb ba4c 62bc 5c01 003c
00000390: 1fd1 5cbc 47b0 94bc 5fe5 343d 8d68 ccbc
000003a0: 6e4c f53c 3229 14bd 792e b03c 2384 2e3d
000003b0: b834 473b c56b 883c a447 883c 1f15 2dbc
000003c0: 39f8 efbc 8c39 38ba 4cd8 f83c a919 1e3d
000003d0: f206 233b cbfb eabc 3882 9739 a1fe 733a
000003e0: 0f1a 233c ea80 4abb 844e 1b3c d511 203d
000003f0: 5007 ffbc 2bc9 4bbc 1127 5fbc f44d b23b
-0.015540364 0.022938237 0.00394661 0.012741013 -0.0438096 -0.016729891 -0.04115832 -0.020869955
0.02647478 -0.010217412 0.007607885 0.012306827 0.0066751754 -0.007300772 0.033200633 0.031331457
0.040617876 -0.018927623 -0.017314484 0.021900572 -0.0069995113 -0.017092902 0.0379809 0.0051145516
0.014995169 -0.011384507 -0.018290963 0.010882532 -0.039105125 -0.0375752 -0.036893047 0.041373633
0.02707325 -0.04134338 0.021809282 -0.0044947453 -0.007197396 0.026599903 0.03443661 -0.014303776
-0.042762864 0.037423447 -0.02200127 -0.03330426 0.037536457 -0.026942873 -0.016789697 -0.0022591026
0.0043924917 0.014943591 -0.035200473 0.0046685482 -0.02951972 -0.017938389 -0.010736567 -0.023414433
-0.024549417 -0.019002644 -0.007983546 -0.008504707 0.021045713 -0.017034229 0.015796127 0.03249062
-0.0018283724 0.030368473 -0.011359935 -0.003023225 -0.043003373 -0.028922431 -0.04078378 0.038449906
-0.042936057 0.016851801 -0.022808177 0.00023782412 -0.015299543 -0.034001127 -0.008417721 0.018976318
0.0391864 0.026732085 -0.015290634 -0.023638165 -0.034123562 -0.010653454 0.020512944 0.0056433943
-0.025064198 0.022501428 -0.029625805 0.033032343 -0.016224507 -0.037806224 0.008006336 -0.029829495
0.0071127075 -0.021865526 -0.023102578 0.038604785 -0.015167218 0.040986035 -0.031072332 0.029666439
0.0045433985 0.035439447 0.017315796 -0.034411073 0.0045818207 -0.019477623 -0.037585746 0.036345575
-0.00875075 0.027785884 0.018520541 -0.004535554 -0.0047603915 -0.042570006 0.041375183 0.024052167
-0.029954981 -0.02882227 0.0094691 0.026949074 -0.010686328 -0.041316196 -0.011688475 -0.013508128
0.0021040232 0.010229478 0.043574356 0.04003287 0.029359594 -0.011559447 -0.012734185 0.0071127443
0.022373775 -0.03667942 -0.005481703 -0.031950887 -0.013240111 -0.034182236 0.043228142 -0.0067346133
0.019617613 0.035008706 0.020968905 0.002263665 0.028526008 0.043620087 -0.03675807 0.016205315
-0.007047248 0.033433117 -0.003552347 -0.041732915 -0.030058721 0.009673839 -0.0014032319 0.043353412
-0.036532857 -0.018463818 0.02515603 -0.027878191 0.03384386 0.010838684 -0.010928735 0.004024044
-0.010631864 0.009218469 -0.030663738 0.018433625 -0.009668155 -0.022613397 0.02749508 -0.0029466862
0.026172776 -0.04379153 0.020379055 -0.014992508 -0.036966015 -0.022588762 -0.0008508816 -0.04163193
-0.023267068 -0.03850635 0.033984475 -0.037423275 0.0034122984 -0.030392187 0.02558254 -0.010161157
0.0057689077 -0.04005543 -0.026496142 -0.037586994 0.011738335 0.019474545 -0.0013864469 0.03087442
0.025030002 -0.019421024 0.03218999 0.0063441964 -0.037408426 -0.0036280323 0.03615808 0.037078436
0.0048427624 0.036974 0.030649936 0.029466596 0.04140851 -0.006129806 0.04008513 0.03970659
0.01911838 0.040865853 -0.006786733 0.0043815495 -0.018712984 0.015230396 -0.014116517 -0.01906726
0.0075435955 -0.006419049 -0.013812238 0.007812824 -0.013477593 -0.018150462 0.044164058 -0.024952197
0.029943671 -0.0361721 0.021506535 0.042606484 0.0030396413 0.016652951 0.016635723 -0.010564118
-0.029293166 -0.0007027618 0.030376576 0.03859869 0.0024875966 -0.028684517 0.00028897985 0.0009307657
0.009954943 -0.0030899593 0.009479169 0.039079506 -0.031131417 -0.012438099 -0.013620154 0.0054414216

actor_linear1.weight f4 [512, 63]
00000000: 9a19 cabc e2f1 a2bd 5bac c33c 3c9c 4ebd
00000010: 609b 623d a2ae 88bd 7755 883d 14c9 03be
00000020: c7d8 11be 62ce a13d 05ee 273d 2fc6 4bbd
00000030: 2823 843c b460 dfbd e4a1 313d 2274 5d3d
00000040: c649 a83c f5a8 23bd 1ba1 31bc a740 3dbd
00000050: 62b2 8bbd 1c62 6fbd 72de f7bc 6076 5cbd
00000060: d7a0 e1bd 1f3a 87bd 0f7c 0cbe 5ab5 96bd
00000070: 31f6 e4bb ec83 9cbc 5f8b 8abd 7484 c73d
00000080: f5e0 14be a794 17be 7425 863c 8dad f93c
00000090: e764 91bd cbf4 90bd 5352 bdbd 4930 78bd
000000a0: 7d0b 003a 9ffa 12be b1a5 9b3d 01d6 2fbd
000000b0: c536 ecbd 34ed b0bd 7897 eabc ae03 d63b
000000c0: be5d 01bd 5807 c73c d87c a7bd cbfc f6bd
000000d0: 5b32 7dbd cf35 30b9 a327 f9bd a19e 9cbd
000000e0: 9d4b ecbd 859b bf3d b9e1 963d 7933 ecbc
000000f0: 62e6 9a3d 2d8d 923d ff34 24bd 3b1d 1fbe
00000100: 0381 c93d e3f5 043c d0fc 533d 5ba1 a73d
00000110: 5e0f c23d b16a b43d 52b6 433d 3b1c d63d
00000120: 214b cfbc 67c4 e7bd d7b7 a0bc 1382 f93d
00000130: 6610 1038 c111 be3d 4a61 8b3d 28af c33c
00000140: 2c37 c6bd 3893 fbbc 624a 0b3c 9cee bb3c
00000150: ed04 bc3a d986 113e 013d 64bd d999 82bc
00000160: 5f78 45bd 9154 983c b3d2 a93d 384c d23b
00000170: d71e e83d 3d84 37bd e48b bd3d e5f1 55bc
00000180: a736 323d 3fb5 a6bd 79ff 533d 3d78 853d
00000190: 5661 8cbd 4379 da3d b638 973d 2b98 8dbc
000001a0: 8ed6 3bbe 56f1 4bbe f002 4fbe 7518 8bbe
000001b0: b3dc e2bd 1c64 99be d2b1 3ebe f094 91be
000001c0: d5e1 dbbd f918 07bd ad59 e63c 518a 38be
000001d0: 335b 0ebd 226d 02be 6854 4dbd f377 25bd
000001e0: 6f47 1f3e d7f3 4a3e eeba 343f 4440 4fbe
000001f0: 03e5 95bd e08a 0d3d 5309 a83b a54c d4bd
00000200: 652e 09be 5d4b d23d eb55 e93d 93b4 fcbc
00000210: 9200 a9bd 4de0 b1bc 2104 8cbc e7c4 e2bd
00000220: 8be5 e13d 341e e23c f345 08be 6c93 0f3b
00000230: b7e6 85bd 0227 13bd cbdb aa3c 47ac 0ebe
00000240: bbe8 b1bc 99be 023d a5b2 0a3d 0a9a 643d
00000250: 40c8 b1bd f07c cd3c e4e9 c4b9 9d0d cabd
00000260: f755 94bd b2f3 bb3d e5a4 ee3d 0318 dcbc
00000270: e6cb e7bd 2d7b d6bd f3ec 19be 5d89 6cbd
00000280: 6841 6e3c ba71 f9bd 1b3c 9e3d 2b59 1e3d
00000290: 13c3 d73b c84a cb3d 474f 7c3d 6e60 d0bd
000002a0: bf55 f5bc 782e ca3d 6e0f cc3c ddd5 3f3b
000002b0: d13c ac3d 20d7 13be 61d3 55bd 440f bc3d
000002c0: 0faf 783d 8381 bcbd d002 933d 3d7b 063e
000002d0: 0fd6 bebd 3a2f b33b 77fa 853d f957 ca3d
000002e0: d2c9 ccbc 65ab b53d 80a5 64bd abcd d1bd
000002f0: ecaf 82bd 8f5b 43bd f4fa aebd 10f5 3abd
00000300: 1fe2 963c 19b4 05be e6f4 cbbd 0036 c73d
00000310: 82c0 f13c 7cc0 cd3d c631 8cbc 00c9 e63c
00000320: 66e6 1e3c 8f35 c13d a911 f1bd 0c09 133c
00000330: eb61 6cbc 4fcd e23c cfff fb3d c54f b0bd
00000340: 95fc d6bc 5710 953d bb71 e8ba 34d3 d93d
00000350: 9533 bf3c b3b3 ad3d 7377 adbd de12 c93d
00000360: a5a0 22be 082c 38be e8d7 5dbd b2f3 b0bd
00000370: f3d9 7a3d 3f37 a23d 8403 333d b680 d9bd
00000380: f08f 8abd 946d bebd 4a8d abbd 0b8a a5bd
00000390: 3b63 b53c 0424 31be cc8a 3bbe a946 31be
000003a0: d1cf ecbd 829f d3bd c585 2bbc b884 e03c
000003b0: d5fc dfbb d247 09be 6648 d4bd cca8 973d
000003c0: 0549 fabd 505e a83c ca2d f038 93bf 5c3d
000003d0: 25e3 ad3c 3f49 8c3b eb80 6f3d e70e a9bd
000003e0: 2089 883e 9b7e 4abc e884 fe3b 6453 883d
000003f0: 64d6 4fbe 4c8e 91be 3684 2ebe c733 78bd
-0.02467041 -0.07956292 0.023885896 -0.050441965 0.05532396 -0.066739336 0.06656926 -0.12869674
-0.1424285 0.079006925 0.040998477 -0.04974955 0.016130045 -0.109071165 0.04336728 0.05406583
0.02054299 -0.03995605 -0.010841633 -0.046204235 -0.06821133 -0.058443174 -0.030257437 -0.05382383
-0.11017006 -0.066028826 -0.137192 -0.07358809 -0.006987356 -0.019105874 -0.06764864 0.0974206
-0.1453894 -0.148028 0.01637528 0.030478263 -0.07099324 -0.070779406 -0.09244218 -0.060592923
0.00048845244 -0.14353417 0.075999625 -0.0429287 -0.11533884 -0.08638993 -0.028636679 0.0065312004
-0.03158354 0.024295494 -0.08178109 -0.12059935 -0.0618156 -0.00016804713 -0.12165763 -0.076474436
-0.115378596 0.09355835 0.07367272 -0.028833138 0.07563473 0.071558334 -0.040089604 -0.15538494
0.0983906 0.008115265 0.051754773 0.08185073 0.09475587 0.08809412 0.047781296 0.10454603
-0.025304379 -0.11316758 -0.019618912 0.12183013 3.4347548e-05 0.0928073 0.06805666 0.023887232
-0.09678492 -0.030709848 0.008501621 0.022940926 0.001434473 0.14211597 -0.05572224 -0.0159425
-0.048210498 0.018595012 0.08292141 0.0064177774 0.11334007 -0.044803847 0.09255198 -0.01305816
0.04350915 -0.08140039 0.05175731 0.06517074 -0.06854503 0.1066766 0.07383864 -0.017284473
-0.18343565 -0.19916281 -0.20215964 -0.27167097 -0.11077251 -0.2995919 -0.1862252 -0.28433943
-0.107364334 -0.0329828 0.028118933 -0.18021514 -0.034754943 -0.12736943 -0.050129324 -0.040397596
0.15554594 0.1981958 0.7059773 -0.20239359 -0.07319071 0.03455627 0.0051280647 -0.10366181
-0.13396604 0.10268281 0.11393341 -0.030847823 -0.08252062 -0.0217134 -0.017091813 -0.110727124
0.1103011 0.027602293 -0.13307934 0.0021907939 -0.06538146 -0.035925873 0.020856759 -0.13932906
-0.02171742 0.03192005 0.033861775 0.055810966 -0.08680773 0.025083989 -0.00037558295 -0.09865878
-0.07242959 0.091773406 0.11652545 -0.026866918 -0.113181874 -0.10472713 -0.15031795 -0.057748187
0.014541961 -0.12179895 0.07726308 0.038659256 0.006584534 0.09926373 0.061599042 -0.101746425
-0.029948113 0.098721445 0.024909701 0.002927176 0.08410037 -0.14437532 -0.05220354 0.09182599
0.060713824 -0.0920439 0.07178271 0.13132949 -0.09318172 0.0054682763 0.06541913 0.09880061
-0.02499858 0.088705815 -0.055821896 -0.10244306 -0.06381211 -0.04769474 -0.08543959 -0.045643866
0.01841837 -0.13056983 -0.0995882 0.097270966 0.02951074 0.10046479 -0.017113578 0.028172016
0.009698486 0.094340436 -0.117709465 0.008974325 -0.014427642 0.02768579 0.12304651 -0.08608965
-0.026243487 0.07278507 -0.001773409 0.10635987 0.023340026 0.084815405 -0.08470049 0.09818052
-0.15881594 -0.17985547 -0.054160982 -0.08640231 0.06124301 0.079206936 0.043704525 -0.10620253
-0.06765735 -0.09298244 -0.08376558 -0.0808297 0.022142043 -0.17298895 -0.18314666 -0.17312111
-0.11563075 -0.10333158 -0.010468905 0.027407035 -0.00683556 -0.13406304 -0.103653714 0.07405242
-0.122209586 0.020552784 0.00011452621 0.053893637 0.021226475 0.0042811926 0.058472555 -0.082547955
0.26667118 -0.012359287 0.0077673085 0.066565305 -0.20296627 -0.28428876 -0.17042622 -0.060596254

actor_linear1.bias f4 [512]
00000000: e4cb 5fbd 8ca5 6abb 0b02 21bc fe7a 8dbc
00000010: f874 743c ed0d 76bd 48a3 c5bd d816 703d
00000020: d4fc b33c 4bd8 c6bd 6e75 253d 1f31 04be
00000030: a325 dfbd 39b6 cb3c c6ac a03d f517 a83d
00000040: 6150 ccbd 09c2 8a3d ac45 a43d 0fce 773d
00000050: 012f b33d 6962 5fbd 3d34 fcbd 1d48 eabc
00000060: d8c8 d7bd ff69 6c3d a705 46b8 7adc 20bc
00000070: 56c8 e53d 78ef f93d 2343 aebc 6a94 f9bd
00000080: 9237 d1bc 12ab acbd 45eb 923c 45a2 9abd
00000090: 4d8d 68bd 1f5e 823d 6d7c 9bbd 843a ba3d
000000a0: e2dd 4abc 9e3a f7bc 53fd 963c 0436 babd
000000b0: a4cd a83c 5364 17be 0c56 f6bd 1d48 16be
000000c0: 02e2 d9bd 1ae7 d9bd 191b 3abd 791f 063c
000000d0: 53ea 18be 2e9a 953d abff 00be 2535 ddbd
000000e0: 0791 bdbd 8930 163d f4b6 c1bd efe7 2b3d
000000f0: 5930 eebd 99ec b93c 0548 66bd eee8 e5bd
00000100: 5663 4d3d a427 9abc c1b2 443d d66f bcbd
00000110: 92de e9bd c5ed 713d d29d 20be b5d7 51bc
00000120: 5736 b43c f0c8 7cbb 5381 713c 9074 82bd
00000130: 69a6 b1bc ee63 2b3b 2e10 6e3d 54db 933d
00000140: cd71 03be ead5 d1bd 8083 8ebc 7e03 b63c
00000150: eee8 2fbe 9d8f 05be 33b5 bf3c 0201 87bd
00000160: 3184 263c f76a febd bb2a 943d 7a1e 80bc
00000170: ca6f 16bd d016 eebd f185 b9bd 8d1e 693d
00000180: 18eb 84bd 29d6 f7bd 415f 3f3d 8b95 e53c
00000190: 73e0 26bc 255b 05be 1efc b03a 5860 343d
000001a0: 89f6 4cbd b370 523d bb93 40bd 6fe9 933d
000001b0: df65 f83b dac4 07be 23e3 d63d f2e8 203d
000001c0: 7f83 633d e1c7 06be 3601 dbbd 50aa bd3d
000001d0: e0ff 043d 33ab 3abd e2ec acbd 8dfc 39bd
000001e0: 0c1f 40bd 6021 10be a153 eebd 12f6 1c3b
000001f0: dfd2 ebbd bb6a 033d 4740 a73d 7ce0 77bd
00000200: f090 873c 6cce 93bb 39b6 19bc 198a 70bd
00000210: cbe9 aa3a 4b3d 063d 1299 c1bc f85a 1a3d
00000220: 0a49 fabd 2920 07be be8f e3bd 7b48 04be
00000230: 715b b1bd 5d23 79bc 023e 863d 57f0 2abe
00000240: 6fc8 fcbd 35e1 82bd ee2e 493c 70c6 efbd
00000250: 4eaf cbbd 82cc 5c3c 716b cdbd de9c c03d
00000260: e67d 0dbe f036 f5bd 93c3 d3bd a5c0 6b3d
00000270: 62e5 35bd 01a0 0f3d 6c01 253d 1ea4 a73d
00000280: f030 b2bd de7c ed3c f86a edbb a251 93bd
00000290: 9261 873d 33b6 b43d 4dcd 6abd a574 823d
000002a0: 46ff 623d 4eac c63d d159 29bd 7cfd 343d
000002b0: c728 eebd a5f7 ed3d 17e8 b53d dbfe e23b
000002c0: 3762 81bd aa7f 3abd 1d2b 82bd 202b cabb
000002d0: 4915 d4bd f077 bebd 2861 c4bd 574a 10be
000002e0: 6bf5 e9bd 32c0 12be c2c4 6cbd e914 0cbc
000002f0: 613e d3bd 1eb7 c139 4166 6e3c 230d 01be
00000300: 09e3 0cbe 08e2 82bd da47 063d 7cd1 87bd
00000310: 143e 00be 0551 47bd a436 a2bd 050b 22be
00000320: cd70 733c 104f e6bd cbcd adbd f942 26bc
00000330: 42a3 bbbd 21bf 7dbd 7007 11be 3b90 9bbd
00000340: bebc 233d 0721 7a3c b41c 1cbd 2a04 833d
00000350: 4b11 93bd ae79 9a3d 0fa9 97ba abc6 d8bd
00000360: bd2d e2bc fdef aa3d d4bf 893d 6eff 54bd
00000370: c834 f0bd 8c1d fbbd 5c41 2abe adaa e2bd
00000380: 4bac 1b3d 938b 9f3b 9c5c b9bd dbc5 afbc
00000390: 0410 b83d ddd6 05be 6ac2 bbbd 38f5 b43c
000003a0: d2bb 07bd 349c 22bb 3363 343d f7c1 03bd
000003b0: d999 ba3d 2e91 9dbd 5c81 8ebd 6252 123d
000003c0: 3635 d3bd 4b34 093d 3a16 01bb d8fc 89bd
000003d0: 19e2 9b3d 3ec4 d23d 0ef6 68bd bd46 43bd
000003e0: b4a6 74bd bed5 503d 7e1f 92bc 8c8e b33c
000003f0: 4ac5 c5bd 1791 54bd 589e 7e3d 6e97 03be
-0.054637805 -0.003580424 -0.009827147 -0.017270561 0.014920466 -0.060071874 -0.09650284 0.058615535
0.021971144 -0.09709223 0.040395193 -0.12909363 -0.108958505 0.024867164 0.07845454 0.082076944
-0.099762686 0.067752905 0.08021101 0.060499247 0.087492 -0.05453721 -0.12314651 -0.02859884
-0.10536355 0.057718273 -4.7212143e-05 -0.009818191 0.11219852 0.12203878 -0.021272248 -0.12186511
-0.025539193 -0.084310666 0.01793445 -0.07550482 -0.05677538 0.063656084 -0.07592092 0.09093192
-0.012382003 -0.030179318 0.018431341 -0.09092334 0.02060587 -0.14784364 -0.12028131 -0.14675947
-0.10638811 -0.10639782 -0.045436 0.008186215 -0.14933138 0.07304798 -0.1259753 -0.10801152
-0.092561774 0.03666738 -0.09458724 0.041969236 -0.11630315 0.022695826 -0.056221027 -0.112260684
0.050143562 -0.01881773 0.048022036 -0.092010185 -0.11419405 0.059064645 -0.15685204 -0.012807776
0.021998568 -0.0038571917 0.014740306 -0.06369889 -0.021685796 0.0026152092 0.0581209 0.07219568
-0.1283638 -0.10245879 -0.017396688 0.022218462 -0.171787 -0.13043065 0.023401832 -0.06591989
0.010163353 -0.12422746 0.07234713 -0.015639532 -0.036727704 -0.11625445 -0.090587504 0.0569139
-0.06490153 -0.12101395 0.0467217 0.02802541 -0.010185349 -0.1302305 0.0013502871 0.044037193
-0.0500398 0.05137701 -0.047015887 0.07222258 0.0075805034 -0.13258687 0.10492542 0.039284654
0.055545326 -0.13162185 -0.1069359 0.09261 0.032470584 -0.045573425 -0.08443619 -0.045406867
-0.04690461 -0.14075232 -0.11637045 0.002395038 -0.1151483 0.032084208 0.08166557 -0.06051682
0.016548604 -0.0045106914 -0.009381824 -0.05872545 0.0013039646 0.032773297 -0.02363256 0.03768441
-0.12220962 -0.13195862 -0.11111401 -0.12918274 -0.08660019 -0.015206185 0.06554796 -0.16693245
-0.12342917 -0.06390611 0.012279255 -0.11707771 -0.09945546 0.013476493 -0.100302584 0.0940492
-0.13817558 -0.11973369 -0.10340037 0.057556767 -0.04440821 0.0350647 0.04028456 0.081856
-0.0870074 0.028990205 -0.0072454177 -0.071933046 0.06610407 0.08823814 -0.057324696 0.063699044
0.05541923 0.09700833 -0.04134542 0.044187054 -0.116288714 0.116195 0.08882158 0.006927354
-0.06317561 -0.045531906 -0.063558795 -0.0061696917 -0.10355622 -0.0930022 -0.095888436 -0.14090858
-0.11423763 -0.14331129 -0.05780483 -0.008549907 -0.10314632 0.00036948262 0.014550746 -0.12602668
-0.13758482 -0.06390768 0.032783367 -0.06631753 -0.12523681 -0.04866125 -0.07920578 -0.15824516
0.014858437 -0.11245549 -0.084865175 -0.010147803 -0.09161998 -0.061949853 -0.14162993 -0.07595869
0.03997492 0.015266663 -0.03811331 0.063972786 -0.07181033 0.0754274 -0.0011570769 -0.10584768
-0.0276097 0.083465554 0.067260414 -0.05200141 -0.11728817 -0.12261495 -0.16626495 -0.1106771
0.03800611 0.0048689335 -0.09050867 -0.02145665 0.0898743 -0.13070245 -0.09167941 0.022089586
-0.033138104 -0.0024812343 0.044039916 -0.0321674 0.09111375 -0.076937065 -0.06958267 0.035723098
-0.103128836 0.033497136 -0.0019697086 -0.06737679 0.07611484 0.102913365 -0.05687528 -0.047674883
-0.059729293 0.05098509 -0.017837282 0.021918558 -0.096567705 -0.05189618 0.062162727 -0.12850735

actor_linear3.weight f4 [8, 512]
00000000: f5df 51bb b1fb 0e3e 0769 f93c 45de de3b
00000010: 33d6 0f3e f7d5 e0bc a7b8 063e ab0a c03d
00000020: b7a6 293d 238d 1f3d 7405 c83c f52a 573d
00000030: 1424 da3d 688d 273d c5b8 dd3c 5a34 a33d
00000040: d435 b7bd 0d96 20bc 8db1 9e3c ba9f 673d
00000050: 1bbe 7b3d 8ace 493d b7c3 373e 2294 a63c
00000060: 3cb1 153d 198d b83c 7278 8cbb d483 1dbd
00000070: 7595 f03d a352 0e3e 572a a83c 52e5 4cbd
00000080: 2565 303d ddba cebc 8e9d 8c3d 05f7 063d
00000090: 2f76 0e3d d0b2 b23d 7d8b 6a3d f532 f13a
000000a0: 8e92 883c 54f0 a6ba de98 fe3c 6215 c93d
000000b0: e964 1c3d 9c8d da3c 1d35 6bbc f589 2f3d
000000c0: 6d61 c63d 7cbe 7f3d c45f 3a3c b299 a73c
000000d0: 3ff4 b03d 6e50 9dbb 8a00 0b3d 3787 77bc
000000e0: f483 e73b 209e 8c3d 8b0c 233a f320 59bd
000000f0: 96a8 903d 7f9f b53d 1094 26bc f95e fc3b
00000100: bd19 863c aef3 a93d 1b91 9dba 0a12 093d
00000110: 4d57 123d be9f 9b3d 9731 323c ca1f 933d
00000120: 0558 343d b215 283c 9921 783d 017f 883d
00000130: 5c1a 40bd 8011 e2bb 2cc1 d93d 4453 eabc
00000140: 7f58 db3c 543b 753d 162c 803d 6a95 463d
00000150: da6f 203d 9c76 11bc 2c5b a53c 6756 d3bc
00000160: e8b6 9e3d eacc b3bb 9d65 ae3d 4627 4dbc
00000170: b4af 003d 1e7d 90bc 79ea 8d3d 4424 1b3d
00000180: 4012 323d d92b 50bb 1cf8 bd3d 8e98 2dbd
00000190: e890 a43d c441 77bb dd0b 343c 530d a13d
000001a0: 9dc9 9f3b e771 323d bf0e 523d 16ea 8d3c
000001b0: f92b c33c 6647 a83d d39d 4cbd c7c4 a53d
000001c0: 42d3 833d e653 f53b 9a43 38bb a578 253d
000001d0: e1cb fc3a 8fa0 663d 7d6a 853b 6905 d93b
000001e0: 677b 523d 77dc 7c3c 20e4 973d 57f9 a43d
000001f0: 8ca7 063d b5b0 213e 3c0f bc3b d95c 253d
00000200: 4913 513d 8acf 293c 7afd 663b 8a16 86bc
00000210: 2523 2b3c 4034 8abd 4245 cf3b 2f69 e8bb
00000220: 4707 cb3d a759 ab3d f826 423d 8e02 a83d
00000230: 315e d33c 7e4c 653d 51dd 5b3b f735 d93d
00000240: f98e 5bbb 7f4d a3bc ddf5 113d 72e5 3c3d
00000250: e3f4 a53c 75c1 253c b495 163d 505b 613d
00000260: e6ee 003d 0c1e 033c 3d66 0c3d 50a3 483d
00000270: ce13 b73b 458a 38bc 6191 ad3d ea7d 983d
00000280: 66fd 90bd 7e01 ed3c 753b 453d 9881 d33c
00000290: 76b0 f1bc becc 7b3d f948 963d af52 713d
000002a0: f723 253b c548 c43c 9093 393d 1790 8e3d
000002b0: 75a8 c83d d618 a23d 7478 123e 9161 3e3c
000002c0: 6121 bcbc ca18 a5ba 72e9 09bd ba6c e73a
000002d0: ef94 9b3d b278 623d 68d4 793d 5a97 cf3d
000002e0: 7df2 d53c c4f0 d9bc 04ef 7a3d dc6a a23d
000002f0: 4a50 8b3d 8233 453e 2649 4a3d 8098 663d
00000300: 4dec e83c 7945 613d 0937 823d e018 b23d
00000310: 3811 383d b226 233d 549d 413d f9ae 6b3d
00000320: b4ae 6b3b 9a9b 843c 2639 8f3c 46af 463d
00000330: 7e6b 563d 8e49 5e3d 20de 803c 1a84 9fbc
00000340: eb5f d23d ba30 9c3d 82d5 b53c 5539 73bc
00000350: 90d0 543c f7b3 f0bc d82b 49bb b5d8 babc
00000360: 5073 3cbd 332a 173d 9513 f53d 8283 efbc
00000370: 9662 073d 5789 663c 7627 8b3d 403b 723c
00000380: a0bb 3c3d cb72 d53d 471f 0a3c 97e6 9d3d
00000390: c1a1 df3d de5b 563d 5d6b c9bb e3c8 b43d
000003a0: e253 503d 5728 5b3c 2207 c03c dfa1 543c
000003b0: 7938 543d 55aa 9c3d 1a8b d93d fb51 bf3d
000003c0: d107 86bb c65f 5a3d 28db 263e 4ebf 88bb
000003d0: a20d 8ebc 98d5 e7ba 717a 2dbc 00e0 41bc
000003e0: 56bc b43d 8bca bfbc 08dc e23c d250 27bd
000003f0: a8df 80bc 86ed c23d 3c5e a4bc 845f 0d3d
-0.0032024358 0.139632 0.030445589 0.006801399 0.14046554 -0.027445776 0.13156377 0.09377035
0.041418757 0.038952958 0.024416663 0.0525312 0.106514126 0.04090634 0.027065644 0.0796897
-0.08945814 -0.0098014 0.019371772 0.05654881 0.061460596 0.049269237 0.17945753 0.020334307
0.036545977 0.022528218 -0.004286819 -0.0384558 0.11747257 0.13898711 0.020528002 -0.050023384
0.04306521 -0.025235588 0.06865989 0.03295042 0.034780677 0.08725512 0.057261933 0.0018402027
0.016671445 -0.0012736418 0.031078752 0.098185316 0.038182173 0.026678853 -0.014355925 0.042856175
0.09686551 0.06243752 0.011375371 0.02045903 0.08640336 -0.0048008477 0.03393606 -0.015107921
0.0070652906 0.068660975 0.00062198256 -0.05300994 0.07063405 0.08868312 -0.010167137 0.0077017513
0.016369695 0.08298431 -0.0012021394 0.03346447 0.035727788 0.07598828 0.010876081 0.07183798
0.044029254 0.010259079 0.060578916 0.06664849 -0.04690014 -0.006899059 0.10632548 -0.028604157
0.026775597 0.059871033 0.06258409 0.048482336 0.03916917 -0.008878376 0.020185076 -0.025798036
0.0774973 -0.005487074 0.08515475 -0.012521571 0.031417564 -0.017637786 0.06929488 0.037876382
0.043474436 -0.0031764416 0.09275839 -0.042381816 0.08035451 -0.0037728408 0.010989157 0.078638695
0.004876329 0.043565657 0.051283594 0.017323535 0.023824679 0.08216743 -0.0499552 0.08094173
0.064367786 0.007486808 -0.0028116466 0.04039826 0.0019286835 0.056305464 0.0040715323 0.0066229594
0.051387217 0.015433422 0.07416558 0.0805537 0.03287463 0.15790065 0.0057391208 0.04037175
0.051043782 0.010364423 0.0035246299 -0.01636817 0.010445391 -0.06748247 0.006325395 -0.007092617
0.099134974 0.08366709 0.047400445 0.08203612 0.02580175 0.05598115 0.0033548663 0.10605996
-0.0033501966 -0.019934414 0.035634864 0.046117254 0.020258373 0.0101169245 0.03676386 0.055018723
0.03147783 0.008002769 0.03427719 0.048983872 0.0055870777 -0.011263435 0.084749945 0.07445891
-0.07079582 0.028931376 0.048152406 0.025818631 -0.029503088 0.061474554 0.07338137 0.058916744
0.0025198439 0.02396048 0.045306742 0.06961077 0.09797756 0.07914893 0.14303762 0.011619941
-0.022965135 -0.0012595889 -0.033669896 0.0017656304 0.07596766 0.055290885 0.060993582 0.1013629
0.026116604 -0.026604064 0.0612631 0.07930538 0.06802423 0.1925793 0.049386166 0.05629778
0.02843299 0.054997895 0.063581534 0.08696151 0.044938296 0.039831825 0.04726918 0.057539914
0.0035962285 0.016187478 0.017483305 0.048506998 0.052348606 0.054269366 0.015730917 -0.01947217
0.10272201 0.07626481 0.022196535 -0.014845212 0.012989178 -0.029382689 -0.00306963 -0.022808412
-0.046008408 0.03690548 0.119666256 -0.029237512 0.033053003 0.01407083 0.06794636 0.014784634
0.04607737 0.10422286 0.008430309 0.07709997 0.10919524 0.052333705 -0.006146832 0.088273786
0.050861247 0.013376317 0.023440901 0.012978046 0.05181167 0.07649676 0.10622235 0.093418084
-0.0040902873 0.053313993 0.16294539 -0.004173196 -0.017340485 -0.0017687557 -0.010588274 -0.011833191
0.08824985 -0.02341201 0.02769281 -0.04084856 -0.015731648 0.0951796 -0.020064466 0.03451492

actor_linear3.bias f4 [8]
00000000: c908 9ebc d594 f43c 200f ad3c 262e eabc
00000010: 6d75 533d 6566 513d fa0c 093d ec41 643d
-0.019291298 0.029856125 0.021125376 -0.028586458 0.051625658 0.05112304 0.03345964 0.05572693
