model/model_1_backup.pth (torch, 283087 bytes, 7 tensors)

critic_linear1.weight f4 [512, 63]
00000000: ee72 f0bd 7d38 e1bd c958 243d c29e c4bc
00000010: dedc 10bc 72ad f93c f510 b13d 75b9 173d
00000020: 7d52 7abd b98d c1bc 3f06 34bd 0a59 e5bd
00000030: bae2 b43d 9dbb aabd e582 84bd 90cf ea3c
00000040: 2743 8e3d ff29 34bd 510d 95bd 765c 1d3b
00000050: 93fc f33d ba1a a13b 1dd9 433c 1e23 e43d
00000060: f8a8 993c 1334 a0bc fa1f 0cbc dcc1 bf3d
00000070: 6e16 cbbc fc2a f73d ca82 60b8 8e9f 00be
00000080: 448d 23bd 2f7a 8c3b dd51 ab3d 616f cf3b
00000090: f6a0 b5bd e6e2 283d 2c9a c23d 69ec 92bd
000000a0: c3c1 893d 3de1 9fbc 12d6 ad3c 7451 923d
000000b0: 6c1b d73d 5754 083d 8152 48bd 6ce1 d23d
000000c0: 3cd9 033c 18aa bbbd a26c edbd d945 a53d
000000d0: 9a53 00be 0b10 c03d 0f5e f93d b511 df3d
000000e0: 65dd a4bd 84a7 e93d f0c1 343c cf78 bdbb
000000f0: e372 95bc 4090 363c 2ce3 1f3d e753 a8bd
00000100: e298 c73d 17aa 733d 9c9a 863d b593 a73d
00000110: 42c1 f13c 1bdd bd3d 59ce bb3d 37d1 bcbc
00000120: 50b5 fdbd 206a 32bd cd48 a13d 40d6 95bd
00000130: 4ccc 0abd 3690 11bc 8b7d c4bd c57b c4bd
00000140: 7dd3 a23d ecca a03d cd8b 9cbd 9e1b c53d
00000150: f879 5c3d cb77 8c3b 266e 3b3d 2600 e0bd
00000160: d2af 5d3d c209 36bb 2d30 25bd 235e 943d
00000170: 9f7f 3ebc 7480 9fbd bad2 2abd 673b 83bd
00000180: f2fd 293c 1393 60bd a2be cfbd 17d2 c1bd
00000190: 2e9d b8bd 6ded 86bd 9044 18bd 0d94 113c
000001a0: 2e85 cf3d f6fc 95bd f7c5 efbd cb3f 343d
000001b0: 01d5 51bc 3b95 c9bd 3db4 c8bd 061d 95bb
000001c0: 29ed a5bd 28d5 23bd 54ec 863d 9d3b 7bbd
000001d0: e54a be3c 81f5 09bb fb91 89bd 1d16 9dbd
000001e0: 4164 01bd 208a 56bd 91e4 ae3d f706 e43d
000001f0: 6c7c 87bd 431a 2ebd 0d16 3dbd 7331 7ebc
00000200: 3e85 a7bd 7de6 263c c3be 19bd 9dfb 70bd
00000210: 283f 513d 8be7 953d 3299 44bd df5b be3d
00000220: 5c24 e1bd dc07 2fbd 448e bebd 4e85 08bc
00000230: c759 2e3d 417e 813d 881f a8bd e2a9 e13c
00000240: 6669 823d e8f2 98bd daa9 d9bd 9e4c a83d
00000250: ee69 cd3d 2a6c b73d 91c2 243c 6bc7 a2bd
00000260: b6c4 e43c 5fdd 103c e8c0 31ba 34b9 92bd
00000270: 88f4 b63d 6565 733c 770f 13bd e9da cf3c
00000280: 449f adbd be26 17bd fee1 aabd 5bda 153d
00000290: 2aba 293d 1def bc3d d25a ecbb f83e d43d
000002a0: 29d3 4f3c 9d5e b2bc 1c45 7b3d 09b4 efbd
000002b0: 97be 8d3d 6001 433d 906b 723c b197 afbb
000002c0: 5488 a4bd 3898 a23b c0e2 bbbb 8777 6abb
000002d0: c0d4 aabd cc97 d7bd 042e 003e 9c85 e63b
000002e0: 18b2 c23d 011c d2bd aaa1 e53c 46dc 96bd
000002f0: 0929 c43d 2c54 d0bb f75e 9b3d a9a2 b0b9
00000300: 980d a5bd b200 bebd 69c8 d1bd 6bbb d03d
00000310: 8857 873d 7a9c 72bd 8da3 1dbd 4e0e ddbd
00000320: 754f f93c bc9c 63bd 32e6 003e 5020 c63d
00000330: bf6e 2fbc f085 c1bd 9957 43bd 2ea5 ac3d
00000340: 39f9 d0bd f946 b9bd a325 74bd eb4a 4fbd
00000350: 2700 1abc 1ce4 fa3d 8284 98bd cab6 00be
00000360: 62b8 83bc ef68 9a3d e594 a4bd c682 5e39
00000370: 111d bebc a92e 4ebd 82ad 08bd 9b76 b7bd
00000380: e90e e43b 64a4 9f3d 20c7 9dbd 31cc 36bd
00000390: 8ab0 5a3c b64d 16bd dbef e03d 8d19 e93d
000003a0: 10f1 15bd e650 f1bd c3a4 9a3d 09f3 00be
000003b0: f375 b4bd e57e 8bbd 61b6 c83d eb8e 1b3d
000003c0: 5255 583d 0ec4 0d3d 3730 933d 9fef fe3d
000003d0: 2a98 433d 7c7a 92bb bf2a f13d e437 f93d
000003e0: 5498 abbd 3604 63bd 05e1 e73c c1c6 98b9
000003f0: d420 063d 6123 733d 081c efbd ed64 063d
-0.11740671 -0.109971024 0.040123735 -0.024001483 -0.008841721 0.030478213 0.086458124 0.0370421
-0.061113823 -0.023627149 -0.04395127 -0.111986235 0.08832307 -0.08336566 -0.06470279 0.028663427
0.06946402 -0.043985363 -0.072779305 0.002401141 0.11913409 0.004916516 0.011953619 0.111395106
0.018757328 -0.01955608 -0.008552546 0.093631476 -0.024790969 0.120687455 -5.352757e-05 -0.12560865
-0.039929643 0.0042870264 0.083652236 0.006330416 -0.088685915 0.041232012 0.09502062 -0.07173998
0.0672641 -0.019516582 0.02122024 0.07144442 0.10503277 0.033283558 -0.048906807 0.10296902
0.008047398 -0.09163302 -0.11592986 0.08069963 -0.12531891 0.0937806 0.121761434 0.10892049
-0.0805004 0.11408904 0.011032566 -0.005782224 -0.018243259 0.01114279 0.039035007 -0.08219128
0.09745957 0.059488382 0.06572458 0.0818247 0.029511098 0.09270688 0.09170217 -0.02304898
-0.12388098 -0.04355824 0.07875214 -0.073162556 -0.03388624 -0.00888448 -0.09594258 -0.0959392
0.079504944 0.07851204 -0.076438524 0.09624408 0.053827256 0.0042867414 0.045759343 -0.10937528
0.054122753 -0.0027776812 -0.040329147 0.07244518 -0.011627107 -0.07788172 -0.04170487 -0.064078145
0.010375487 -0.05482776 -0.10143782 -0.094638996 -0.09014355 -0.06588254 -0.03717476 0.008885396
0.10132824 -0.07323639 -0.11707681 0.04400615 -0.012807132 -0.098429166 -0.09800003 -0.004550579
-0.08101875 -0.039998204 0.06588045 -0.06133615 0.023229072 -0.0021050873 -0.06717297 -0.076702334
-0.03158975 -0.05237782 0.08539689 0.11134141 -0.066155285 -0.042505514 -0.046163607 -0.015514719
-0.08179711 0.010186789 -0.03753544 -0.058833707 0.05108562 0.07319554 -0.04799766 0.09294867
-0.10993263 -0.042732105 -0.09304479 -0.008332564 0.042566087 0.06322909 -0.08209139 0.027546827
0.063677594 -0.07468206 -0.106281 0.082177386 0.1002997 0.089561775 0.010056154 -0.07948192
0.02792583 0.0088418415 -0.00067807594 -0.07164231 0.089333594 0.014855717 -0.03590342 0.02537294
-0.08477643 -0.03690218 -0.08343886 0.036585193 0.041437306 0.09225295 -0.007212975 0.10363573
0.012684622 -0.02177363 0.061345205 -0.11704261 0.06921118 0.047608733 0.014796153 -0.005358659
-0.08033815 0.0049619935 -0.005733818 -0.003577681 -0.0834136 -0.10527 0.12517554 0.0070349704
0.09506625 -0.102592476 0.028031189 -0.073662326 0.09578139 -0.0063576903 0.075864725 -0.00033690527
-0.080592334 -0.09277476 -0.10243303 0.10191997 0.06608492 -0.05923126 -0.038486052 -0.10793744
0.030433396 -0.055569395 0.12587813 0.09674132 -0.010707556 -0.09449375 -0.04769096 0.08429943
-0.102037854 -0.0904674 -0.059606206 -0.050608557 -0.00939945 0.1225054 -0.07447149 -0.12569728
-0.016079132 0.07539546 -0.08036212 0.00021220287 -0.02320722 -0.050337467 -0.033368595 -0.08958169
0.0069597852 0.07795027 -0.07703996 -0.044628326 0.013347754 -0.036695205 0.10983249 0.113818265
-0.03660685 -0.11783008 0.07550957 -0.1259271 -0.088115595 -0.068113126 0.09800411 0.037978094
0.052815743 0.0346108 0.071869306 0.12448048 0.047752537 -0.0044701677 0.11775731 0.121688634
-0.08378664 -0.055423938 0.02830554 -0.00029139782 0.03274615 0.05935991 -0.116752684 0.032811094

critic_linear1.bias f4 [512]
00000000: 3e2f d83d fab9 bdbd ab6f 22bd 64aa 94bd
00000010: e62b e93c ca95 f8bd a8ff c4bd 88ec c8bd
00000020: 7e95 8abd 76ed f43d b83d fdbd 25e9 c43d
00000030: 289f 86bd 75c4 0e3d b43a 923d bd12 e7bd
00000040: d7e9 e6bd a992 b3bd cb55 223d ffcc d2bd
00000050: e168 b1bd df4a 9f3c 8f65 df3d 197a 9b3d
00000060: 5b10 ae3d 99bc 26bd 13ac e13d 0df0 b7bd
00000070: 2efd 75bd eeb2 aa3d d600 27bd b497 7e3d
00000080: 5a31 30bd b4db dd3d 878a aabd 579a 4fbd
00000090: 8751 bf3d e165 aabd afa1 a4bb 84fa bb3d
000000a0: d7b8 fcbd f8b3 36bc 5bf1 8a3d 0e71 58bd
000000b0: 42a0 9abd 8458 083b f905 65bc 6920 a3bc
000000c0: 3c6e 303d 08c4 383d 86f5 e83d 5252 4fbd
000000d0: b3b4 95bd 6d68 c8bc 0088 c93d 3662 9fbd
000000e0: 3563 6dbc be85 d03d 30a8 9ebd 410b 8dbd
000000f0: 3a5e d13c 2a01 f23c 4611 5c3d edcc f33c
00000100: 9579 ad3d 703f cebd f0f1 b4bd 2cf3 f8bd
00000110: 74ae f53d 5e0e c93d f5fb dc3b 6616 c2bd
00000120: 39f7 c5bd 4a28 d93d 92eb 5b3c 9a22 bd3c
00000130: fd3e bf3d d278 c6bc d1a1 85bb b90d 633d
00000140: 3766 ff3c 59ac b63d b40f a93d 71ab 29bd
00000150: 9624 4dbc 7563 573d 9c3a 00bd 04b5 9dbd
00000160: 6285 2abb 6a7c 073c 8108 8bbc ad43 6bbd
00000170: 9861 993d 4a23 d8bc 4ff8 05bd 40e9 5c3c
00000180: c771 183d 957e 4abd 2873 acbd 62f1 d9bd
00000190: 5a75 a63d 54a5 9fbd 2b39 273d 9a54 a3bc
000001a0: 0277 c03d f478 c7bd a2e6 b83d fff2 cdbd
000001b0: 6183 df3d d971 29bc 251e 37bd 3eee 90bd
000001c0: 9703 943d 3103 963d 67b7 1c3d 07ab 76bd
000001d0: 54cb 0d3d 56fc dcbc d074 edbc 8565 53bd
000001e0: bcb2 ce3d 08a8 a9bd 894a e7bd bea5 f83d
000001f0: a772 c0bd 8c18 44bc 9b65 ec3d 57aa b3bd
00000200: aab8 d23c 6027 c1bd b41d c2bd 8873 87bc
00000210: 108f 1b3d 42c3 9e3d f488 d53d ca27 8abd
00000220: 3870 4abd 912f 063d aa81 e8bd 01d4 7a3d
00000230: 3fdc 41bb ce10 85bc db22 d9bd a047 7cbd
00000240: 791d 923d bd90 b4bd 4c26 dabc e483 46bd
00000250: b4ac 533d 8cfd 5e3d 8838 adbd b6d2 dbbd
00000260: efb8 873d 1d40 91bd 2efd e73d bd5b 59bc
00000270: 3391 f33d 5760 713d 6471 b3bd 661e 693d
00000280: 7a0d 463c 17e1 c73d b806 3c3d 7111 ff3d
00000290: 3020 e6bb 8c53 ad3d 6b92 393c 636d d6bd
000002a0: f893 50bd cca6 d6bd 094f 2a3d ce88 de3d
000002b0: 2c25 fe3d 069a a8bd 40b4 81bd 9ca9 f8bd
000002c0: ff12 333d f217 1ebd 7131 7b3d c167 2bbd
000002d0: 3405 803d 3f28 a6bb c659 e1bd 15dc f03d
000002e0: f922 b73d b8c7 aebc aa04 b33c e8e0 2b3d
000002f0: aaee c43d 269f 1a3d 746d 11bd f65b e4bd
00000300: 19c3 69bd 1b29 1f3d 5c0b e4bd 3931 9ebd
00000310: a5f2 823d 8367 bc3c 0d01 343c 6816 d33d
00000320: a93c e43d 13da 45bc a641 85bd 106d 31bc
00000330: e4d7 303c 2336 2a3c 4977 7bbd b847 9338
00000340: 667c 0f3d cd22 6cbd 07fa d5bd 9e5d aa3d
00000350: a8e3 a63d 7905 873d e1ac 0abd 8e7d a0bd
00000360: efee 6cbd a361 68bd e747 a3bd 2bb9 ca3c
00000370: e84f 0bbd 73ed 303d a89f d8bd 901d 99bc
00000380: 878e d7bc 36a3 96bc 6b8e 593d a09b d7bd
00000390: e5ab 053d 29e3 dfbb cd03 e13c ec38 e23d
000003a0: 69a7 23bd 5c9e f8bd 44d4 0a3d 6840 543d
000003b0: 0244 7b3d 8ab8 50bd e4b8 a03d 893b e9bd
000003c0: b33e 413c 4264 bbba 696d 003e c343 e73d
000003d0: af7b 1abd fbe3 59bd e9ff f3bd 3525 043c
000003e0: 661e a8bd 7c44 183b bbab 813d 5e26 ddbd
000003f0: 62ae f83d f393 983d 8f3f ebbd 9fd6 7c3d
0.10555886 -0.09263988 -0.039657276 -0.07259062 0.028463315 -0.12137945 -0.09619075 -0.0981074
-0.067667946 0.119593546 -0.123652875 0.09614781 -0.065733254 0.034855325 0.07140103 -0.11282871
-0.1127507 -0.087682076 0.0396326 -0.10293006 -0.08662582 0.019444881 0.10908043 0.07591648
0.08499213 -0.040707204 0.11019149 -0.08981333 -0.060055904 0.083349094 -0.04077228 0.062156394
-0.043015815 0.10832921 -0.08327203 -0.0506843 0.09341722 -0.08320213 -0.005024157 0.091786414
-0.12339943 -0.011151306 0.06784316 -0.052842192 -0.07550098 0.0020804713 -0.013978475 -0.019912915
0.043073878 0.045108825 0.11374955 -0.050615616 -0.07309856 -0.024463857 0.09840393 -0.07782404
-0.014488985 0.10181759 -0.07746923 -0.06886912 0.025557626 0.02954157 0.05372741 0.029760802
0.084704556 -0.100706935 -0.088352084 -0.12155756 0.11996165 0.098171934 0.006743903 -0.094769284
-0.096662946 0.10603388 0.013422864 0.023087788 0.09338186 -0.024227533 -0.004078128 0.05543301
0.03117667 0.089195915 0.08254948 -0.041423265 -0.01252093 0.052585084 -0.031305894 -0.077005416
-0.0026019444 0.008269409 -0.016971828 -0.057437588 0.07489318 -0.026384015 -0.03270751 0.0134833455
0.03721788 -0.049437124 -0.08420402 -0.10641743 0.08127852 -0.07795206 0.040826004 -0.019937802
0.09397699 -0.09739867 0.09028365 -0.100561135 0.109137304 -0.010342085 -0.044706482 -0.07076691
0.07227247 0.073248275 0.038260844 -0.060221698 0.034617737 -0.026975792 -0.028986365 -0.05161049
0.100926846 -0.082840025 -0.11293513 0.12140988 -0.09396868 -0.011968743 0.11542817 -0.08772724
0.02572282 -0.09431338 -0.09478322 -0.016534582 0.037978232 0.07752086 0.10426512 -0.067458704
-0.049423426 0.032760207 -0.113528565 0.06123734 -0.002958074 -0.016243365 -0.10602351 -0.061591744
0.07134528 -0.08816669 -0.02662959 -0.048465624 0.051678374 0.05444102 -0.08458048 -0.10733549
0.0662707 -0.07092307 0.11327587 -0.013266501 0.11892929 0.058929767 -0.08761862 0.056913756
0.012088174 0.09759729 0.045904845 0.124544986 -0.00702288 0.08463201 0.011326413 -0.104700826
-0.050922364 -0.10481033 0.04157928 0.10865937 0.12409434 -0.08232503 -0.06333208 -0.121417254
0.043719288 -0.038597055 0.061326448 -0.041846994 0.062509924 -0.0050707157 -0.11003451 0.11760727
0.089422174 -0.021335468 0.02185281 0.041962534 0.09615834 0.037749432 -0.035504773 -0.11150353
-0.057070825 0.03885756 -0.11134979 -0.07724232 0.06393937 0.022998577 0.010986579 0.10307008
0.111443825 -0.012075919 -0.06506662 -0.010829225 0.01079366 0.010388884 -0.061393056 7.022865e-05
0.035030745 -0.057650376 -0.104480796 0.08318637 0.08148891 0.06592841 -0.033856276 -0.07836448
-0.057845052 -0.05673374 -0.07972699 0.024746498 -0.03401175 0.0431952 -0.10577327 -0.018690854
-0.02631308 -0.018388372 0.053114336 -0.1052773 0.032634635 -0.0068324995 0.027467633 0.11046013
-0.039954577 -0.1213958 0.03389384 0.051819235 0.061344154 -0.05095724 0.07847765 -0.113883086
0.011794734 -0.0014296847 0.12541737 0.112922214 -0.03771561 -0.053195935 -0.11914045 0.0080655115
-0.08208923 0.002323418 0.06331583 -0.107983336 0.12142636 0.07450094 -0.11486732 0.061728116

critic_linear3.weight f4 [1, 512]
00000000: 039d 7ebc f8e8 bb3c 9052 813b afbf 503c
00000010: b271 33bd 200d 89bc a095 28bd 78f7 aabc
00000020: a3e1 d83c ef66 27bc 914b f93b 93a2 493c
00000030: 6ebb da3b 503b efbb 63fd 073d 6a55 003d
00000040: ee5e 263d 1a0e 9bbc 1bd7 8dbc d468 b33c
00000050: 285c e5bb 6a06 8cbc dc91 1b3d f897 a73b
00000060: 4cae 753c 1586 3abc eed6 95bc a64c 323c
00000070: b22c 20bd 74e8 19bd 2a1d 17bd 6677 293d
00000080: b8c8 dd3c ad57 29bd 61a9 b23c a848 93bb
00000090: 22d8 ebbb 0ae8 d93c 670d 0d3d 635a 6abc
000000a0: 1d28 2fbd 5449 193d 023c b4bc 0c6a 08bd
000000b0: d4bf 193d 4db7 dcbc 8c8a 89bc 740d 14bb
000000c0: e4ee 8f3b f7d5 743c 5f2e 10bd 9ffa 983b
000000d0: 57d3 f1bc 87f3 92bc 6de8 2fbc a0cf bfbc
000000e0: dc1b c9bc 6fab 9bbc 6bcd 02bc 5457 0bbc
000000f0: 0f68 ac3c 5e8b 8bbc e166 813c e214 053d
00000100: ffa5 efba 4ec7 f83c 051f 3abc 4d21 46bb
00000110: 4e24 30bd bcee ecbc e50c 27bd a67d 1d3d
00000120: b8dd 2fbd ca0c 8a3c 37d8 babc 6d60 7939
00000130: efaa 7abc c444 0bbd 7bea 09bc 3974 9b3c
00000140: eb81 203d 3ffd da3c 9185 7abc d3a4 c1bc
00000150: 26c5 0bbd d38b 2ebc c30a a83c 39ec b83b
00000160: 6f53 cdbc ea54 b83c d1b1 f2bc ec4c 073d
00000170: 42e9 84bc b3da 1abd 022d 033c fc5c f4bc
00000180: b711 e93b 551f b3bc 9e41 bdbc 0d20 1e3d
00000190: ec7f 78bc f9e0 273d 678b febc 0807 f33c
000001a0: cae0 943b f428 113d dbd9 8d3c a0f2 0cbd
000001b0: 1923 963b 898f 9fbc 83f3 19bd 19df 143d
000001c0: 4e5f 0fbc 399f e33c 64b8 973c fc9e 94bb
000001d0: 0ffd 9bbb e35d 2ebd 0679 293d 0d09 c53c
000001e0: 2664 f5bc ae1c ecbc 4924 1b3c 4ec4 dc3c
000001f0: b515 2fbc 2c3b 29bd 0481 3fbc 3251 5dbc
00000200: a7e3 093b 8a99 273c 067b 323d 82f9 233d
00000210: 8883 f03c d663 3dbc 0ba3 50bc 0612 e93b
00000220: 3549 b73c 293d 16bd dc9f b3bb efde 02bd
00000230: 0ded 58bc ac02 0cbd fe0f 313d 08ae dcbb
00000240: 1eb5 a03c 4a65 0f3d fbc6 ab3c ff59 143b
00000250: 60af e93c faaa 323d a18f 16bd 02c1 843c
00000260: 9aec e6bb 2af1 083d 7ece 68bb 22f0 2abd
00000270: b53d f6bc 067f 1e3c a6ec b7ba 5993 313d
00000280: 7aa3 15bd 6f41 97bc 0514 ce3c ce60 e4bc
00000290: dc9f 0a3d bc94 313c 700e 33bc 21dc 833b
000002a0: 4531 2ebc 1009 173c 8532 fbbc 1d02 973c
000002b0: 2e67 1ebc bb3f b9bc 5d3d e13c 311d 41bb
000002c0: 4a68 d63c bf5e 33bd faf1 a63c 23a3 75bc
000002d0: ad69 17bd 110c b9bc b30d 5fba 3e86 2abd
000002e0: 949a bebc d6b8 1dbd 4e33 0b3d 2649 19bd
000002f0: dea0 5f3b 09f9 f8bc 7a92 d13c fb7a 26bc
00000300: 1b09 bd3b 2a11 24bd 700e d9bc d2f4 19bd
00000310: 2552 403c 1589 9f3c 70b9 b5ba 5aec fc3c
00000320: b80b cd3c d718 9fbc a7d9 033d fae2 cf3b
00000330: 9439 19bd 48c4 6dbb 7f1a 143d 8fdf 173d
00000340: 09b0 9e3b 0d72 173d 9315 fb3c ee63 f13c
00000350: f89b 293d 8adc c8bb 4e30 243d 61a3 223d
00000360: 269e 9c3c f462 273d 3e63 debb 1a93 8f3b
00000370: f94b 99bc e988 793c f748 67bc f132 9cbc
00000380: 4430 f73b e356 d2bb ba4c 62bc 5c01 003c
00000390: 1fd1 5cbc 47b0 94bc 5fe5 343d 8d68 ccbc
000003a0: 6e4c f53c 3229 14bd 792e b03c 2384 2e3d
000003b0: b834 473b c56b 883c a447 883c 1f15 2dbc
000003c0: 39f8 efbc 8c39 38ba 4cd8 f83c a919 1e3d
000003d0: f206 233b cbfb eabc 3882 9739 a1fe 733a
000003e0: 0f1a 233c ea80 4abb 844e 1b3c d511 203d
000003f0: 5007 ffbc 2bc9 4bbc 1127 5fbc f44d b23b
-0.015540364 0.022938237 0.00394661 0.012741013 -0.0438096 -0.016729891 -0.04115832 -0.020869955
0.02647478 -0.010217412 0.007607885 0.012306827 0.0066751754 -0.007300772 0.033200633 0.031331457
0.040617876 -0.018927623 -0.017314484 0.021900572 -0.0069995113 -0.017092902 0.0379809 0.0051145516
0.014995169 -0.011384507 -0.018290963 0.010882532 -0.039105125 -0.0375752 -0.036893047 0.041373633
0.02707325 -0.04134338 0.021809282 -0.0044947453 -0.007197396 0.026599903 0.03443661 -0.014303776
-0.042762864 0.037423447 -0.02200127 -0.03330426 0.037536457 -0.026942873 -0.016789697 -0.0022591026
0.0043924917 0.014943591 -0.035200473 0.0046685482 -0.02951972 -0.017938389 -0.010736567 -0.023414433
-0.024549417 -0.019002644 -0.007983546 -0.008504707 0.021045713 -0.017034229 0.015796127 0.03249062
-0.0018283724 0.030368473 -0.011359935 -0.003023225 -0.043003373 -0.028922431 -0.04078378 0.038449906
-0.042936057 0.016851801 -0.022808177 0.00023782412 -0.015299543 -0.034001127 -0.008417721 0.018976318
0.0391864 0.026732085 -0.015290634 -0.023638165 -0.034123562 -0.010653454 0.020512944 0.0056433943
-0.025064198 0.022501428 -0.029625805 0.033032343 -0.016224507 -0.037806224 0.008006336 -0.029829495
0.0071127075 -0.021865526 -0.023102578 0.038604785 -0.015167218 0.040986035 -0.031072332 0.029666439
0.0045433985 0.035439447 0.017315796 -0.034411073 0.0045818207 -0.019477623 -0.037585746 0.036345575
-0.00875075 0.027785884 0.018520541 -0.004535554 -0.0047603915 -0.042570006 0.041375183 0.024052167
-0.029954981 -0.02882227 0.0094691 0.026949074 -0.010686328 -0.041316196 -0.011688475 -0.013508128
0.0021040232 0.010229478 0.043574356 0.04003287 0.029359594 -0.011559447 -0.012734185 0.0071127443
0.022373775 -0.03667942 -0.005481703 -0.031950887 -0.013240111 -0.034182236 0.043228142 -0.0067346133
0.019617613 0.035008706 0.020968905 0.002263665 0.028526008 0.043620087 -0.03675807 0.016205315
-0.007047248 0.033433117 -0.003552347 -0.041732915 -0.030058721 0.009673839 -0.0014032319 0.043353412
-0.036532857 -0.018463818 0.02515603 -0.027878191 0.03384386 0.010838684 -0.010928735 0.004024044
-0.010631864 0.009218469 -0.030663738 0.018433625 -0.009668155 -0.022613397 0.02749508 -0.0029466862
0.026172776 -0.04379153 0.020379055 -0.014992508 -0.036966015 -0.022588762 -0.0008508816 -0.04163193
-0.023267068 -0.03850635 0.033984475 -0.037423275 0.0034122984 -0.030392187 0.02558254 -0.010161157
0.0057689077 -0.04005543 -0.026496142 -0.037586994 0.011738335 0.019474545 -0.0013864469 0.03087442
0.025030002 -0.019421024 0.03218999 0.0063441964 -0.037408426 -0.0036280323 0.03615808 0.037078436
0.0048427624 0.036974 0.030649936 0.029466596 0.04140851 -0.006129806 0.04008513 0.03970659
0.01911838 0.040865853 -0.006786733 0.0043815495 -0.018712984 0.015230396 -0.014116517 -0.01906726
0.0075435955 -0.006419049 -0.013812238 0.007812824 -0.013477593 -0.018150462 0.044164058 -0.024952197
0.029943671 -0.0361721 0.021506535 0.042606484 0.0030396413 0.016652951 0.016635723 -0.010564118
-0.029293166 -0.0007027618 0.030376576 0.03859869 0.0024875966 -0.028684517 0.00028897985 0.0009307657
0.009954943 -0.0030899593 0.009479169 0.039079506 -0.031131417 -0.012438099 -0.013620154 0.0054414216

actor_linear1.weight f4 [512, 63]
00000000: d050 82bc b2ff 90bd 32bc 053d 4ab6 2abd
00000010: d740 833d d376 6dbd b048 9a3d 04a0 f5bd
00000020: c8df 08be 9bc1 b33d 37d4 4b3d c9df 27bd
00000030: 91ee cb3c dd6d cdbd a187 553d c9ac 803d
00000040: 6313 f03c 8f89 ffbc fe4a 08bb 9c5d 19bd
00000050: 0782 73bd d17f 4bbd 8f1a b0bc a594 38bd
00000060: f9af cfbd 7292 6abd a283 03be 7ec4 84bd
00000070: ac26 e83a 2292 29bc da3a 71bd 3171 d93d
00000080: eaea 0bbe 029f 0ebe 1ccf cd3c 70ab 203d
00000090: 1df6 7ebd 8815 7ebd 4168 abbd 8d5c 54bd
000000a0: 7e51 173c b005 0abe 0c91 ad3d 65fe 0bbd
000000b0: e249 dabd 25ff 9ebd efdc a2bc 7580 7a3c
000000c0: 4ff7 babc 0c68 073d d87c a7bd cbfc f6bd
000000d0: 5b32 7dbd cf35 30b9 a327 f9bd a19e 9cbd
000000e0: 9d4b ecbd 859b bf3d b9e1 963d 7933 ecbc
000000f0: 62e6 9a3d 2680 a43d da4f 00bd b151 17be
00000100: b646 db3d c63f 2f3c a113 533d 2df3 ab3d
00000110: 4fb7 cd3d f569 bb3d f325 263d 8bfe be3d
00000120: b957 cbbc d756 e3bd 6574 a6bc 6e6f ee3d
00000130: 88ec 723b 7c19 d23d 5578 873d 7700 6d3c
00000140: 9960 d1bd a2fc 07bd 1350 543c 29a3 d23c
00000150: 36ec a93b f61a 0e3e 2696 85bd d03b 04bd
00000160: 076a 5dbd a5f7 c73c 827e ba3d 97c0 893c
00000170: bbe5 da3d 0284 59bd 1599 ac3d df20 c0bc
00000180: bacf c13c 0668 b6bd 7902 3b3d 7df2 6c3d
00000190: d589 a7bd b937 c23d d7fb 933d acc9 81bb
000001a0: ad66 2cbe 5dc2 38be 4485 33be 7521 74be
000001b0: 28e7 98bd b889 89be d838 29be 6d7f 8ebe
000001c0: 0e90 dfbd 8076 b9bc c02d 353c 97af fbbd
000001d0: 0caf b9bc 3cc8 ccbd fa5f 15bd f18a 7cbc
000001e0: 0459 123e 7396 3b3e ffe7 393f 1a07 3dbe
000001f0: 8de8 c3bd 38a4 853c 3b50 813a d4db d7bd
00000200: f27f 0abe b5f8 be3d 8d29 db3d 100d 33bd
00000210: 45d8 b9bd dd60 02bd 2f23 abbc 4708 eebd
00000220: 7309 dc3d 679b 013d 5a17 07be c60a f93b
00000230: 5b29 7dbd d479 16bd 626c 993c 6173 0cbe
00000240: 632c c4bc 5a37 fa3c 50d7 d33c 5c6c 593d
00000250: 8aa7 bdbd f942 823c c003 0ebc 6f53 e2bd
00000260: 644f acbd c673 913d 0672 b33d 68bf 36bd
00000270: 8253 febd d719 c8bd 033b 0fbe 7713 87bd
00000280: 90ac ae3c e582 e8bd 39d6 973d a06d 0b3d
00000290: a3d1 a7bb 3323 b83d 1fff 7f3d d8c3 d8bd
000002a0: 24f3 11bd 60d3 c13d 980e 8e3c 9752 9ebb
000002b0: 3268 ac3d fede 23be a055 74bd 0ace ad3d
000002c0: 62fd b23d f373 e4bd 85a8 db3d 14af a03d
000002d0: 1c63 b2bd 0630 633c d9ab 983d 0c0c c73d
000002e0: d2c9 ccbc 2594 c43d 5638 1abd 6593 eabd
000002f0: 0352 34bd a15e 38bd c427 aabd c83e 43bd
00000300: 5822 863c 60e0 09be d41e dabd 1b2e b33d
00000310: 40fd ae3c 3f4c bf3d a2bb 96bc 85c3 c03c
00000320: 46d5 bd3b f5a6 ba3d 1d6b e6bd a7ac 963c
00000330: 6098 54bc 08f4 a83c 904b 003e 337a b2bd
00000340: df61 a4bc 8750 963d 8bac abbb ea05 d33d
00000350: b06d e63c dbb4 b63d d957 a7bd 9e88 d13d
00000360: 68cf 1ebe 22c1 33be ba33 45bd d45c a0bd
00000370: 26c1 8d3d fcaa b13d 068e 533d 6de4 ccbd
00000380: 63fb 83bd fb79 b7bd 4497 a5bd 8867 9fbd
00000390: 3baf cd3c 1546 2ebe 5f30 38be f510 2ebe
000003a0: 35f6 e5bd ef38 cbbd 7dd3 80bb d4f9 083d
000003b0: b0ac cbba fe64 05be 7f29 cfbd 38dc 483d
000003c0: 0549 fabd 505e a83c ca2d f038 c023 643d
000003d0: 25e3 ad3c 3f49 8c3b 0694 6c3d 5a6a bebd
000003e0: 2089 883e 2ce5 81bb d67a b63c 92d4 723d
000003f0: e728 4abe 23d4 8bbe 1689 12be cc41 23bd
-0.015907675 -0.0708002 0.03265018 -0.04167775 0.064088516 -0.057974648 0.07533395 -0.11993411
-0.13366616 0.08777162 0.04976293 -0.040984903 0.02489403 -0.100307204 0.0521313 0.06282956
0.02930612 -0.031193523 -0.0020796652 -0.03744279 -0.059450176 -0.049682442 -0.02149704 -0.045063633
-0.10140986 -0.057268567 -0.12843183 -0.064827904 0.001771172 -0.010349782 -0.058894016 0.10617293
-0.13663831 -0.13927844 0.025123172 0.039225996 -0.06224643 -0.062032253 -0.08369494 -0.051846076
0.009235738 -0.13478732 0.08474931 -0.034178156 -0.10658623 -0.07763509 -0.01988074 0.015289416
-0.022823004 0.03305821 -0.08178109 -0.12059935 -0.0618156 -0.00016804713 -0.12165763 -0.076474436
-0.115378596 0.09355835 0.07367272 -0.028833138 0.07563473 0.08032255 -0.031326152 -0.14777257
0.107068464 0.010696357 0.05153239 0.083959915 0.10044729 0.09151069 0.040563535 0.09325894
-0.024822103 -0.11100548 -0.020319173 0.11642347 0.0037067253 0.10258767 0.066147484 0.014465443
-0.10223503 -0.033199914 0.012958544 0.025712566 0.0051856292 0.13877472 -0.06522779 -0.032283604
-0.054056194 0.024410078 0.09106161 0.016815467 0.10688349 -0.053104408 0.084276356 -0.023453174
0.023658622 -0.0890656 0.045656655 0.057848442 -0.08180586 0.094832845 0.07225769 -0.0039608087
-0.16836043 -0.18042894 -0.17531306 -0.23840888 -0.074659646 -0.26862884 -0.1652559 -0.27831593
-0.10916148 -0.022639513 0.011058271 -0.122893505 -0.022666477 -0.09999129 -0.036468484 -0.015413986
0.1429177 0.1831911 0.7261962 -0.1845974 -0.0956584 0.016313657 0.000986583 -0.10539976
-0.1352537 0.09324781 0.107012846 -0.04371363 -0.09074453 -0.031830657 -0.0208908 -0.116226725
0.1074399 0.031642344 -0.13192502 0.0076001612 -0.061807018 -0.036737278 0.018728439 -0.13715889
-0.023946946 0.030543972 0.025859505 0.053081855 -0.09260471 0.015901076 -0.008667886 -0.1105107
-0.0841358 0.0710216 0.087619826 -0.044616133 -0.124182716 -0.097705536 -0.13987355 -0.065955095
0.021322519 -0.11353091 0.074139066 0.034040093 -0.005121426 0.08991089 0.06249916 -0.10584229
-0.035632268 0.09464145 0.017340943 -0.004831623 0.08418311 -0.16003034 -0.05965197 0.084865645
0.08739735 -0.11154928 0.10725502 0.078458935 -0.0871031 0.01386643 0.07454652 0.09719095
-0.02499858 0.09598569 -0.037651382 -0.114538945 -0.044023525 -0.04501212 -0.08308366 -0.047667295
0.016373798 -0.13464499 -0.10650411 0.08749028 0.021360993 0.09340715 -0.018400017 0.023530731
0.0057932464 0.09113876 -0.11250899 0.018392874 -0.012975782 0.020624176 0.12528825 -0.08714714
-0.0200662 0.07339578 -0.0052390746 0.103038624 0.028128475 0.08921214 -0.081710525 0.10231136
-0.15508807 -0.17554143 -0.048145033 -0.078302056 0.06921606 0.08675191 0.051649116 -0.10004506
-0.064444326 -0.08958813 -0.08085492 -0.07783419 0.02510797 -0.17018922 -0.17987202 -0.16998656
-0.11228601 -0.099229686 -0.0039314614 0.03344138 -0.0015539136 -0.13026807 -0.101153366 0.049038142
-0.122209586 0.020552784 0.00011452621 0.055698156 0.021226475 0.0042811926 0.057758354 -0.09297629
0.26667118 -0.003964087 0.02227537 0.059284754 -0.19742166 -0.27310285 -0.14310107 -0.03985767

actor_linear1.bias f4 [512]
00000000: 02f1 3bbd 597a 2ebc ca78 7abc e645 98bc
00000010: b71f 9d3b bed1 7cbd 92e6 cdbd dab8 373d
00000020: d4fc b33c bf0f b8bd 6e75 253d 1514 12be
00000030: ae7b d8bd 0b1b ae3c 5939 af3d 26e4 b33d
00000040: bb56 c4bd 15b2 8b3d ac45 a43d 77b1 873d
00000050: f666 ac3d da7d 40bd e2ca f4bd 0cad 99bc
00000060: 4b94 bdbd ff69 6c3d a1b1 b63b d4b6 01bc
00000070: 1842 e23d f61c f63d 5f02 81bc 6d95 f1bd
00000080: 9237 d1bc e5ab cebd 5198 b33c 45a2 9abd
00000090: 4d8d 68bd 6494 9c3d 6d7c 9bbd 843a ba3d
000000a0: 2f70 a33b 9e3a f7bc 4a4f c13c 866d afbd
000000b0: a4cd a83c 7015 06be c445 ebbd a223 18be
000000c0: 47b0 dbbd edb4 d2bd 191b 3abd 791f 063c
000000d0: b1a9 1bbe c576 a53d 1722 f1bd 99cb d0bd
000000e0: a01d acbd 9eac 6f3d f4b6 c1bd 2ef9 463d
000000f0: 5930 eebd 86c4 d53b 0548 66bd f067 f3bd
00000100: 5663 4d3d a427 9abc c1b2 443d 5efa bfbd
00000110: 5087 dbbd ede1 3e3d a973 23be 3dd6 f8bb
00000120: 68be a73c 5af3 473a 2f09 1c3c 03ea 79bd
00000130: dcb4 0abd 4a98 b73b 5e83 633d bdef 983d
00000140: cd71 03be 57a4 dcbd 80f1 6cbc 7e03 b63c
00000150: a181 29be 9d8f 05be 85fd 033d e0fa 7fbd
00000160: 3184 263c f76a febd d242 9d3d 39d1 fabc
00000170: 4487 17bd 89fe 03be f185 b9bd 8ef6 833d
00000180: cc23 86bd 02bf e4bd 13f0 273d 5ba8 dc3c
00000190: c670 36bb 255b 05be 1efc b03a cb26 0f3d
000001a0: ac84 27bd 0ee5 1b3d 909e 2dbd 6fe9 933d
000001b0: 02be 243c 7c95 03be e938 d83d 7933 2f3d
000001c0: 7f83 633d e1c7 06be 5e6f c4bd b626 cc3d
000001d0: e0ff 043d 33ab 3abd 4b0a a6bd 00ad 38bd
000001e0: da2e 34bd 6021 10be cb06 dfbd c317 b63c
000001f0: 5d15 e6bd 7caa 0f3d 2e1b b73d 46ed 65bd
00000200: f090 873c ac2b 73bb 8574 90bc 78d1 50bd
00000210: a0bb 3f3c 621d fe3c 156c 95bc 8821 9c3c
00000220: ff0f f1bd a4ef eebd 8afc d4bd 50cc 05be
00000230: 715b b1bd c655 e6bb 023e 863d 4a20 36be
00000240: f17d ffbd 35e1 82bd ee2e 493c 22af ebbd
00000250: 2b99 bdbd c1ed 203d d7d5 debd ae4c e43d
00000260: ab32 0cbe f036 f5bd 93c3 d3bd ab26 803d
00000270: 43b1 14bd 6ff2 2a3d 6c01 253d 4134 a53d
00000280: 340d b5bd de7c ed3c f86a edbb 6307 81bd
00000290: 829a 8f3d 91b3 c23d 0f44 96bd 961b 873d
000002a0: bfed 653d 4f94 c63d d159 29bd 8ec0 113d
000002b0: 406f ecbd 4cc1 e23d 7542 bc3d e194 2b3c
000002c0: 3762 81bd 5084 2ebd 6b3d 77bd e7c1 93bb
000002d0: 5d0e e0bd 15ec acbd f8a4 cabd f1a7 04be
000002e0: 8d09 c7bd 1ebd 19be 2c5b 99bd bbfb 9abb
000002f0: f6cc b4bd 1671 003c 0832 943b 3a22 00be
00000300: 09e3 0cbe ac94 81bd 3c67 8f3c 0e9b 98bd
00000310: 37bf 16be 0551 47bd c8d7 92bd 1c10 19be
00000320: 8a0e df3b 196b e5bd cbcd adbd fe58 36bb
00000330: 64e4 b4bd 0f2e 9cbd 7007 11be 4b8f 56bd
00000340: a64a 1b3d 16a8 c23c e2ed f2bc 2a04 833d
00000350: 1c6e 99bd 76c9 8c3d 0e8f 063c 5b9b debd
00000360: 5f11 5bbc fdef aa3d e856 9e3d f5eb 4bbd
00000370: c834 f0bd 8c1d fbbd 5c41 2abe adaa e2bd
00000380: fcdc 3d3d c0c7 2b3c 9c5c b9bd d703 a8bc
00000390: 293b af3d 1dd0 fdbd 0dc8 bbbd 3925 d93c
000003a0: d2bb 07bd 1c87 e739 3363 343d 05ea a6bc
000003b0: b95d 9f3d 4e3d 8cbd 6957 84bd 49e4 e83c
000003c0: e096 c8bd 821b 183d ae43 18bc d8fc 89bd
000003d0: 19e2 9b3d 827c d53d 0ef6 68bd d7f6 1abd
000003e0: daf8 54bd e2c7 643d bbd5 a9bc 800d 053d
000003f0: f78c c6bd a360 62bd 2313 883d 9996 fcbd
-0.04588414 -0.010649287 -0.015287587 -0.018588018 0.0047950405 -0.061723463 -0.100537434 0.044854023
0.021971144 -0.08987378 0.040395193 -0.14265473 -0.10570465 0.02125313 0.0855586 0.0878375
-0.09586855 0.06821076 0.08021101 0.066256456 0.08418076 -0.04699502 -0.11952759 -0.018759273
-0.092568 0.057718273 0.0055753742 -0.007917125 0.11047763 0.120172426 -0.015748201 -0.11796079
-0.025539193 -0.1009138 0.021923216 -0.07550482 -0.05677538 0.07645491 -0.07592092 0.09093192
0.0049877386 -0.030179318 0.023597378 -0.08565812 0.02060587 -0.13094115 -0.11487916 -0.14857343
-0.107269816 -0.10288415 -0.045436 0.008186215 -0.15201451 0.08079294 -0.1177408 -0.10195083
-0.08404088 0.05851423 -0.09458724 0.04857748 -0.11630315 0.0065236716 -0.056221027 -0.11885059
0.050143562 -0.01881773 0.048022036 -0.093739256 -0.10719168 0.04660218 -0.1596209 -0.0075938986
0.020476535 0.000762751 0.009523674 -0.061014187 -0.033863887 0.005602871 0.055545203 0.074676014
-0.1283638 -0.10773533 -0.014461875 0.022218462 -0.16553356 -0.13043065 0.032224197 -0.062495112
0.010163353 -0.12422746 0.076787606 -0.030617343 -0.036994234 -0.12890066 -0.090587504 0.06443511
-0.065497965 -0.11169244 0.041000437 0.026935747 -0.0027838214 -0.1302305 0.0013502871 0.034949105
-0.04089801 0.03806024 -0.042387545 0.07222258 0.010055067 -0.12849993 0.1055773 0.042773698
0.055545326 -0.13162185 -0.09591554 0.09968321 0.032470584 -0.045573425 -0.08107432 -0.04508686
-0.043989994 -0.14075232 -0.108899675 0.022228127 -0.112345435 0.035074696 0.08940731 -0.056134485
0.016548604 -0.0037104888 -0.017633686 -0.050981015 0.011702448 0.03101987 -0.018240014 0.019058958
-0.11770629 -0.116668016 -0.103997305 -0.1306622 -0.08660019 -0.007029268 0.06554796 -0.17785755
-0.12475193 -0.06390611 0.012279255 -0.11508013 -0.0925773 0.03928924 -0.108806305 0.11147438
-0.13691203 -0.11973369 -0.10340037 0.06257375 -0.036301862 0.04173511 0.04028456 0.08066607
-0.08840409 0.028990205 -0.0072454177 -0.06300237 0.07011892 0.09506906 -0.073372 0.065970585
0.056134935 0.09696256 -0.04134542 0.035584025 -0.11544657 0.11072025 0.09192363 0.010472507
-0.06317561 -0.04260665 -0.060361307 -0.004509199 -0.109402396 -0.084434666 -0.098947465 -0.1295469
-0.097186185 -0.15013549 -0.07488093 -0.0047297156 -0.08828156 0.007839462 0.0045225658 -0.12513056
-0.13758482 -0.06327185 0.01750528 -0.07451449 -0.1472138 -0.04866125 -0.07170063 -0.14947551
0.006807153 -0.11202068 -0.084865175 -0.002782404 -0.088326246 -0.076259725 -0.14162993 -0.05238275
0.037912987 0.02376179 -0.029654447 0.063972786 -0.07491705 0.06874363 0.008212818 -0.108694755
-0.013370841 0.083465554 0.0773142 -0.049785573 -0.11728817 -0.12261495 -0.16626495 -0.1106771
0.046353325 0.010484636 -0.09050867 -0.020509643 0.08556206 -0.1239321 -0.09169016 0.026507007
-0.033138104 0.00044160418 0.044039916 -0.020375261 0.07781548 -0.068476304 -0.06461985 0.028429167
-0.09794402 0.03713561 -0.00929348 -0.06737679 0.07611484 0.104241386 -0.05687528 -0.03783306
-0.051995136 0.055854686 -0.020731797 0.032483578 -0.09694856 -0.05526794 0.06644275 -0.12333412

actor_linear3.weight f4 [8, 512]
00000000: 3832 b63b 39a0 093e 08a2 823c ee70 e03b
00000010: 94a9 0d3e 8b5f 45bc 470b e13d 914c ae3d
00000020: b7a6 293d 649a e93c 7405 c83c 9389 853d
00000030: 1914 bc3d ee89 543d bc74 953c d970 3d3d
00000040: 91a2 9bbd 2761 a4bc 8db1 9e3c c092 753d
00000050: cdbf 943d 9654 4c3d 5d1c 2b3e 7626 623c
00000060: 24b0 e93c 198d b83c 553b cebb c17a c5bc
00000070: 7e20 a33d 2099 fb3d d41d a73c 9ae7 3fbd
00000080: 2565 303d 05ba 32bd 55e8 823d 05f7 063d
00000090: 2f76 0e3d df0f b23d 7d8b 6a3d f532 f13a
000000a0: ea0b 543c 54f0 a6ba 3e56 1b3d da08 c43d
000000b0: e964 1c3d d583 bb3c a685 d7bc 2d3b 513d
000000c0: c4f8 a73d c190 473d c45f 3a3c b299 a73c
000000d0: 3cae 153d aa09 29bb e7a0 ee3c 6927 eabc
000000e0: 8f45 38bb 44e7 403d 8b0c 233a a570 40bd
000000f0: 96a8 903d 697d 9d3d 1094 26bc 9764 913b
00000100: bd19 863c aef3 a93d 1b91 9dba 5e66 7d3c
00000110: e74d eb3c a24c 603d e2c7 28bb 2ade 8e3d
00000120: 1fec 093d b6c7 5e3c 8864 133d 1a11 343d
00000130: fa51 29bd 58da b1bb 1dee 7b3d efd6 97bc
00000140: 7f58 db3c 52b0 443d 03fa 453d 6a95 463d
00000150: 6cce 063d 9c76 11bc f03e 3a3c fe77 a2bc
00000160: e8b6 9e3d eacc b3bb 6d21 b43d 902e 14bc
00000170: 9684 613c a622 8bbc 79ea 8d3d eba6 313d
00000180: bfc2 113d fa81 143c b829 813d 0a00 32bd
00000190: 4a2c 9a3d c441 77bb dd0b 343c c0da 5f3d
000001a0: 04f6 0c3c be80 dd3c c737 653d 16ea 8d3c
000001b0: bc47 c43c 9941 7a3d 798d 62bd 56cd 853d
000001c0: 42d3 833d e653 f53b d36f 1f3c 3696 123d
000001d0: e1cb fc3a 8fa0 663d 0d80 163c 0b2b 093c
000001e0: 425a 353d 77dc 7c3c db1e 6b3d 6046 943d
000001f0: 70bc 943c efe7 123e 2a51 11bc 4da5 343d
00000200: 4913 513d 591a 713c a2b0 9a3b 277e 0e3c
00000210: ce28 1d3b 0377 93bd 8780 503b b21e f8bc
00000220: 4794 b63d 7582 a03d dc6f 5f3d 201c 193d
00000230: 315e d33c 670e 543d 51dd 5b3b 4e13 9c3d
00000240: 07ce 65bb 7f4d a3bc ddf5 113d 973e ec3c
00000250: dfab a1bc 7e16 0f3b 94b5 e33c c072 523d
00000260: 6edf 623c 0c1e 033c 3d66 0c3d 60f7 443d
00000270: ac40 603c 5a62 97bc 6191 ad3d e2de 443d
00000280: 3ee6 8cbd 7e01 ed3c 753b 453d 9f0c c73c
00000290: 37b9 c5bc f399 5c3d 166b 8d3d d737 493d
000002a0: 52ec 3c3c c784 db3c 9093 393d 8636 9c3d
000002b0: 0977 a93d 3f7e 8c3d 0226 103e 4b4c 21bc
000002c0: 6121 bcbc 9c2b 26bc 5d04 17bd d348 8aba
000002d0: 66f4 7a3d d52a 403d b72c 573d e5a8 c23d
000002e0: 7c31 09bc e463 c8bc a610 793d c052 873d
000002f0: b62b 473d f252 2d3e 1823 283d 0c31 673d
00000300: 4dec e83c 9439 133d 1d9d 3f3d b790 8e3d
00000310: 8a4c 443c b226 233d 7fca df3c 2290 0a3d
00000320: 9b0e 82bc f27e 4d3c 2639 8f3c 879f 343d
00000330: 1415 333d 85ce 6d3d 20de 803c d834 16bd
00000340: a320 9e3d 4e09 803d 97b1 663c 5539 73bc
00000350: f3c2 e53b 7a4b 08bd 21d6 d2bc 0ffd 6fbb
00000360: 28e0 4cbd 332a 173d 6b95 fd3d a1b2 03bd
00000370: 9662 073d 5789 663c 7627 8b3d 403b 723c
00000380: 4743 233d a60f d73d 471f 0a3c dac4 8d3d
00000390: 5e78 123d 80ad 393d ea57 c6bb a086 5e3d
000003a0: e253 503d f256 85ba 2207 c03c 7b69 06bc
000003b0: 4ade 7b3c f1b3 b43d 725a c33d 1919 aa3d
000003c0: ffda 82bc 8fdd 253d 6929 153e 4ebf 88bb
000003d0: a20d 8ebc 5020 c43b 717a 2dbc 6d21 96bc
000003e0: fb8b c43d 4cb7 f1bc f046 553c b883 34bd
000003f0: 77a0 51bc a8df a93d 4258 8bbc ed5d f03c
0.0055601858 0.13440026 0.015946403 0.0068494 0.1383422 -0.012046705 0.10988479 0.08510698
0.041418757 0.028516002 0.024416663 0.06520381 0.09183521 0.051889353 0.01824414 0.046250198
-0.075993665 -0.020065857 0.019371772 0.059954405 0.072631456 0.049885355 0.16710038 0.013803115
0.028526373 0.022528218 -0.006293694 -0.024106385 0.07965182 0.12285066 0.020399965 -0.04685173
0.04306521 -0.043634433 0.0639197 0.03295042 0.034780677 0.086944334 0.057261933 0.0018402027
0.012942294 -0.0012736418 0.037924044 0.09572001 0.038182173 0.02289001 -0.026308846 0.051081825
0.08201745 0.048722032 0.011375371 0.02045903 0.036543116 -0.0025793114 0.029129459 -0.028583245
-0.0028117632 0.047095552 0.00062198256 -0.046982426 0.07063405 0.07689936 -0.010167137 0.00443704
0.016369695 0.08298431 -0.0012021394 0.015466301 0.02872367 0.054760583 -0.0025753905 0.06975968
0.03367245 0.0135974195 0.035984546 0.04396162 -0.041337945 -0.00542764 0.06150638 -0.018535106
0.026775597 0.048019715 0.048334133 0.048482336 0.032911703 -0.008878376 0.0113675445 -0.019832607
0.0774973 -0.005487074 0.08795438 -0.0090443045 0.013764521 -0.016984295 0.06929488 0.043372076
0.035586115 0.009064192 0.06306785 -0.04345707 0.07527979 -0.0037728408 0.010989157 0.054651976
0.008603577 0.027038928 0.055961397 0.017323535 0.023959987 0.061097715 -0.0553107 0.06533305
0.064367786 0.007486808 0.009731251 0.035787784 0.0019286835 0.056305464 0.009185803 0.008372079
0.04427553 0.015433422 0.057402473 0.072399855 0.01815626 0.14346288 -0.008869449 0.044102956
0.051043782 0.014715754 0.0047207633 0.008697069 0.002398062 -0.07200434 0.003181489 -0.030288074
0.089150004 0.07837383 0.054550037 0.037380338 0.02580175 0.051771548 0.0033548663 0.076208696
-0.0035065429 -0.019934414 0.035634864 0.028838439 -0.019735275 0.0021833475 0.027796544 0.051378965
0.013847215 0.008002769 0.03427719 0.048087478 0.013687294 -0.018479515 0.084749945 0.04806412
-0.06879853 0.028931376 0.048152406 0.02429801 -0.024136169 0.053857755 0.06905191 0.04912552
0.0115309525 0.026796712 0.045306742 0.07627587 0.08274657 0.06860017 0.14076999 -0.00984485
-0.022965135 -0.010142233 -0.036869396 -0.0010550268 0.061268233 0.046915848 0.052532878 0.0950487
-0.008373614 -0.024461694 0.060806893 0.0660758 0.04862567 0.16926172 0.041049093 0.05644326
0.02843299 0.035943583 0.046780694 0.06961196 0.011981139 0.039831825 0.027318237 0.033828862
-0.015876105 0.012542473 0.017483305 0.04409745 0.043721274 0.05805828 0.015730917 -0.03667149
0.07721069 0.06251775 0.014080427 -0.014845212 0.007011765 -0.033275105 -0.02573687 -0.003661934
-0.05001846 0.03690548 0.12382015 -0.032152776 0.033053003 0.01407083 0.06794636 0.014784634
0.039859083 0.105010316 0.008430309 0.06922312 0.035759322 0.045331478 -0.0060529606 0.054327607
0.050861247 -0.0010173006 0.023440901 -0.008203859 0.015372822 0.088233836 0.095387354 0.08305568
-0.015973566 0.040494498 0.14566578 -0.004173196 -0.017340485 0.0059852973 -0.010588274 -0.018326486
0.09597012 -0.029506348 0.013017401 -0.04407093 -0.012794605 0.08294612 -0.017009858 0.029341662

actor_linear3.bias f4 [8]
00000000: c168 85bc 6833 fe3c 18e0 113c 93ab 01bd
00000010: b952 493d b923 443d 88f5 013d f4da 443d
-0.016285302 0.031030372 0.008903526 -0.031657767 0.049151156 0.04788563 0.031728297 0.048060372
