model/model_6_backup.pth (torch, 283087 bytes, 7 tensors)

critic_linear1.weight f4 [512, 63]
-0.11740671 -0.109971024 0.040123735 -0.024001483 -0.008841721 0.030478213 0.086458124 0.0370421
-0.061113823 -0.023627149 -0.04395127 -0.111986235 0.08832307 -0.08336566 -0.06470279 0.028663427
0.06946402 -0.043985363 -0.072779305 0.002401141 0.11913409 0.004916516 0.011953619 0.111395106
0.018757328 -0.01955608 -0.008552546 0.093631476 -0.024790969 0.120687455 -5.352757e-05 -0.12560865
-0.039929643 0.0042870264 0.083652236 0.006330416 -0.088685915 0.041232012 0.09502062 -0.07173998
0.0672641 -0.019516582 0.02122024 0.07144442 0.10503277 0.033283558 -0.048906807 0.10296902
0.008047398 -0.09163302 -0.11592986 0.08069963 -0.12531891 0.0937806 0.121761434 0.10892049
-0.0805004 0.11408904 0.011032566 -0.005782224 -0.018243259 0.01114279 0.039035007 -0.08219128
0.09745957 0.059488382 0.06572458 0.0818247 0.029511098 0.09270688 0.09170217 -0.02304898
-0.12388098 -0.04355824 0.07875214 -0.073162556 -0.03388624 -0.00888448 -0.09594258 -0.0959392
0.079504944 0.07851204 -0.076438524 0.09624408 0.053827256 0.0042867414 0.045759343 -0.10937528
0.054122753 -0.0027776812 -0.040329147 0.07244518 -0.011627107 -0.07788172 -0.04170487 -0.064078145
0.010375487 -0.05482776 -0.10143782 -0.094638996 -0.09014355 -0.06588254 -0.03717476 0.008885396
0.10132824 -0.07323639 -0.11707681 0.04400615 -0.012807132 -0.098429166 -0.09800003 -0.004550579
-0.08101875 -0.039998204 0.06588045 -0.06133615 0.023229072 -0.0021050873 -0.06717297 -0.076702334
-0.03158975 -0.05237782 0.08539689 0.11134141 -0.066155285 -0.042505514 -0.046163607 -0.015514719
-0.08179711 0.010186789 -0.03753544 -0.058833707 0.05108562 0.07319554 -0.04799766 0.09294867
-0.10993263 -0.042732105 -0.09304479 -0.008332564 0.042566087 0.06322909 -0.08209139 0.027546827
0.063677594 -0.07468206 -0.106281 0.082177386 0.1002997 0.089561775 0.010056154 -0.07948192
0.02792583 0.0088418415 -0.00067807594 -0.07164231 0.089333594 0.014855717 -0.03590342 0.02537294
-0.08477643 -0.03690218 -0.08343886 0.036585193 0.041437306 0.09225295 -0.007212975 0.10363573
0.012684622 -0.02177363 0.061345205 -0.11704261 0.06921118 0.047608733 0.014796153 -0.005358659
-0.08033815 0.0049619935 -0.005733818 -0.003577681 -0.0834136 -0.10527 0.12517554 0.0070349704
0.09506625 -0.102592476 0.028031189 -0.073662326 0.09578139 -0.0063576903 0.075864725 -0.00033690527
-0.080592334 -0.09277476 -0.10243303 0.10191997 0.06608492 -0.05923126 -0.038486052 -0.10793744
0.030433396 -0.055569395 0.12587813 0.09674132 -0.010707556 -0.09449375 -0.04769096 0.08429943
-0.102037854 -0.0904674 -0.059606206 -0.050608557 -0.00939945 0.1225054 -0.07447149 -0.12569728
-0.016079132 0.07539546 -0.08036212 0.00021220287 -0.02320722 -0.050337467 -0.033368595 -0.08958169
0.0069597852 0.07795027 -0.07703996 -0.044628326 0.013347754 -0.036695205 0.10983249 0.113818265
-0.03660685 -0.11783008 0.07550957 -0.1259271 -0.088115595 -0.068113126 0.09800411 0.037978094
0.052815743 0.0346108 0.071869306 0.12448048 0.047752537 -0.0044701677 0.11775731 0.121688634
-0.08378664 -0.055423938 0.02830554 -0.00029139782 0.03274615 0.05935991 -0.116752684 0.032811094
00000000: ee72 f0bd 7d38 e1bd c958 243d c29e c4bc
00000010: dedc 10bc 72ad f93c f510 b13d 75b9 173d
00000020: 7d52 7abd b98d c1bc 3f06 34bd 0a59 e5bd
00000030: bae2 b43d 9dbb aabd e582 84bd 90cf ea3c
00000040: 2743 8e3d ff29 34bd 510d 95bd 765c 1d3b
00000050: 93fc f33d ba1a a13b 1dd9 433c 1e23 e43d
00000060: f8a8 993c 1334 a0bc fa1f 0cbc dcc1 bf3d
00000070: 6e16 cbbc fc2a f73d ca82 60b8 8e9f 00be
00000080: 448d 23bd 2f7a 8c3b dd51 ab3d 616f cf3b
00000090: f6a0 b5bd e6e2 283d 2c9a c23d 69ec 92bd
000000a0: c3c1 893d 3de1 9fbc 12d6 ad3c 7451 923d
000000b0: 6c1b d73d 5754 083d 8152 48bd 6ce1 d23d
000000c0: 3cd9 033c 18aa bbbd a26c edbd d945 a53d
000000d0: 9a53 00be 0b10 c03d 0f5e f93d b511 df3d
000000e0: 65dd a4bd 84a7 e93d f0c1 343c cf78 bdbb
000000f0: e372 95bc 4090 363c 2ce3 1f3d e753 a8bd
00000100: e298 c73d 17aa 733d 9c9a 863d b593 a73d
00000110: 42c1 f13c 1bdd bd3d 59ce bb3d 37d1 bcbc
00000120: 50b5 fdbd 206a 32bd cd48 a13d 40d6 95bd
00000130: 4ccc 0abd 3690 11bc 8b7d c4bd c57b c4bd
00000140: 7dd3 a23d ecca a03d cd8b 9cbd 9e1b c53d
00000150: f879 5c3d cb77 8c3b 266e 3b3d 2600 e0bd
00000160: d2af 5d3d c209 36bb 2d30 25bd 235e 943d
00000170: 9f7f 3ebc 7480 9fbd bad2 2abd 673b 83bd
00000180: f2fd 293c 1393 60bd a2be cfbd 17d2 c1bd
00000190: 2e9d b8bd 6ded 86bd 9044 18bd 0d94 113c
000001a0: 2e85 cf3d f6fc 95bd f7c5 efbd cb3f 343d
000001b0: 01d5 51bc 3b95 c9bd 3db4 c8bd 061d 95bb
000001c0: 29ed a5bd 28d5 23bd 54ec 863d 9d3b 7bbd
000001d0: e54a be3c 81f5 09bb fb91 89bd 1d16 9dbd
000001e0: 4164 01bd 208a 56bd 91e4 ae3d f706 e43d
000001f0: 6c7c 87bd 431a 2ebd 0d16 3dbd 7331 7ebc
00000200: 3e85 a7bd 7de6 263c c3be 19bd 9dfb 70bd
00000210: 283f 513d 8be7 953d 3299 44bd df5b be3d
00000220: 5c24 e1bd dc07 2fbd 448e bebd 4e85 08bc
00000230: c759 2e3d 417e 813d 881f a8bd e2a9 e13c
00000240: 6669 823d e8f2 98bd daa9 d9bd 9e4c a83d
00000250: ee69 cd3d 2a6c b73d 91c2 243c 6bc7 a2bd
00000260: b6c4 e43c 5fdd 103c e8c0 31ba 34b9 92bd
00000270: 88f4 b63d 6565 733c 770f 13bd e9da cf3c
00000280: 449f adbd be26 17bd fee1 aabd 5bda 153d
00000290: 2aba 293d 1def bc3d d25a ecbb f83e d43d
000002a0: 29d3 4f3c 9d5e b2bc 1c45 7b3d 09b4 efbd
000002b0: 97be 8d3d 6001 433d 906b 723c b197 afbb
000002c0: 5488 a4bd 3898 a23b c0e2 bbbb 8777 6abb
000002d0: c0d4 aabd cc97 d7bd 042e 003e 9c85 e63b
000002e0: 18b2 c23d 011c d2bd aaa1 e53c 46dc 96bd
000002f0: 0929 c43d 2c54 d0bb f75e 9b3d a9a2 b0b9
00000300: 980d a5bd b200 bebd 69c8 d1bd 6bbb d03d
00000310: 8857 873d 7a9c 72bd 8da3 1dbd 4e0e ddbd
00000320: 754f f93c bc9c 63bd 32e6 003e 5020 c63d
00000330: bf6e 2fbc f085 c1bd 9957 43bd 2ea5 ac3d
00000340: 39f9 d0bd f946 b9bd a325 74bd eb4a 4fbd
00000350: 2700 1abc 1ce4 fa3d 8284 98bd cab6 00be
00000360: 62b8 83bc ef68 9a3d e594 a4bd c682 5e39
00000370: 111d bebc a92e 4ebd 82ad 08bd 9b76 b7bd
00000380: e90e e43b 64a4 9f3d 20c7 9dbd 31cc 36bd
00000390: 8ab0 5a3c b64d 16bd dbef e03d 8d19 e93d
000003a0: 10f1 15bd e650 f1bd c3a4 9a3d 09f3 00be
000003b0: f375 b4bd e57e 8bbd 61b6 c83d eb8e 1b3d
000003c0: 5255 583d 0ec4 0d3d 3730 933d 9fef fe3d
000003d0: 2a98 433d 7c7a 92bb bf2a f13d e437 f93d
000003e0: 5498 abbd 3604 63bd 05e1 e73c c1c6 98b9
000003f0: d420 063d 6123 733d 081c efbd ed64 063d

critic_linear1.bias f4 [512]
0.10555886 -0.09263988 -0.039657276 -0.07259062 0.028463315 -0.12137945 -0.09619075 -0.0981074
-0.067667946 0.119593546 -0.123652875 0.09614781 -0.065733254 0.034855325 0.07140103 -0.11282871
-0.1127507 -0.087682076 0.0396326 -0.10293006 -0.08662582 0.019444881 0.10908043 0.07591648
0.08499213 -0.040707204 0.11019149 -0.08981333 -0.060055904 0.083349094 -0.04077228 0.062156394
-0.043015815 0.10832921 -0.08327203 -0.0506843 0.09341722 -0.08320213 -0.005024157 0.091786414
-0.12339943 -0.011151306 0.06784316 -0.052842192 -0.07550098 0.0020804713 -0.013978475 -0.019912915
0.043073878 0.045108825 0.11374955 -0.050615616 -0.07309856 -0.024463857 0.09840393 -0.07782404
-0.014488985 0.10181759 -0.07746923 -0.06886912 0.025557626 0.02954157 0.05372741 0.029760802
0.084704556 -0.100706935 -0.088352084 -0.12155756 0.11996165 0.098171934 0.006743903 -0.094769284
-0.096662946 0.10603388 0.013422864 0.023087788 0.09338186 -0.024227533 -0.004078128 0.05543301
0.03117667 0.089195915 0.08254948 -0.041423265 -0.01252093 0.052585084 -0.031305894 -0.077005416
-0.0026019444 0.008269409 -0.016971828 -0.057437588 0.07489318 -0.026384015 -0.03270751 0.0134833455
0.03721788 -0.049437124 -0.08420402 -0.10641743 0.08127852 -0.07795206 0.040826004 -0.019937802
0.09397699 -0.09739867 0.09028365 -0.100561135 0.109137304 -0.010342085 -0.044706482 -0.07076691
0.07227247 0.073248275 0.038260844 -0.060221698 0.034617737 -0.026975792 -0.028986365 -0.05161049
0.100926846 -0.082840025 -0.11293513 0.12140988 -0.09396868 -0.011968743 0.11542817 -0.08772724
0.02572282 -0.09431338 -0.09478322 -0.016534582 0.037978232 0.07752086 0.10426512 -0.067458704
-0.049423426 0.032760207 -0.113528565 0.06123734 -0.002958074 -0.016243365 -0.10602351 -0.061591744
0.07134528 -0.08816669 -0.02662959 -0.048465624 0.051678374 0.05444102 -0.08458048 -0.10733549
0.0662707 -0.07092307 0.11327587 -0.013266501 0.11892929 0.058929767 -0.08761862 0.056913756
0.012088174 0.09759729 0.045904845 0.124544986 -0.00702288 0.08463201 0.011326413 -0.104700826
-0.050922364 -0.10481033 0.04157928 0.10865937 0.12409434 -0.08232503 -0.06333208 -0.121417254
0.043719288 -0.038597055 0.061326448 -0.041846994 0.062509924 -0.0050707157 -0.11003451 0.11760727
0.089422174 -0.021335468 0.02185281 0.041962534 0.09615834 0.037749432 -0.035504773 -0.11150353
-0.057070825 0.03885756 -0.11134979 -0.07724232 0.06393937 0.022998577 0.010986579 0.10307008
0.111443825 -0.012075919 -0.06506662 -0.010829225 0.01079366 0.010388884 -0.061393056 7.022865e-05
0.035030745 -0.057650376 -0.104480796 0.08318637 0.08148891 0.06592841 -0.033856276 -0.07836448
-0.057845052 -0.05673374 -0.07972699 0.024746498 -0.03401175 0.0431952 -0.10577327 -0.018690854
-0.02631308 -0.018388372 0.053114336 -0.1052773 0.032634635 -0.0068324995 0.027467633 0.11046013
-0.039954577 -0.1213958 0.03389384 0.051819235 0.061344154 -0.05095724 0.07847765 -0.113883086
0.011794734 -0.0014296847 0.12541737 0.112922214 -0.03771561 -0.053195935 -0.11914045 0.0080655115
-0.08208923 0.002323418 0.06331583 -0.107983336 0.12142636 0.07450094 -0.11486732 0.061728116
00000000: 3e2f d83d fab9 bdbd ab6f 22bd 64aa 94bd
00000010: e62b e93c ca95 f8bd a8ff c4bd 88ec c8bd
00000020: 7e95 8abd 76ed f43d b83d fdbd 25e9 c43d
00000030: 289f 86bd 75c4 0e3d b43a 923d bd12 e7bd
00000040: d7e9 e6bd a992 b3bd cb55 223d ffcc d2bd
00000050: e168 b1bd df4a 9f3c 8f65 df3d 197a 9b3d
00000060: 5b10 ae3d 99bc 26bd 13ac e13d 0df0 b7bd
00000070: 2efd 75bd eeb2 aa3d d600 27bd b497 7e3d
00000080: 5a31 30bd b4db dd3d 878a aabd 579a 4fbd
00000090: 8751 bf3d e165 aabd afa1 a4bb 84fa bb3d
000000a0: d7b8 fcbd f8b3 36bc 5bf1 8a3d 0e71 58bd
000000b0: 42a0 9abd 8458 083b f905 65bc 6920 a3bc
000000c0: 3c6e 303d 08c4 383d 86f5 e83d 5252 4fbd
000000d0: b3b4 95bd 6d68 c8bc 0088 c93d 3662 9fbd
000000e0: 3563 6dbc be85 d03d 30a8 9ebd 410b 8dbd
000000f0: 3a5e d13c 2a01 f23c 4611 5c3d edcc f33c
00000100: 9579 ad3d 703f cebd f0f1 b4bd 2cf3 f8bd
00000110: 74ae f53d 5e0e c93d f5fb dc3b 6616 c2bd
00000120: 39f7 c5bd 4a28 d93d 92eb 5b3c 9a22 bd3c
00000130: fd3e bf3d d278 c6bc d1a1 85bb b90d 633d
00000140: 3766 ff3c 59ac b63d b40f a93d 71ab 29bd
00000150: 9624 4dbc 7563 573d 9c3a 00bd 04b5 9dbd
00000160: 6285 2abb 6a7c 073c 8108 8bbc ad43 6bbd
00000170: 9861 993d 4a23 d8bc 4ff8 05bd 40e9 5c3c
00000180: c771 183d 957e 4abd 2873 acbd 62f1 d9bd
00000190: 5a75 a63d 54a5 9fbd 2b39 273d 9a54 a3bc
000001a0: 0277 c03d f478 c7bd a2e6 b83d fff2 cdbd
000001b0: 6183 df3d d971 29bc 251e 37bd 3eee 90bd
000001c0: 9703 943d 3103 963d 67b7 1c3d 07ab 76bd
000001d0: 54cb 0d3d 56fc dcbc d074 edbc 8565 53bd
000001e0: bcb2 ce3d 08a8 a9bd 894a e7bd bea5 f83d
000001f0: a772 c0bd 8c18 44bc 9b65 ec3d 57aa b3bd
00000200: aab8 d23c 6027 c1bd b41d c2bd 8873 87bc
00000210: 108f 1b3d 42c3 9e3d f488 d53d ca27 8abd
00000220: 3870 4abd 912f 063d aa81 e8bd 01d4 7a3d
00000230: 3fdc 41bb ce10 85bc db22 d9bd a047 7cbd
00000240: 791d 923d bd90 b4bd 4c26 dabc e483 46bd
00000250: b4ac 533d 8cfd 5e3d 8838 adbd b6d2 dbbd
00000260: efb8 873d 1d40 91bd 2efd e73d bd5b 59bc
00000270: 3391 f33d 5760 713d 6471 b3bd 661e 693d
00000280: 7a0d 463c 17e1 c73d b806 3c3d 7111 ff3d
00000290: 3020 e6bb 8c53 ad3d 6b92 393c 636d d6bd
000002a0: f893 50bd cca6 d6bd 094f 2a3d ce88 de3d
000002b0: 2c25 fe3d 069a a8bd 40b4 81bd 9ca9 f8bd
000002c0: ff12 333d f217 1ebd 7131 7b3d c167 2bbd
000002d0: 3405 803d 3f28 a6bb c659 e1bd 15dc f03d
000002e0: f922 b73d b8c7 aebc aa04 b33c e8e0 2b3d
000002f0: aaee c43d 269f 1a3d 746d 11bd f65b e4bd
00000300: 19c3 69bd 1b29 1f3d 5c0b e4bd 3931 9ebd
00000310: a5f2 823d 8367 bc3c 0d01 343c 6816 d33d
00000320: a93c e43d 13da 45bc a641 85bd 106d 31bc
00000330: e4d7 303c 2336 2a3c 4977 7bbd b847 9338
00000340: 667c 0f3d cd22 6cbd 07fa d5bd 9e5d aa3d
00000350: a8e3 a63d 7905 873d e1ac 0abd 8e7d a0bd
00000360: efee 6cbd a361 68bd e747 a3bd 2bb9 ca3c
00000370: e84f 0bbd 73ed 303d a89f d8bd 901d 99bc
00000380: 878e d7bc 36a3 96bc 6b8e 593d a09b d7bd
00000390: e5ab 053d 29e3 dfbb cd03 e13c ec38 e23d
000003a0: 69a7 23bd 5c9e f8bd 44d4 0a3d 6840 543d
000003b0: 0244 7b3d 8ab8 50bd e4b8 a03d 893b e9bd
000003c0: b33e 413c 4264 bbba 696d 003e c343 e73d
000003d0: af7b 1abd fbe3 59bd e9ff f3bd 3525 043c
000003e0: 661e a8bd 7c44 183b bbab 813d 5e26 ddbd
000003f0: 62ae f83d f393 983d 8f3f ebbd 9fd6 7c3d

critic_linear3.weight f4 [1, 512]
-0.015540364 0.022938237 0.00394661 0.012741013 -0.0438096 -0.016729891 -0.04115832 -0.020869955
0.02647478 -0.010217412 0.007607885 0.012306827 0.0066751754 -0.007300772 0.033200633 0.031331457
0.040617876 -0.018927623 -0.017314484 0.021900572 -0.0069995113 -0.017092902 0.0379809 0.0051145516
0.014995169 -0.011384507 -0.018290963 0.010882532 -0.039105125 -0.0375752 -0.036893047 0.041373633
0.02707325 -0.04134338 0.021809282 -0.0044947453 -0.007197396 0.026599903 0.03443661 -0.014303776
-0.042762864 0.037423447 -0.02200127 -0.03330426 0.037536457 -0.026942873 -0.016789697 -0.0022591026
0.0043924917 0.014943591 -0.035200473 0.0046685482 -0.02951972 -0.017938389 -0.010736567 -0.023414433
-0.024549417 -0.019002644 -0.007983546 -0.008504707 0.021045713 -0.017034229 0.015796127 0.03249062
-0.0018283724 0.030368473 -0.011359935 -0.003023225 -0.043003373 -0.028922431 -0.04078378 0.038449906
-0.042936057 0.016851801 -0.022808177 0.00023782412 -0.015299543 -0.034001127 -0.008417721 0.018976318
0.0391864 0.026732085 -0.015290634 -0.023638165 -0.034123562 -0.010653454 0.020512944 0.0056433943
-0.025064198 0.022501428 -0.029625805 0.033032343 -0.016224507 -0.037806224 0.008006336 -0.029829495
0.0071127075 -0.021865526 -0.023102578 0.038604785 -0.015167218 0.040986035 -0.031072332 0.029666439
0.0045433985 0.035439447 0.017315796 -0.034411073 0.0045818207 -0.019477623 -0.037585746 0.036345575
-0.00875075 0.027785884 0.018520541 -0.004535554 -0.0047603915 -0.042570006 0.041375183 0.024052167
-0.029954981 -0.02882227 0.0094691 0.026949074 -0.010686328 -0.041316196 -0.011688475 -0.013508128
0.0021040232 0.010229478 0.043574356 0.04003287 0.029359594 -0.011559447 -0.012734185 0.0071127443
0.022373775 -0.03667942 -0.005481703 -0.031950887 -0.013240111 -0.034182236 0.043228142 -0.0067346133
0.019617613 0.035008706 0.020968905 0.002263665 0.028526008 0.043620087 -0.03675807 0.016205315
-0.007047248 0.033433117 -0.003552347 -0.041732915 -0.030058721 0.009673839 -0.0014032319 0.043353412
-0.036532857 -0.018463818 0.02515603 -0.027878191 0.03384386 0.010838684 -0.010928735 0.004024044
-0.010631864 0.009218469 -0.030663738 0.018433625 -0.009668155 -0.022613397 0.02749508 -0.0029466862
0.026172776 -0.04379153 0.020379055 -0.014992508 -0.036966015 -0.022588762 -0.0008508816 -0.04163193
-0.023267068 -0.03850635 0.033984475 -0.037423275 0.0034122984 -0.030392187 0.02558254 -0.010161157
0.0057689077 -0.04005543 -0.026496142 -0.037586994 0.011738335 0.019474545 -0.0013864469 0.03087442
0.025030002 -0.019421024 0.03218999 0.0063441964 -0.037408426 -0.0036280323 0.03615808 0.037078436
0.0048427624 0.036974 0.030649936 0.029466596 0.04140851 -0.006129806 0.04008513 0.03970659
0.01911838 0.040865853 -0.006786733 0.0043815495 -0.018712984 0.015230396 -0.014116517 -0.01906726
0.0075435955 -0.006419049 -0.013812238 0.007812824 -0.013477593 -0.018150462 0.044164058 -0.024952197
0.029943671 -0.0361721 0.021506535 0.042606484 0.0030396413 0.016652951 0.016635723 -0.010564118
-0.029293166 -0.0007027618 0.030376576 0.03859869 0.0024875966 -0.028684517 0.00028897985 0.0009307657
0.009954943 -0.0030899593 0.009479169 0.039079506 -0.031131417 -0.012438099 -0.013620154 0.0054414216
00000000: 039d 7ebc f8e8 bb3c 9052 813b afbf 503c
00000010: b271 33bd 200d 89bc a095 28bd 78f7 aabc
00000020: a3e1 d83c ef66 27bc 914b f93b 93a2 493c
00000030: 6ebb da3b 503b efbb 63fd 073d 6a55 003d
00000040: ee5e 263d 1a0e 9bbc 1bd7 8dbc d468 b33c
00000050: 285c e5bb 6a06 8cbc dc91 1b3d f897 a73b
00000060: 4cae 753c 1586 3abc eed6 95bc a64c 323c
00000070: b22c 20bd 74e8 19bd 2a1d 17bd 6677 293d
00000080: b8c8 dd3c ad57 29bd 61a9 b23c a848 93bb
00000090: 22d8 ebbb 0ae8 d93c 670d 0d3d 635a 6abc
000000a0: 1d28 2fbd 5449 193d 023c b4bc 0c6a 08bd
000000b0: d4bf 193d 4db7 dcbc 8c8a 89bc 740d 14bb
000000c0: e4ee 8f3b f7d5 743c 5f2e 10bd 9ffa 983b
000000d0: 57d3 f1bc 87f3 92bc 6de8 2fbc a0cf bfbc
000000e0: dc1b c9bc 6fab 9bbc 6bcd 02bc 5457 0bbc
000000f0: 0f68 ac3c 5e8b 8bbc e166 813c e214 053d
00000100: ffa5 efba 4ec7 f83c 051f 3abc 4d21 46bb
00000110: 4e24 30bd bcee ecbc e50c 27bd a67d 1d3d
00000120: b8dd 2fbd ca0c 8a3c 37d8 babc 6d60 7939
00000130: efaa 7abc c444 0bbd 7bea 09bc 3974 9b3c
00000140: eb81 203d 3ffd da3c 9185 7abc d3a4 c1bc
00000150: 26c5 0bbd d38b 2ebc c30a a83c 39ec b83b
00000160: 6f53 cdbc ea54 b83c d1b1 f2bc ec4c 073d
00000170: 42e9 84bc b3da 1abd 022d 033c fc5c f4bc
00000180: b711 e93b 551f b3bc 9e41 bdbc 0d20 1e3d
00000190: ec7f 78bc f9e0 273d 678b febc 0807 f33c
000001a0: cae0 943b f428 113d dbd9 8d3c a0f2 0cbd
000001b0: 1923 963b 898f 9fbc 83f3 19bd 19df 143d
000001c0: 4e5f 0fbc 399f e33c 64b8 973c fc9e 94bb
000001d0: 0ffd 9bbb e35d 2ebd 0679 293d 0d09 c53c
000001e0: 2664 f5bc ae1c ecbc 4924 1b3c 4ec4 dc3c
000001f0: b515 2fbc 2c3b 29bd 0481 3fbc 3251 5dbc
00000200: a7e3 093b 8a99 273c 067b 323d 82f9 233d
00000210: 8883 f03c d663 3dbc 0ba3 50bc 0612 e93b
00000220: 3549 b73c 293d 16bd dc9f b3bb efde 02bd
00000230: 0ded 58bc ac02 0cbd fe0f 313d 08ae dcbb
00000240: 1eb5 a03c 4a65 0f3d fbc6 ab3c ff59 143b
00000250: 60af e93c faaa 323d a18f 16bd 02c1 843c
00000260: 9aec e6bb 2af1 083d 7ece 68bb 22f0 2abd
00000270: b53d f6bc 067f 1e3c a6ec b7ba 5993 313d
00000280: 7aa3 15bd 6f41 97bc 0514 ce3c ce60 e4bc
00000290: dc9f 0a3d bc94 313c 700e 33bc 21dc 833b
000002a0: 4531 2ebc 1009 173c 8532 fbbc 1d02 973c
000002b0: 2e67 1ebc bb3f b9bc 5d3d e13c 311d 41bb
000002c0: 4a68 d63c bf5e 33bd faf1 a63c 23a3 75bc
000002d0: ad69 17bd 110c b9bc b30d 5fba 3e86 2abd
000002e0: 949a bebc d6b8 1dbd 4e33 0b3d 2649 19bd
000002f0: dea0 5f3b 09f9 f8bc 7a92 d13c fb7a 26bc
00000300: 1b09 bd3b 2a11 24bd 700e d9bc d2f4 19bd
00000310: 2552 403c 1589 9f3c 70b9 b5ba 5aec fc3c
00000320: b80b cd3c d718 9fbc a7d9 033d fae2 cf3b
00000330: 9439 19bd 48c4 6dbb 7f1a 143d 8fdf 173d
00000340: 09b0 9e3b 0d72 173d 9315 fb3c ee63 f13c
00000350: f89b 293d 8adc c8bb 4e30 243d 61a3 223d
00000360: 269e 9c3c f462 273d 3e63 debb 1a93 8f3b
00000370: f94b 99bc e988 793c f748 67bc f132 9cbc
00000380: 4430 f73b e356 d2bb ba4c 62bc 5c01 003c
00000390: 1fd1 5cbc 47b0 94bc 5fe5 343d 8d68 ccbc
000003a0: 6e4c f53c 3229 14bd 792e b03c 2384 2e3d
000003b0: b834 473b c56b 883c a447 883c 1f15 2dbc
000003c0: 39f8 efbc 8c39 38ba 4cd8 f83c a919 1e3d
000003d0: f206 233b cbfb eabc 3882 9739 a1fe 733a
000003e0: 0f1a 233c ea80 4abb 844e 1b3c d511 203d
000003f0: 5007 ffbc 2bc9 4bbc 1127 5fbc f44d b23b

actor_linear1.weight f4 [512, 63]
-0.02467041 -0.07956292 0.023885896 -0.050441965 0.05532396 -0.066739336 0.06656926 -0.12869674
-0.1424285 0.079006925 0.040998477 -0.04974955 0.016130045 -0.109071165 0.04336728 0.05406583
0.02054299 -0.03995605 -0.010841633 -0.046204235 -0.06821133 -0.058443174 -0.030257437 -0.05382383
-0.11017006 -0.066028826 -0.137192 -0.07358809 -0.006987356 -0.019105874 -0.06764864 0.0974206
-0.1453894 -0.148028 0.01637528 0.030478263 -0.07099324 -0.070779406 -0.09244218 -0.060592923
0.00048845244 -0.14353417 0.075999625 -0.0429287 -0.11533884 -0.08638993 -0.028636679 0.0065312004
-0.03158354 0.024295494 -0.08178109 -0.12059935 -0.0618156 -0.00016804713 -0.12165763 -0.076474436
-0.115378596 0.09355835 0.07367272 -0.028833138 0.07563473 0.071558334 -0.040089604 -0.14673777
0.103680894 0.0050088717 0.073459804 0.116083205 0.09769343 0.08248828 0.05678816 0.13467924
-0.04125983 -0.099811226 -0.00068769336 0.13526627 0.010440652 0.08260621 0.055653427 0.052363377
-0.06290567 -0.029346103 0.04413231 0.06951391 0.024525858 0.14464962 -0.055282626 -0.023839166
-0.03276518 -0.0009120374 0.11240702 0.01108562 0.115374036 -0.033120725 0.079409316 -0.017342454
0.050116643 -0.06877499 0.06331903 0.06604703 -0.080455795 0.10518259 0.06767484 -0.020284122
-0.20259167 -0.2413963 -0.26802987 -0.36259046 -0.22075164 -0.3976682 -0.33274278 -0.34606105
-0.15387073 -0.018337237 -0.11860769 -0.21208599 -0.32036912 -0.22933657 -0.11678804 0.031022685
0.17129204 0.25371784 0.7289752 -0.18475528 -0.09976204 -0.0051234006 0.03243027 -0.081743956
-0.10810768 0.12398886 0.12917323 -0.0034516968 -0.070393965 -0.036806453 -0.028711393 -0.10764837
0.12222904 0.053029142 -0.11648726 0.016269142 -0.050357632 -0.02387142 0.034467757 -0.11505487
0.005365803 0.050773986 0.03900062 0.07000747 -0.076024614 0.04329595 0.0040388624 -0.09278195
-0.078592755 0.09338442 0.114353575 -0.028078591 -0.12119684 -0.14748241 -0.20224048 -0.091224596
-0.038497474 -0.16193603 0.025534442 0.005271705 0.00066536036 0.099958085 0.087622225 -0.08481716
-0.011952156 0.11090417 0.009936058 0.0133649325 0.118971676 -0.110022776 -0.02148963 0.117321916
0.18085505 -0.033914115 0.08676838 0.13797845 -0.22472134 -0.06853358 0.0671544 0.2528429
-0.09704918 0.1242239 -0.029613197 -0.10266575 -0.10455086 -0.0028216776 -0.050955515 -0.05155433
0.015410872 -0.1454424 -0.1252833 0.10689504 0.073445216 0.13453366 0.017412141 0.050716568
0.05450436 0.15332194 -0.024502615 0.08717741 0.05540641 0.106576286 0.21254514 -0.023600178
0.03566477 0.10697166 0.0194125 0.072457686 0.0186342 0.08007357 -0.08102664 0.10305962
-0.15355188 -0.1198064 0.0067412914 -0.06580486 0.07190016 0.07093087 0.048879337 -0.10426573
-0.07449312 -0.12819192 -0.08920121 -0.06643116 0.03522052 -0.17605726 -0.16774471 -0.16844003
-0.11168535 -0.09098811 0.016879108 0.06369238 0.049813315 -0.063107446 -0.034484748 0.0812651
-0.17804492 0.020919671 -0.51806056 0.077900775 -0.006910429 0.12513655 0.1587355 -0.15971103
0.19477193 0.047069363 0.020340938 0.12518367 -0.26106244 -0.30645156 -0.20714772 -0.04484799
00000000: 9a19 cabc e2f1 a2bd 5bac c33c 3c9c 4ebd
00000010: 609b 623d a2ae 88bd 7755 883d 14c9 03be
00000020: c7d8 11be 62ce a13d 05ee 273d 2fc6 4bbd
00000030: 2823 843c b460 dfbd e4a1 313d 2274 5d3d
00000040: c649 a83c f5a8 23bd 1ba1 31bc a740 3dbd
00000050: 62b2 8bbd 1c62 6fbd 72de f7bc 6076 5cbd
00000060: d7a0 e1bd 1f3a 87bd 0f7c 0cbe 5ab5 96bd
00000070: 31f6 e4bb ec83 9cbc 5f8b 8abd 7484 c73d
00000080: f5e0 14be a794 17be 7425 863c 8dad f93c
00000090: e764 91bd cbf4 90bd 5352 bdbd 4930 78bd
000000a0: 7d0b 003a 9ffa 12be b1a5 9b3d 01d6 2fbd
000000b0: c536 ecbd 34ed b0bd 7897 eabc ae03 d63b
000000c0: be5d 01bd 5807 c73c d87c a7bd cbfc f6bd
000000d0: 5b32 7dbd cf35 30b9 a327 f9bd a19e 9cbd
000000e0: 9d4b ecbd 859b bf3d b9e1 963d 7933 ecbc
000000f0: 62e6 9a3d 2d8d 923d ff34 24bd 6d42 16be
00000100: a656 d43d 7621 a43b 1872 963d 08bd ed3d
00000110: 7e13 c83d 9eef a83d b49a 683d 5be9 093e
00000120: 1100 29bd d469 ccbd 5246 34ba 3e83 0a3e
00000130: 450f 2b3c 722d a93d d9f4 633d fb7a 563d
00000140: b0d4 80bd 3d67 f0bc 15c4 343d 4f5d 8e3d
00000150: 74ea c83c 081f 143e 0970 62bd 5b4a c3bc
00000160: c834 06bd cb15 6fba a735 e63d 76a0 353c
00000170: 3949 ec3d 99a9 07bd 5aa1 a23d c311 8ebc
00000180: 1c47 4d3d e7d9 8cbd 68ad 813d aa43 873d
00000190: 02c6 a4bd f869 d73d 1b99 8a3d e32a a6bc
000001a0: 3174 4fbe 9730 77be 363b 89be 75a5 b9be
000001b0: b80c 62be 2b9b cbbe 435d aabe ea2e b1be
000001c0: 4a90 1dbe f937 96bc 97e8 f2bd 122d 59be
000001d0: 6c07 a4be 35d7 6abe 912e efbd 4923 fe3c
000001e0: 2e67 2f3e 4ee7 813e 1e9e 3a3f 7d30 3dbe
000001f0: 0a50 ccbd 33e2 a7bb 9ad5 043d 6069 a7bd
00000200: 8f67 ddbd dfed fd3d fd45 043e dd35 62bb
00000210: b62a 90bd 5dc2 16bd 2834 ebbc c076 dcbd
00000220: 3853 fa3d 1635 593d df90 eebd dd46 853c
00000230: ce43 4ebd ff8d c3bc 102e 0d3d e3a1 ebbd
00000240: 9ed3 af3b 62f8 4f3d 1dbf 1f3d 1460 8f3d
00000250: cbb2 9bbd 1857 313d 6f58 843b 7704 bebd
00000260: 3df5 a0bd 5540 bf3d 3532 ea3d 1305 e6bc
00000270: 0d36 f8bd a105 17be 2118 4fbe f6d3 babd
00000280: 87af 1dbd 8fd2 25be 9b2d d13c 44be ac3b
00000290: 946b 2e3a d3b6 cc3d 4873 b33d 9fb4 adbd
000002a0: fad2 43bc ba21 e33d d9ca 223c 97f8 5a3c
000002b0: 6ca7 f33d 9f53 e1bd 050b b0bc 7946 f03d
000002c0: 1132 393e 87e9 0abd 9fb3 b13d 394a 0d3e
000002d0: 5a1d 66be 555b 8cbd 3f88 893d a074 813e
000002e0: b8c1 c6bd 1a69 fe3d 6097 f2bc 6c42 d2bd
000002f0: c31e d6bd e5eb 38bb bbb6 50bd a22a 53bd
00000300: e27d 7c3c daee 14be 444a 00be c9eb da3d
00000310: 726a 963d 31c3 093e e8a3 8e3c 2dbc 4f3d
00000320: f73f 5f3d 6d00 1d3e b5b9 c8bc 128a b23d
00000330: d5f1 623d ab44 da3d 6fa5 593e 2955 c1bc
00000340: 3915 123d f513 db3d f706 9f3c b264 943d
00000350: c0a6 983c 9dfd a33d 4cf1 a5bd ec10 d33d
00000360: b43c 1dbe 0f5d f5bd 0de6 dc3b b3c4 86bd
00000370: 6440 933d 3444 913d b335 483d 4589 d5bd
00000380: d98f 98bd be44 03be 20af b6bd 0f0d 88bd
00000390: 6443 103d 5b48 34be 45c5 2bbe 8b7b 2cbe
000003a0: 4abb e4bd f957 babd 0e46 8a3c 2771 823d
000003b0: 0c09 4c3d 7a3e 81bd e13f 0dbd 516e a63d
000003c0: 6851 36be bb5f ab3c 9e9f 04bf 718a 9f3d
000003d0: e170 e2bb cc23 003e 8f8b 223e 4a8b 23be
000003e0: 4b72 473e cecb 403d 0aa2 a63c 2630 003e
000003f0: faa9 85be 38e7 9cbe 881e 54be 87b2 37bd

actor_linear1.bias f4 [512]
-0.054637805 -0.010210986 -0.0050814413 0.012486282 0.030106738 -0.06300399 -0.11174094 0.06452985
0.021971144 -0.09709223 0.040395193 -0.13748416 -0.104357496 0.044206172 0.07679701 0.0647937
-0.115129896 0.054605853 0.08021101 0.049133442 0.08564781 -0.06907483 -0.13785054 -0.029752394
-0.087836996 0.057718273 0.0066991076 -0.0043226453 0.115127385 0.1078701 -0.03757706 -0.12520428
-0.025539193 -0.126809 0.014309189 -0.07550482 -0.06453969 0.06276553 -0.07592092 0.09093192
-0.012760158 -0.036634192 0.03926113 -0.10035736 0.012985208 -0.14001958 -0.14781412 -0.13677634
-0.1172275 -0.13377686 -0.045436 0.008186215 -0.16489866 0.07304798 -0.16965024 -0.11676241
-0.10176254 0.026058506 -0.09766629 0.0635822 -0.12538941 0.025916547 -0.056213394 -0.13433005
0.050143562 -0.025228722 0.04108769 -0.119657435 -0.11419405 0.069863476 -0.18098219 -0.012880047
0.0018354629 0.0045052865 0.046569526 -0.070075504 -0.054608565 -0.015003275 0.054136716 0.06126648
-0.1283638 -0.1059221 -0.009501477 0.022218462 -0.171787 -0.13043065 0.023401832 -0.06591989
0.02927135 -0.12422746 0.09983081 -0.038834453 -0.026199888 -0.12993637 -0.090587504 0.05489934
-0.054167874 -0.11105518 0.04061773 0.004378691 -0.015416536 -0.1302305 0.0013502871 0.062090162
-0.075154915 0.03181959 -0.023285506 0.07222258 -0.0043482683 -0.14961651 0.08587931 0.059478857
0.055545326 -0.13162185 -0.09091689 0.09451025 0.032470584 -0.045573425 -0.08443619 -0.07437581
-0.05258649 -0.14075232 -0.1223003 0.027934967 -0.14713316 0.029296048 0.07233008 -0.06051682
0.010113463 0.0021971085 0.0027524484 -0.05070148 0.007842575 0.04139197 -0.046729382 0.053759784
-0.11504483 -0.13695809 -0.11111401 -0.13390103 -0.08660019 -0.0050485055 0.06554796 -0.14206678
-0.10661675 -0.06299573 0.012279255 -0.1335911 -0.13127291 0.013476493 -0.13432065 0.0940492
-0.16466862 -0.11973369 -0.10340037 0.036348842 -0.04440821 0.030183611 0.04028456 0.09019879
-0.08022413 0.028990205 -0.0072454177 -0.08963782 0.064645074 0.08843095 -0.08842035 0.050486576
0.044565134 0.06736426 -0.041059855 0.035065908 -0.106720805 0.1227228 0.07374212 0.005466019
-0.06317561 -0.051422697 -0.063558795 -0.0150330495 -0.11727474 -0.0930022 -0.106100805 -0.16226742
-0.12446772 -0.1682652 -0.09318631 -0.018688612 -0.12005952 0.0010347664 0.023183264 -0.113712154
-0.15233512 -0.049522545 0.038282484 -0.06459538 -0.1180192 -0.04866125 -0.08446067 -0.14811078
0.008555997 -0.1420569 -0.084865175 -0.013772148 -0.09551346 -0.07673381 -0.15074565 -0.09990877
0.07159969 0.016840093 -0.06277564 0.063972786 -0.06646989 0.07185927 -0.0052179135 -0.09573277
-0.027226694 0.07487783 0.06674466 -0.03882107 -0.11728817 -0.12261495 -0.16626495 -0.1106771
0.03800611 -0.014331789 -0.09050867 -0.03503279 0.06482304 -0.12020173 -0.096653685 0.02807127
-0.033138104 -0.01506673 0.044039916 -0.020504128 0.08817658 -0.07199595 -0.066227436 0.03787365
-0.10941428 0.016829599 0.000514612 -0.07562586 0.086912796 0.08456677 -0.05687528 -0.07009648
-0.059729293 0.05692172 -0.023628447 0.023125773 -0.10334919 -0.06996399 0.08146791 -0.12850735
00000000: e4cb 5fbd fb4b 27bc 3882 a6bb 4393 4c3c
00000010: 68a2 f63c 3c08 81bd 6fd8 e4bd 3a28 843d
00000020: d4fc b33c 4bd8 c6bd 6e75 253d a6c8 0cbe
00000030: 62b9 d5bd 8811 353d c047 9d3d 8fb2 843d
00000040: 39c9 ebbd 63aa 5f3d ac45 a43d 2640 493d
00000050: 1e68 af3d 1b77 8dbd b128 0dbe 4bbb f3bc
00000060: e2e3 b3bd ff69 6c3d 3084 db3b faa4 8dbb
00000070: e8c7 eb3d 00eb dc3d 67ea 19bd 8d35 00be
00000080: 9237 d1bc 38da 01be 1771 6a3c 45a2 9abd
00000090: 632d 84bd 378b 803d 6d7c 9bbd 843a ba3d
000000a0: fb0f 51bc bc0d 16bd 47d0 203d 2988 cdbd
000000b0: e9bf 543c 4b61 0fbe 965c 17be 190f 0cbe
000000c0: f914 f0bd cdfc 08be 191b 3abd 791f 063c
000000d0: 32db 28be 2e9a 953d cbb8 2dbe 2121 efbd
000000e0: e168 d0bd a678 d53c 4405 c8bd 6237 823d
000000f0: 1566 00be f04e d43c 0440 66bd d18d 09be
00000100: 5663 4d3d 77ac cebc 914b 283d f50e f5bd
00000110: 92de e9bd 9514 8f3d 6553 39be d506 53bc
00000120: ea93 f03a 15a1 933b b0bf 3e3d bf83 8fbd
00000130: 3bad 5fbd 4cd0 75bc 76be 5d3d 8ff2 7a3d
00000140: cd71 03be b0ed d8bd 15ac 1bbc 7e03 b63c
00000150: eee8 2fbe 9d8f 05be 33b5 bf3c 0201 87bd
00000160: 78ca ef3c f76a febd 1974 cc3d e010 1fbd
00000170: 26a1 d6bc 0a0e 05be f185 b9bd 21de 603d
00000180: 22df 5dbd e670 e3bd c75e 263d 1f7b 8f3b
00000190: a395 7cbc 255b 05be 1efc b03a 4152 7e3d
000001a0: d2ea 99bd 4255 023d 3fc1 bebc 6fe9 933d
000001b0: eb7b 8ebb 1235 19be 7ee1 af3d 1aa0 733d
000001c0: 7f83 633d e1c7 06be a232 babd 978e c13d
000001d0: e0ff 043d 33ab 3abd e2ec acbd 5852 98bd
000001e0: ee64 57bd 6021 10be 9478 fabd dfd7 e43c
000001f0: 13aa 16be 44fe ef3c cb21 943d 7ce0 77bd
00000200: f0b2 253c 5dfd 0f3b 6c62 343b 5bac 4fbd
00000210: 257e 003c a08a 293d 4f67 3fbd 3833 5c3d
00000220: a09c ebbd be3e 0cbe be8f e3bd 5a1d 09be
00000230: 715b b1bd ef6d a5bb 023e 863d f479 11be
00000240: e259 dabd e803 81bd ee2e 493c 1bcc 08be
00000250: 686c 06be 82cc 5c3c 5a8b 09be de9c c03d
00000260: e49e 28be f036 f5bd 93c3 d3bd 86e2 143d
00000270: 62e5 35bd 9f43 f73c 6c01 253d 25ba b83d
00000280: 8c4c a4bd de7c ed3c f86a edbb 0994 b7bd
00000290: a364 843d 491b b53d ba15 b5bd 03cb 4e3d
000002a0: ee89 363d 46f6 893d 612e 28bd 45a1 0f3d
000002b0: 7090 dabd 1756 fb3d 1c06 973d 4a1c b33b
000002c0: 3762 81bd 9ba0 52bd 1d2b 82bd 2e4d 76bc
000002d0: bd2d f0bd f077 bebd 614b d9bd 6e29 26be
000002e0: efe8 febd b64d 2cbe 77d8 bebd dc18 99bc
000002f0: c4e1 f5bd 00a1 873a d4ea bd3c ebe1 e8bd
00000300: bdfd 1bbe 27d8 4abd 18ce 1c3d 954a 84bd
00000310: 0db4 f1bd 0551 47bd b7f9 acbd 5aaa 17be
00000320: 742e 0c3c 5d77 11be cbcd adbd 93a4 61bc
00000330: 909c c3bd 9e26 9dbd 115d 1abe f89c ccbd
00000340: dca2 923d 3cf4 893c 8490 80bd 2a04 833d
00000350: 5e21 88bd f42a 933d 08fb aabb 8b0f c4bd
00000360: 840a dfbc 8c59 993d 6db1 883d d802 1fbd
00000370: c834 f0bd 8c1d fbbd 5c41 2abe adaa e2bd
00000380: 4bac 1b3d e1cf 6abc 9c5c b9bd 8b7e 0fbd
00000390: f1c1 843d 532c f6bd 5ef2 c5bd b8f5 e53c
000003a0: d2bb 07bd 72da 76bc 3363 343d 46f8 a7bc
000003b0: ec95 b43d 9d72 93bd 40a2 87bd 6721 1b3d
000003c0: 9814 e0bd 3ade 893c 07e7 063a bbe1 9abd
000003d0: 56ff b13d 5831 ad3d 0ef6 68bd be8e 8fbd
000003e0: b4a6 74bd c026 693d 7290 c1bc 4372 bd3c
000003f0: bda8 d3bd 4849 8fbd a6d8 a63d 6e97 03be

actor_linear3.weight f4 [8, 512]
-0.0032024358 0.1937118 0.1887183 0.071140565 0.17083372 -0.08088467 0.19160777 0.1304878
0.041418757 0.038952958 0.024416663 0.10570892 0.10668327 0.062072203 0.12161836 0.1178028
-0.05299023 0.007566986 0.019371772 0.17447855 0.11876359 0.028310474 0.1948663 -0.016098183
0.0539147 0.022528218 0.048657812 0.04802176 0.17161374 0.2114941 -0.010884448 0.016170597
0.04306521 0.024137218 0.10452195 0.03295042 0.033224948 0.096554466 0.057261933 0.0018402027
-0.040899944 0.005054111 0.029749736 0.18816577 0.045833673 0.019301249 -0.008383817 0.05428995
0.11593971 0.033821207 0.011375371 0.02045903 0.13944682 -0.0048008477 0.082429536 0.0057174773
0.042459007 0.072681144 -0.005828124 -0.04071733 0.06147371 0.12230432 -0.010167137 -0.041558422
0.016369695 0.07657223 -0.0012445773 -0.018260762 0.035727788 0.06966392 0.034527905 0.11380184
0.02355797 0.026840582 0.11085279 0.0238523 0.0017105843 -0.035601817 0.12362743 0.0060902727
0.026775597 0.091497466 -0.029599788 0.048482336 0.03916917 -0.008878376 0.020185076 -0.025798036
0.10429664 -0.005487074 0.115563385 -0.010646232 0.074387744 0.04010571 0.06929488 0.12247785
0.088451184 -0.05497859 0.09753928 -0.013592017 0.10067908 -0.0037728408 0.010989157 0.10612452
-0.01943299 0.11001535 0.05163794 0.017323535 -0.03208474 0.1526226 -0.058981877 0.07079042
0.064367786 0.007486808 -0.04804617 0.08924972 0.0019286835 0.056305464 0.0040715323 0.06629257
0.05095869 0.015433422 0.10992508 0.081290506 0.04007175 0.17745033 0.0025190949 0.04037175
0.051043782 0.05467103 -0.012518152 -0.081722505 0.044392787 -0.07601528 -0.014582151 -0.0460671
0.17146814 0.053311814 0.047400445 0.15001772 0.02580175 0.114285566 0.0033548663 0.12646165
-0.025227075 -0.019934414 0.035634864 0.04959471 0.011701172 0.0101169245 0.120175935 0.055018723
0.07678169 0.008002769 0.03427719 0.07004786 0.0055870777 0.09366721 0.084749945 0.11528938
-0.14643276 0.028931376 0.048152406 0.07491031 -0.057469495 0.104702435 0.096190505 0.11149742
0.014386307 0.09753062 0.04530673 0.073429376 0.12945747 0.1117411 0.17822386 0.03526645
-0.022965135 -0.016797151 -0.033669896 -0.008683126 0.14484957 0.055290885 0.047263596 0.08956384
-0.038160305 -0.037906796 0.0651951 0.088056624 0.08188714 0.17241412 0.0054290267 0.06323815
0.014409791 0.090518765 0.062422972 0.12926732 0.06259355 0.039831825 0.05675352 0.083261445
-0.009555964 0.05177855 0.017483305 0.06667594 0.09902032 0.04267164 0.007109599 -0.03328734
0.062434476 0.14553666 0.07667399 -0.014845212 0.09054295 0.054074448 0.0027105776 -0.013407279
-0.11018296 0.042428885 0.15585656 -0.07681515 0.033053003 0.01407083 0.06794636 0.014784634
0.04607737 0.088391066 0.008430309 0.101300485 0.076964736 0.07230236 0.04760417 0.07318388
0.050861247 0.08591198 0.023440901 -0.019714205 0.08427573 0.062252507 0.10165633 0.08600859
0.060539175 0.075942695 0.15699281 0.0040762005 -0.005402007 0.057675373 -0.010588274 0.030931512
0.08824985 0.011558776 0.02980727 -0.050188184 0.012863468 0.104964726 -0.14399701 0.03451492
00000000: f5df 51bb 635c 463e 5f3f 413e 25b2 913d
00000010: 09ef 2e3e dda6 a5bd d434 443e 989e 053e
00000020: b7a6 293d 238d 1f3d 7405 c83c eb7d d83d
00000030: c27c da3d 6c3f 7e3d 0c13 f93d 9842 f13d
00000040: 490c 59bd 7bf4 f73b 8db1 9e3c 81aa 323e
00000050: 533a f33d 5eeb e73c 088b 473e 56e0 83bc
00000060: a9d5 5c3d 198d b83c 6a4d 473d 77b2 443d
00000070: 83bb 2f3e e991 583e af54 32bc 3378 843c
00000080: 2565 303d 6abb c53c 9b0f d63d 05f7 063d
00000090: e216 083d 59be c53d 7d8b 6a3d f532 f13a
000000a0: b386 27bd f59c a53b b8b5 f33c 87ae 403e
000000b0: 17bc 3b3d a71d 9e3c 475c 09bc 235f 5e3d
000000c0: cc71 ed3d 1b88 0a3d c45f 3a3c b299 a73c
000000d0: 26cb 0e3e 6e50 9dbb d1d0 a83d ad59 bb3b
000000e0: 7fe9 2d3d dad9 943d d9f9 bebb 37c7 26bd
000000f0: dbcb 7b3d b07a fa3d 1094 26bc 2a39 2abd
00000100: bd19 863c e7d1 9c3d 1621 a3ba 9897 95bc
00000110: 4d57 123d f5ab 8e3d 226d 0d3d f010 e93d
00000120: a5fc c03c c8e0 db3c ca06 e33d e665 c33c
00000130: af35 e03a 36d3 11bd 6130 fd3d e990 c73b
00000140: 7f58 db3c 0663 bb3d 417b f2bc 6a95 463d
00000150: da6f 203d 9c76 11bc 2c5b a53c 6756 d3bc
00000160: 7a99 d53d eacc b3bb 7fac ec3d 896d 2ebc
00000170: 9a58 983d e345 243d 79ea 8d3d abd5 fa3d
00000180: e525 b53d 3b31 61bd adc2 c73d 0db1 5ebc
00000190: d530 ce3d c441 77bb dd0b 343c d057 d93d
000001a0: ef31 9fbc ba4f e13d 4e82 533d 16ea 8d3c
000001b0: 4a6b 03bd 1949 1c3e fb96 71bd 91fa 903d
000001c0: 42d3 833d e653 f53b 10cc 44bd 8fc8 b63d
000001d0: e1cb fc3a 8fa0 663d 7d6a 853b 66c4 873d
000001e0: 0fba 503d 77dc 7c3c 6620 e13d a37b a63d
000001f0: 4622 243d 8ab5 353e 6617 253b d95c 253d
00000200: 4913 513d bbee 5f3d ef18 4dbc 215e a7bd
00000210: 36d5 353d e6ad 9bbd f9e9 6ebc dbb0 3cbd
00000220: 5895 2f3e 7d5d 5a3d f826 423d 3f9e 193e
00000230: 315e d33c 8d0e ea3d 51dd 5b3b 2a7f 013e
00000240: 03a9 cebc 7f4d a3bc ddf5 113d d323 4b3d
00000250: 46b6 3f3c 75c1 253c cd1e f63d 505b 613d
00000260: b83f 9d3d 0c1e 033c 3d66 0c3d 4175 8f3d
00000270: ce13 b73b 98d4 bf3d 6191 ad3d d71c ec3d
00000280: 78f2 15be 7e01 ed3c 753b 453d 946a 993d
00000290: 2265 6bbd 3b6e d63d 87ff c43d c258 e43d
000002a0: 8cb4 6b3c 22be c73d 8d93 393d 2462 963d
000002b0: 8090 043e 85d8 e43d 5180 363e 8e73 103d
000002c0: 6121 bcbc 2e9a 89bc 72e9 09bd ac43 0ebc
000002d0: 7253 143e b278 623d 7997 413d 3f6d b73d
000002e0: fb4d 1cbd 2844 1bbd 0285 853d 0857 b43d
000002f0: 72b4 a73d 548d 303e fae5 b13b 0183 813d
00000300: 0b17 6c3c e761 b93d 3baf 7f3d a75e 043e
00000310: 0c31 803d b226 233d 6176 683d fa84 aa3d
00000320: 9e90 1cbc bf15 543d 2639 8f3c 658d 883d
00000330: 2acb ca3d 75c8 2e3d a4f7 e83b 4e58 08bd
00000340: 4bbb 7f3d 9007 153e 4107 9d3d 5539 73bc
00000350: 956e b93d 2b7d 5d3d f2a3 313b 34aa 5bbc
00000360: 9ba7 e1bd e9c9 2d3d dd98 1f3e 4351 9dbd
00000370: 9662 073d 5789 663c 7627 8b3d 403b 723c
00000380: a0bb 3c3d 6006 b53d 471f 0a3c a176 cf3d
00000390: b09f 9d3d 4213 943d 97fc 423d 6ee1 953d
000003a0: e253 503d 9ff2 af3d 2207 c03c af7f a1bc
000003b0: c198 ac3d 7cfc 7e3d 3231 d03d 4625 b03d
000003c0: edf7 773d d887 9b3d b9c2 203e a691 853b
000003d0: 5203 b1bb 033d 6c3d 717a 2dbc 1564 fd3c
000003e0: 56bc b43d 0561 3d3c 602e f43c 2092 4dbd
000003f0: 4cc1 523c bff7 d63d f473 13be 845f 0d3d

actor_linear3.bias f4 [8]
-0.0061166454 0.055825736 0.034163512 0.009284106 0.089235194 0.07502558 -0.0073372843 0.08245712
00000000: 246e c8bb 87a9 643d 0aef 0b3d 5d1c 183c
00000010: f1c0 b63d 03a7 993d 9a6d f0bb 47df a83d
