model/model_3_backup.pth (torch, 283087 bytes, 7 tensors)

critic_linear1.weight f4 [512, 63]
00000000: ee72 f0bd 7d38 e1bd c958 243d c29e c4bc
00000010: dedc 10bc 72ad f93c f510 b13d 75b9 173d
00000020: 7d52 7abd b98d c1bc 3f06 34bd 0a59 e5bd
00000030: bae2 b43d 9dbb aabd e582 84bd 90cf ea3c
00000040: 2743 8e3d ff29 34bd 510d 95bd 765c 1d3b
00000050: 93fc f33d ba1a a13b 1dd9 433c 1e23 e43d
00000060: f8a8 993c 1334 a0bc fa1f 0cbc dcc1 bf3d
00000070: 6e16 cbbc fc2a f73d ca82 60b8 8e9f 00be
00000080: 448d 23bd 2f7a 8c3b dd51 ab3d 616f cf3b
00000090: f6a0 b5bd e6e2 283d 2c9a c23d 69ec 92bd
000000a0: c3c1 893d 3de1 9fbc 12d6 ad3c 7451 923d
000000b0: 6c1b d73d 5754 083d 8152 48bd 6ce1 d23d
000000c0: 3cd9 033c 18aa bbbd a26c edbd d945 a53d
000000d0: 9a53 00be 0b10 c03d 0f5e f93d b511 df3d
000000e0: 65dd a4bd 84a7 e93d f0c1 343c cf78 bdbb
000000f0: e372 95bc 4090 363c 2ce3 1f3d e753 a8bd
00000100: e298 c73d 17aa 733d 9c9a 863d b593 a73d
00000110: 42c1 f13c 1bdd bd3d 59ce bb3d 37d1 bcbc
00000120: 50b5 fdbd 206a 32bd cd48 a13d 40d6 95bd
00000130: 4ccc 0abd 3690 11bc 8b7d c4bd c57b c4bd
00000140: 7dd3 a23d ecca a03d cd8b 9cbd 9e1b c53d
00000150: f879 5c3d cb77 8c3b 266e 3b3d 2600 e0bd
00000160: d2af 5d3d c209 36bb 2d30 25bd 235e 943d
00000170: 9f7f 3ebc 7480 9fbd bad2 2abd 673b 83bd
00000180: f2fd 293c 1393 60bd a2be cfbd 17d2 c1bd
00000190: 2e9d b8bd 6ded 86bd 9044 18bd 0d94 113c
000001a0: 2e85 cf3d f6fc 95bd f7c5 efbd cb3f 343d
000001b0: 01d5 51bc 3b95 c9bd 3db4 c8bd 061d 95bb
000001c0: 29ed a5bd 28d5 23bd 54ec 863d 9d3b 7bbd
000001d0: e54a be3c 81f5 09bb fb91 89bd 1d16 9dbd
000001e0: 4164 01bd 208a 56bd 91e4 ae3d f706 e43d
000001f0: 6c7c 87bd 431a 2ebd 0d16 3dbd 7331 7ebc
00000200: 3e85 a7bd 7de6 263c c3be 19bd 9dfb 70bd
00000210: 283f 513d 8be7 953d 3299 44bd df5b be3d
00000220: 5c24 e1bd dc07 2fbd 448e bebd 4e85 08bc
00000230: c759 2e3d 417e 813d 881f a8bd e2a9 e13c
00000240: 6669 823d e8f2 98bd daa9 d9bd 9e4c a83d
00000250: ee69 cd3d 2a6c b73d 91c2 243c 6bc7 a2bd
00000260: b6c4 e43c 5fdd 103c e8c0 31ba 34b9 92bd
00000270: 88f4 b63d 6565 733c 770f 13bd e9da cf3c
00000280: 449f adbd be26 17bd fee1 aabd 5bda 153d
00000290: 2aba 293d 1def bc3d d25a ecbb f83e d43d
000002a0: 29d3 4f3c 9d5e b2bc 1c45 7b3d 09b4 efbd
000002b0: 97be 8d3d 6001 433d 906b 723c b197 afbb
000002c0: 5488 a4bd 3898 a23b c0e2 bbbb 8777 6abb
000002d0: c0d4 aabd cc97 d7bd 042e 003e 9c85 e63b
000002e0: 18b2 c23d 011c d2bd aaa1 e53c 46dc 96bd
000002f0: 0929 c43d 2c54 d0bb f75e 9b3d a9a2 b0b9
00000300: 980d a5bd b200 bebd 69c8 d1bd 6bbb d03d
00000310: 8857 873d 7a9c 72bd 8da3 1dbd 4e0e ddbd
00000320: 754f f93c bc9c 63bd 32e6 003e 5020 c63d
00000330: bf6e 2fbc f085 c1bd 9957 43bd 2ea5 ac3d
00000340: 39f9 d0bd f946 b9bd a325 74bd eb4a 4fbd
00000350: 2700 1abc 1ce4 fa3d 8284 98bd cab6 00be
00000360: 62b8 83bc ef68 9a3d e594 a4bd c682 5e39
00000370: 111d bebc a92e 4ebd 82ad 08bd 9b76 b7bd
00000380: e90e e43b 64a4 9f3d 20c7 9dbd 31cc 36bd
00000390: 8ab0 5a3c b64d 16bd dbef e03d 8d19 e93d
000003a0: 10f1 15bd e650 f1bd c3a4 9a3d 09f3 00be
000003b0: f375 b4bd e57e 8bbd 61b6 c83d eb8e 1b3d
000003c0: 5255 583d 0ec4 0d3d 3730 933d 9fef fe3d
000003d0: 2a98 433d 7c7a 92bb bf2a f13d e437 f93d
000003e0: 5498 abbd 3604 63bd 05e1 e73c c1c6 98b9
000003f0: d420 063d 6123 733d 081c efbd ed64 063d
-0.11740671 -0.109971024 0.040123735 -0.024001483 -0.008841721 0.030478213 0.086458124 0.0370421
-0.061113823 -0.023627149 -0.04395127 -0.111986235 0.08832307 -0.08336566 -0.06470279 0.028663427
0.06946402 -0.043985363 -0.072779305 0.002401141 0.11913409 0.004916516 0.011953619 0.111395106
0.018757328 -0.01955608 -0.008552546 0.093631476 -0.024790969 0.120687455 -5.352757e-05 -0.12560865
-0.039929643 0.0042870264 0.083652236 0.006330416 -0.088685915 0.041232012 0.09502062 -0.07173998
0.0672641 -0.019516582 0.02122024 0.07144442 0.10503277 0.033283558 -0.048906807 0.10296902
0.008047398 -0.09163302 -0.11592986 0.08069963 -0.12531891 0.0937806 0.121761434 0.10892049
-0.0805004 0.11408904 0.011032566 -0.005782224 -0.018243259 0.01114279 0.039035007 -0.08219128
0.09745957 0.059488382 0.06572458 0.0818247 0.029511098 0.09270688 0.09170217 -0.02304898
-0.12388098 -0.04355824 0.07875214 -0.073162556 -0.03388624 -0.00888448 -0.09594258 -0.0959392
0.079504944 0.07851204 -0.076438524 0.09624408 0.053827256 0.0042867414 0.045759343 -0.10937528
0.054122753 -0.0027776812 -0.040329147 0.07244518 -0.011627107 -0.07788172 -0.04170487 -0.064078145
0.010375487 -0.05482776 -0.10143782 -0.094638996 -0.09014355 -0.06588254 -0.03717476 0.008885396
0.10132824 -0.07323639 -0.11707681 0.04400615 -0.012807132 -0.098429166 -0.09800003 -0.004550579
-0.08101875 -0.039998204 0.06588045 -0.06133615 0.023229072 -0.0021050873 -0.06717297 -0.076702334
-0.03158975 -0.05237782 0.08539689 0.11134141 -0.066155285 -0.042505514 -0.046163607 -0.015514719
-0.08179711 0.010186789 -0.03753544 -0.058833707 0.05108562 0.07319554 -0.04799766 0.09294867
-0.10993263 -0.042732105 -0.09304479 -0.008332564 0.042566087 0.06322909 -0.08209139 0.027546827
0.063677594 -0.07468206 -0.106281 0.082177386 0.1002997 0.089561775 0.010056154 -0.07948192
0.02792583 0.0088418415 -0.00067807594 -0.07164231 0.089333594 0.014855717 -0.03590342 0.02537294
-0.08477643 -0.03690218 -0.08343886 0.036585193 0.041437306 0.09225295 -0.007212975 0.10363573
0.012684622 -0.02177363 0.061345205 -0.11704261 0.06921118 0.047608733 0.014796153 -0.005358659
-0.08033815 0.0049619935 -0.005733818 -0.003577681 -0.0834136 -0.10527 0.12517554 0.0070349704
0.09506625 -0.102592476 0.028031189 -0.073662326 0.09578139 -0.0063576903 0.075864725 -0.00033690527
-0.080592334 -0.09277476 -0.10243303 0.10191997 0.06608492 -0.05923126 -0.038486052 -0.10793744
0.030433396 -0.055569395 0.12587813 0.09674132 -0.010707556 -0.09449375 -0.04769096 0.08429943
-0.102037854 -0.0904674 -0.059606206 -0.050608557 -0.00939945 0.1225054 -0.07447149 -0.12569728
-0.016079132 0.07539546 -0.08036212 0.00021220287 -0.02320722 -0.050337467 -0.033368595 -0.08958169
0.0069597852 0.07795027 -0.07703996 -0.044628326 0.013347754 -0.036695205 0.10983249 0.113818265
-0.03660685 -0.11783008 0.07550957 -0.1259271 -0.088115595 -0.068113126 0.09800411 0.037978094
0.052815743 0.0346108 0.071869306 0.12448048 0.047752537 -0.0044701677 0.11775731 0.121688634
-0.08378664 -0.055423938 0.02830554 -0.00029139782 0.03274615 0.05935991 -0.116752684 0.032811094

critic_linear1.bias f4 [512]
00000000: 3e2f d83d fab9 bdbd ab6f 22bd 64aa 94bd
00000010: e62b e93c ca95 f8bd a8ff c4bd 88ec c8bd
00000020: 7e95 8abd 76ed f43d b83d fdbd 25e9 c43d
00000030: 289f 86bd 75c4 0e3d b43a 923d bd12 e7bd
00000040: d7e9 e6bd a992 b3bd cb55 223d ffcc d2bd
00000050: e168 b1bd df4a 9f3c 8f65 df3d 197a 9b3d
00000060: 5b10 ae3d 99bc 26bd 13ac e13d 0df0 b7bd
00000070: 2efd 75bd eeb2 aa3d d600 27bd b497 7e3d
00000080: 5a31 30bd b4db dd3d 878a aabd 579a 4fbd
00000090: 8751 bf3d e165 aabd afa1 a4bb 84fa bb3d
000000a0: d7b8 fcbd f8b3 36bc 5bf1 8a3d 0e71 58bd
000000b0: 42a0 9abd 8458 083b f905 65bc 6920 a3bc
000000c0: 3c6e 303d 08c4 383d 86f5 e83d 5252 4fbd
000000d0: b3b4 95bd 6d68 c8bc 0088 c93d 3662 9fbd
000000e0: 3563 6dbc be85 d03d 30a8 9ebd 410b 8dbd
000000f0: 3a5e d13c 2a01 f23c 4611 5c3d edcc f33c
00000100: 9579 ad3d 703f cebd f0f1 b4bd 2cf3 f8bd
00000110: 74ae f53d 5e0e c93d f5fb dc3b 6616 c2bd
00000120: 39f7 c5bd 4a28 d93d 92eb 5b3c 9a22 bd3c
00000130: fd3e bf3d d278 c6bc d1a1 85bb b90d 633d
00000140: 3766 ff3c 59ac b63d b40f a93d 71ab 29bd
00000150: 9624 4dbc 7563 573d 9c3a 00bd 04b5 9dbd
00000160: 6285 2abb 6a7c 073c 8108 8bbc ad43 6bbd
00000170: 9861 993d 4a23 d8bc 4ff8 05bd 40e9 5c3c
00000180: c771 183d 957e 4abd 2873 acbd 62f1 d9bd
00000190: 5a75 a63d 54a5 9fbd 2b39 273d 9a54 a3bc
000001a0: 0277 c03d f478 c7bd a2e6 b83d fff2 cdbd
000001b0: 6183 df3d d971 29bc 251e 37bd 3eee 90bd
000001c0: 9703 943d 3103 963d 67b7 1c3d 07ab 76bd
000001d0: 54cb 0d3d 56fc dcbc d074 edbc 8565 53bd
000001e0: bcb2 ce3d 08a8 a9bd 894a e7bd bea5 f83d
000001f0: a772 c0bd 8c18 44bc 9b65 ec3d 57aa b3bd
00000200: aab8 d23c 6027 c1bd b41d c2bd 8873 87bc
00000210: 108f 1b3d 42c3 9e3d f488 d53d ca27 8abd
00000220: 3870 4abd 912f 063d aa81 e8bd 01d4 7a3d
00000230: 3fdc 41bb ce10 85bc db22 d9bd a047 7cbd
00000240: 791d 923d bd90 b4bd 4c26 dabc e483 46bd
00000250: b4ac 533d 8cfd 5e3d 8838 adbd b6d2 dbbd
00000260: efb8 873d 1d40 91bd 2efd e73d bd5b 59bc
00000270: 3391 f33d 5760 713d 6471 b3bd 661e 693d
00000280: 7a0d 463c 17e1 c73d b806 3c3d 7111 ff3d
00000290: 3020 e6bb 8c53 ad3d 6b92 393c 636d d6bd
000002a0: f893 50bd cca6 d6bd 094f 2a3d ce88 de3d
000002b0: 2c25 fe3d 069a a8bd 40b4 81bd 9ca9 f8bd
000002c0: ff12 333d f217 1ebd 7131 7b3d c167 2bbd
000002d0: 3405 803d 3f28 a6bb c659 e1bd 15dc f03d
000002e0: f922 b73d b8c7 aebc aa04 b33c e8e0 2b3d
000002f0: aaee c43d 269f 1a3d 746d 11bd f65b e4bd
00000300: 19c3 69bd 1b29 1f3d 5c0b e4bd 3931 9ebd
00000310: a5f2 823d 8367 bc3c 0d01 343c 6816 d33d
00000320: a93c e43d 13da 45bc a641 85bd 106d 31bc
00000330: e4d7 303c 2336 2a3c 4977 7bbd b847 9338
00000340: 667c 0f3d cd22 6cbd 07fa d5bd 9e5d aa3d
00000350: a8e3 a63d 7905 873d e1ac 0abd 8e7d a0bd
00000360: efee 6cbd a361 68bd e747 a3bd 2bb9 ca3c
00000370: e84f 0bbd 73ed 303d a89f d8bd 901d 99bc
00000380: 878e d7bc 36a3 96bc 6b8e 593d a09b d7bd
00000390: e5ab 053d 29e3 dfbb cd03 e13c ec38 e23d
000003a0: 69a7 23bd 5c9e f8bd 44d4 0a3d 6840 543d
000003b0: 0244 7b3d 8ab8 50bd e4b8 a03d 893b e9bd
000003c0: b33e 413c 4264 bbba 696d 003e c343 e73d
000003d0: af7b 1abd fbe3 59bd e9ff f3bd 3525 043c
000003e0: 661e a8bd 7c44 183b bbab 813d 5e26 ddbd
000003f0: 62ae f83d f393 983d 8f3f ebbd 9fd6 7c3d
0.10555886 -0.09263988 -0.039657276 -0.07259062 0.028463315 -0.12137945 -0.09619075 -0.0981074
-0.067667946 0.119593546 -0.123652875 0.09614781 -0.065733254 0.034855325 0.07140103 -0.11282871
-0.1127507 -0.087682076 0.0396326 -0.10293006 -0.08662582 0.019444881 0.10908043 0.07591648
0.08499213 -0.040707204 0.11019149 -0.08981333 -0.060055904 0.083349094 -0.04077228 0.062156394
-0.043015815 0.10832921 -0.08327203 -0.0506843 0.09341722 -0.08320213 -0.005024157 0.091786414
-0.12339943 -0.011151306 0.06784316 -0.052842192 -0.07550098 0.0020804713 -0.013978475 -0.019912915
0.043073878 0.045108825 0.11374955 -0.050615616 -0.07309856 -0.024463857 0.09840393 -0.07782404
-0.014488985 0.10181759 -0.07746923 -0.06886912 0.025557626 0.02954157 0.05372741 0.029760802
0.084704556 -0.100706935 -0.088352084 -0.12155756 0.11996165 0.098171934 0.006743903 -0.094769284
-0.096662946 0.10603388 0.013422864 0.023087788 0.09338186 -0.024227533 -0.004078128 0.05543301
0.03117667 0.089195915 0.08254948 -0.041423265 -0.01252093 0.052585084 -0.031305894 -0.077005416
-0.0026019444 0.008269409 -0.016971828 -0.057437588 0.07489318 -0.026384015 -0.03270751 0.0134833455
0.03721788 -0.049437124 -0.08420402 -0.10641743 0.08127852 -0.07795206 0.040826004 -0.019937802
0.09397699 -0.09739867 0.09028365 -0.100561135 0.109137304 -0.010342085 -0.044706482 -0.07076691
0.07227247 0.073248275 0.038260844 -0.060221698 0.034617737 -0.026975792 -0.028986365 -0.05161049
0.100926846 -0.082840025 -0.11293513 0.12140988 -0.09396868 -0.011968743 0.11542817 -0.08772724
0.02572282 -0.09431338 -0.09478322 -0.016534582 0.037978232 0.07752086 0.10426512 -0.067458704
-0.049423426 0.032760207 -0.113528565 0.06123734 -0.002958074 -0.016243365 -0.10602351 -0.061591744
0.07134528 -0.08816669 -0.02662959 -0.048465624 0.051678374 0.05444102 -0.08458048 -0.10733549
0.0662707 -0.07092307 0.11327587 -0.013266501 0.11892929 0.058929767 -0.08761862 0.056913756
0.012088174 0.09759729 0.045904845 0.124544986 -0.00702288 0.08463201 0.011326413 -0.104700826
-0.050922364 -0.10481033 0.04157928 0.10865937 0.12409434 -0.08232503 -0.06333208 -0.121417254
0.043719288 -0.038597055 0.061326448 -0.041846994 0.062509924 -0.0050707157 -0.11003451 0.11760727
0.089422174 -0.021335468 0.02185281 0.041962534 0.09615834 0.037749432 -0.035504773 -0.11150353
-0.057070825 0.03885756 -0.11134979 -0.07724232 0.06393937 0.022998577 0.010986579 0.10307008
0.111443825 -0.012075919 -0.06506662 -0.010829225 0.01079366 0.010388884 -0.061393056 7.022865e-05
0.035030745 -0.057650376 -0.104480796 0.08318637 0.08148891 0.06592841 -0.033856276 -0.07836448
-0.057845052 -0.05673374 -0.07972699 0.024746498 -0.03401175 0.0431952 -0.10577327 -0.018690854
-0.02631308 -0.018388372 0.053114336 -0.1052773 0.032634635 -0.0068324995 0.027467633 0.11046013
-0.039954577 -0.1213958 0.03389384 0.051819235 0.061344154 -0.05095724 0.07847765 -0.113883086
0.011794734 -0.0014296847 0.12541737 0.112922214 -0.03771561 -0.053195935 -0.11914045 0.0080655115
-0.08208923 0.002323418 0.06331583 -0.107983336 0.12142636 0.07450094 -0.11486732 0.061728116

critic_linear3.weight f4 [1, 512]
00000000: 039d 7ebc f8e8 bb3c 9052 813b afbf 503c
00000010: b271 33bd 200d 89bc a095 28bd 78f7 aabc
00000020: a3e1 d83c ef66 27bc 914b f93b 93a2 493c
00000030: 6ebb da3b 503b efbb 63fd 073d 6a55 003d
00000040: ee5e 263d 1a0e 9bbc 1bd7 8dbc d468 b33c
00000050: 285c e5bb 6a06 8cbc dc91 1b3d f897 a73b
00000060: 4cae 753c 1586 3abc eed6 95bc a64c 323c
00000070: b22c 20bd 74e8 19bd 2a1d 17bd 6677 293d
00000080: b8c8 dd3c ad57 29bd 61a9 b23c a848 93bb
00000090: 22d8 ebbb 0ae8 d93c 670d 0d3d 635a 6abc
000000a0: 1d28 2fbd 5449 193d 023c b4bc 0c6a 08bd
000000b0: d4bf 193d 4db7 dcbc 8c8a 89bc 740d 14bb
000000c0: e4ee 8f3b f7d5 743c 5f2e 10bd 9ffa 983b
000000d0: 57d3 f1bc 87f3 92bc 6de8 2fbc a0cf bfbc
000000e0: dc1b c9bc 6fab 9bbc 6bcd 02bc 5457 0bbc
000000f0: 0f68 ac3c 5e8b 8bbc e166 813c e214 053d
00000100: ffa5 efba 4ec7 f83c 051f 3abc 4d21 46bb
00000110: 4e24 30bd bcee ecbc e50c 27bd a67d 1d3d
00000120: b8dd 2fbd ca0c 8a3c 37d8 babc 6d60 7939
00000130: efaa 7abc c444 0bbd 7bea 09bc 3974 9b3c
00000140: eb81 203d 3ffd da3c 9185 7abc d3a4 c1bc
00000150: 26c5 0bbd d38b 2ebc c30a a83c 39ec b83b
00000160: 6f53 cdbc ea54 b83c d1b1 f2bc ec4c 073d
00000170: 42e9 84bc b3da 1abd 022d 033c fc5c f4bc
00000180: b711 e93b 551f b3bc 9e41 bdbc 0d20 1e3d
00000190: ec7f 78bc f9e0 273d 678b febc 0807 f33c
000001a0: cae0 943b f428 113d dbd9 8d3c a0f2 0cbd
000001b0: 1923 963b 898f 9fbc 83f3 19bd 19df 143d
000001c0: 4e5f 0fbc 399f e33c 64b8 973c fc9e 94bb
000001d0: 0ffd 9bbb e35d 2ebd 0679 293d 0d09 c53c
000001e0: 2664 f5bc ae1c ecbc 4924 1b3c 4ec4 dc3c
000001f0: b515 2fbc 2c3b 29bd 0481 3fbc 3251 5dbc
00000200: a7e3 093b 8a99 273c 067b 323d 82f9 233d
00000210: 8883 f03c d663 3dbc 0ba3 50bc 0612 e93b
00000220: 3549 b73c 293d 16bd dc9f b3bb efde 02bd
00000230: 0ded 58bc ac02 0cbd fe0f 313d 08ae dcbb
00000240: 1eb5 a03c 4a65 0f3d fbc6 ab3c ff59 143b
00000250: 60af e93c faaa 323d a18f 16bd 02c1 843c
00000260: 9aec e6bb 2af1 083d 7ece 68bb 22f0 2abd
00000270: b53d f6bc 067f 1e3c a6ec b7ba 5993 313d
00000280: 7aa3 15bd 6f41 97bc 0514 ce3c ce60 e4bc
00000290: dc9f 0a3d bc94 313c 700e 33bc 21dc 833b
000002a0: 4531 2ebc 1009 173c 8532 fbbc 1d02 973c
000002b0: 2e67 1ebc bb3f b9bc 5d3d e13c 311d 41bb
000002c0: 4a68 d63c bf5e 33bd faf1 a63c 23a3 75bc
000002d0: ad69 17bd 110c b9bc b30d 5fba 3e86 2abd
000002e0: 949a bebc d6b8 1dbd 4e33 0b3d 2649 19bd
000002f0: dea0 5f3b 09f9 f8bc 7a92 d13c fb7a 26bc
00000300: 1b09 bd3b 2a11 24bd 700e d9bc d2f4 19bd
00000310: 2552 403c 1589 9f3c 70b9 b5ba 5aec fc3c
00000320: b80b cd3c d718 9fbc a7d9 033d fae2 cf3b
00000330: 9439 19bd 48c4 6dbb 7f1a 143d 8fdf 173d
00000340: 09b0 9e3b 0d72 173d 9315 fb3c ee63 f13c
00000350: f89b 293d 8adc c8bb 4e30 243d 61a3 223d
00000360: 269e 9c3c f462 273d 3e63 debb 1a93 8f3b
00000370: f94b 99bc e988 793c f748 67bc f132 9cbc
00000380: 4430 f73b e356 d2bb ba4c 62bc 5c01 003c
00000390: 1fd1 5cbc 47b0 94bc 5fe5 343d 8d68 ccbc
000003a0: 6e4c f53c 3229 14bd 792e b03c 2384 2e3d
000003b0: b834 473b c56b 883c a447 883c 1f15 2dbc
000003c0: 39f8 efbc 8c39 38ba 4cd8 f83c a919 1e3d
000003d0: f206 233b cbfb eabc 3882 9739 a1fe 733a
000003e0: 0f1a 233c ea80 4abb 844e 1b3c d511 203d
000003f0: 5007 ffbc 2bc9 4bbc 1127 5fbc f44d b23b
-0.015540364 0.022938237 0.00394661 0.012741013 -0.0438096 -0.016729891 -0.04115832 -0.020869955
0.02647478 -0.010217412 0.007607885 0.012306827 0.0066751754 -0.007300772 0.033200633 0.031331457
0.040617876 -0.018927623 -0.017314484 0.021900572 -0.0069995113 -0.017092902 0.0379809 0.0051145516
0.014995169 -0.011384507 -0.018290963 0.010882532 -0.039105125 -0.0375752 -0.036893047 0.041373633
0.02707325 -0.04134338 0.021809282 -0.0044947453 -0.007197396 0.026599903 0.03443661 -0.014303776
-0.042762864 0.037423447 -0.02200127 -0.03330426 0.037536457 -0.026942873 -0.016789697 -0.0022591026
0.0043924917 0.014943591 -0.035200473 0.0046685482 -0.02951972 -0.017938389 -0.010736567 -0.023414433
-0.024549417 -0.019002644 -0.007983546 -0.008504707 0.021045713 -0.017034229 0.015796127 0.03249062
-0.0018283724 0.030368473 -0.011359935 -0.003023225 -0.043003373 -0.028922431 -0.04078378 0.038449906
-0.042936057 0.016851801 -0.022808177 0.00023782412 -0.015299543 -0.034001127 -0.008417721 0.018976318
0.0391864 0.026732085 -0.015290634 -0.023638165 -0.034123562 -0.010653454 0.020512944 0.0056433943
-0.025064198 0.022501428 -0.029625805 0.033032343 -0.016224507 -0.037806224 0.008006336 -0.029829495
0.0071127075 -0.021865526 -0.023102578 0.038604785 -0.015167218 0.040986035 -0.031072332 0.029666439
0.0045433985 0.035439447 0.017315796 -0.034411073 0.0045818207 -0.019477623 -0.037585746 0.036345575
-0.00875075 0.027785884 0.018520541 -0.004535554 -0.0047603915 -0.042570006 0.041375183 0.024052167
-0.029954981 -0.02882227 0.0094691 0.026949074 -0.010686328 -0.041316196 -0.011688475 -0.013508128
0.0021040232 0.010229478 0.043574356 0.04003287 0.029359594 -0.011559447 -0.012734185 0.0071127443
0.022373775 -0.03667942 -0.005481703 -0.031950887 -0.013240111 -0.034182236 0.043228142 -0.0067346133
0.019617613 0.035008706 0.020968905 0.002263665 0.028526008 0.043620087 -0.03675807 0.016205315
-0.007047248 0.033433117 -0.003552347 -0.041732915 -0.030058721 0.009673839 -0.0014032319 0.043353412
-0.036532857 -0.018463818 0.02515603 -0.027878191 0.03384386 0.010838684 -0.010928735 0.004024044
-0.010631864 0.009218469 -0.030663738 0.018433625 -0.009668155 -0.022613397 0.02749508 -0.0029466862
0.026172776 -0.04379153 0.020379055 -0.014992508 -0.036966015 -0.022588762 -0.0008508816 -0.04163193
-0.023267068 -0.03850635 0.033984475 -0.037423275 0.0034122984 -0.030392187 0.02558254 -0.010161157
0.0057689077 -0.04005543 -0.026496142 -0.037586994 0.011738335 0.019474545 -0.0013864469 0.03087442
0.025030002 -0.019421024 0.03218999 0.0063441964 -0.037408426 -0.0036280323 0.03615808 0.037078436
0.0048427624 0.036974 0.030649936 0.029466596 0.04140851 -0.006129806 0.04008513 0.03970659
0.01911838 0.040865853 -0.006786733 0.0043815495 -0.018712984 0.015230396 -0.014116517 -0.01906726
0.0075435955 -0.006419049 -0.013812238 0.007812824 -0.013477593 -0.018150462 0.044164058 -0.024952197
0.029943671 -0.0361721 0.021506535 0.042606484 0.0030396413 0.016652951 0.016635723 -0.010564118
-0.029293166 -0.0007027618 0.030376576 0.03859869 0.0024875966 -0.028684517 0.00028897985 0.0009307657
0.009954943 -0.0030899593 0.009479169 0.039079506 -0.031131417 -0.012438099 -0.013620154 0.0054414216

actor_linear1.weight f4 [512, 63]
00000000: 9a19 cabc e2f1 a2bd 5bac c33c 3c9c 4ebd
00000010: 609b 623d a2ae 88bd 7755 883d 14c9 03be
00000020: c7d8 11be 62ce a13d 05ee 273d 2fc6 4bbd
00000030: 2823 843c b460 dfbd e4a1 313d 2274 5d3d
00000040: c649 a83c f5a8 23bd 1ba1 31bc a740 3dbd
00000050: 62b2 8bbd 1c62 6fbd 72de f7bc 6076 5cbd
00000060: d7a0 e1bd 1f3a 87bd 0f7c 0cbe 5ab5 96bd
00000070: 31f6 e4bb ec83 9cbc 5f8b 8abd 7484 c73d
00000080: f5e0 14be a794 17be 7425 863c 8dad f93c
00000090: e764 91bd cbf4 90bd 5352 bdbd 4930 78bd
000000a0: 7d0b 003a 9ffa 12be b1a5 9b3d 01d6 2fbd
000000b0: c536 ecbd 34ed b0bd 7897 eabc ae03 d63b
000000c0: be5d 01bd 5807 c73c d87c a7bd cbfc f6bd
000000d0: 5b32 7dbd cf35 30b9 a327 f9bd a19e 9cbd
000000e0: 9d4b ecbd 859b bf3d b9e1 963d 7933 ecbc
000000f0: 62e6 9a3d 2d8d 923d ff34 24bd e7ea 0cbe
00000100: 7c03 033e bb63 f63c eea0 a83d fcd3 f13d
00000110: 2d6c ee3d b27c e13d 8b2f aa3d ec0b 0f3e
00000120: e131 54bc f977 b6bd 153b 20ba 600b 093e
00000130: 8b4a 093c 5e08 ab3d 8a62 993d b99a 563d
00000140: 174d 9dbd 6c9a 3dbd 42be 2c3c 04f5 d43c
00000150: a124 de39 4b18 093e c765 6ebd e9b0 b7bc
00000160: 328a 45bd 0858 6dbb af64 d23d 5137 df3b
00000170: 7caf ec3d 0945 2fbd baf7 b83d fcc7 01bc
00000180: ff9b 5d3d ae68 8abd 008c 773d 4a28 8c3d
00000190: 9c2a 92bd 2fda de3d 012c 9c3d 946e 4fbc
000001a0: e084 47be cbeb 5bbe 799b 68be 4b96 9ebe
000001b0: ce19 2ebe 6d1d babe 8c68 96be 9fe8 afbe
000001c0: e94f 03be cc60 cebc 92ff d8bc a766 66be
000001d0: 2406 52be 566d 5fbe 1934 c5bd d4af bb3c
000001e0: 7155 4c3e 61be 573e 4177 313f fbbf 32be
000001f0: 3a9a 85bd d696 763c 46f0 6c3c d64c eabd
00000200: 206a 12be 8bce b13d 68c9 ca3d 5bfc 0fbd
00000210: aa7f a8bd ee0f 00bd 0a44 babc 3906 e6bd
00000220: d320 d73d 30c0 093d d68c 0bbe f5fe 1939
00000230: cf38 92bd cfff 2ebd 2121 673c 7cfa 0cbe
00000240: 8b89 70bc 1c71 103d b7ef fd3c 5486 5a3d
00000250: 76dc c2bd f26e b23c 34c0 bebb a04b cbbd
00000260: 26ba 9abd 443a b63d f998 fa3d a9be 76bc
00000270: 49d6 a1bd 1845 b4bd ce80 18be 1aa4 62bd
00000280: 43ca 97bb fd91 16be 40c4 733d 5d23 a33c
00000290: 8380 083c 1e1f e13d c12c a73d 9c10 a3bd
000002a0: 2bf8 66bc 10cf df3d 274e ad3c 158f 153c
000002b0: 266f bc3d f272 0bbe bc7c e6bc 27cc e33d
000002c0: 55b0 0f3e 1902 babd 6da6 903d e157 033e
000002d0: 624d e9bd d39a bcbc 1420 903d 5870 103e
000002e0: b7db 39bd 77a2 b53d be3e 39bd 4887 debd
000002f0: 8986 76bd 4d7b a1bc 49e9 5cbd 0325 2cbd
00000300: 45e0 b43c c2ab 08be f09d cfbd dc63 e13d
00000310: a534 7d3d aa01 093e f1a1 b03c a6c5 703d
00000320: 88ca 483d 4af5 183e 9f06 84bd d5b9 3d3d
00000330: 3205 e13c 3c47 a33d 188e 433e b45d 1ebd
00000340: d5fc 983c e93a df3d 3cab 183d c519 dd3d
00000350: c85c 4f3d cb3e d53d e459 83bd fb20 033e
00000360: d7c6 16be fe56 10be ff7a 6dbc caab 6dbd
00000370: da85 a93d fc2a c43d 2438 8e3d c941 abbd
00000380: 0ae5 40bd c8bd bbbd 48e5 8dbd d695 5fbd
00000390: 0f56 513d de94 28be c3ea 1cbe 7dbf 0bbe
000003a0: dba8 9fbd abc2 98bd 3508 de3c ac94 873d
000003b0: 7488 223d 4da8 b3bd 2496 46bd 473b 913d
000003c0: 93de 26be d755 183d 75fc 84be 475f 703d
000003d0: 0ad8 543d 7ec9 253d c30c ff3d b29e 5ebd
000003e0: a47a 773e 853c 643d 664f 8f3c 416b f63d
000003f0: 924b 69be 75bb 94be dc79 3bbe ea8c 6dbd
-0.02467041 -0.07956292 0.023885896 -0.050441965 0.05532396 -0.066739336 0.06656926 -0.12869674
-0.1424285 0.079006925 0.040998477 -0.04974955 0.016130045 -0.109071165 0.04336728 0.05406583
0.02054299 -0.03995605 -0.010841633 -0.046204235 -0.06821133 -0.058443174 -0.030257437 -0.05382383
-0.11017006 -0.066028826 -0.137192 -0.07358809 -0.006987356 -0.019105874 -0.06764864 0.0974206
-0.1453894 -0.148028 0.01637528 0.030478263 -0.07099324 -0.070779406 -0.09244218 -0.060592923
0.00048845244 -0.14353417 0.075999625 -0.0429287 -0.11533884 -0.08638993 -0.028636679 0.0065312004
-0.03158354 0.024295494 -0.08178109 -0.12059935 -0.0618156 -0.00016804713 -0.12165763 -0.076474436
-0.115378596 0.09355835 0.07367272 -0.028833138 0.07563473 0.071558334 -0.040089604 -0.13761483
0.12794298 0.030076852 0.0823382 0.11808011 0.11641727 0.11010112 0.08309849 0.13969392
-0.012951345 -0.08909602 -0.00061123195 0.13383245 0.008379589 0.08351205 0.07489498 0.05239365
-0.07680719 -0.046289846 0.010543408 0.025995739 0.0004237043 0.13388173 -0.05820253 -0.022423225
-0.048227496 -0.00362158 0.1027311 0.006812014 0.115569085 -0.042790446 0.09031625 -0.007921215
0.054103848 -0.06758247 0.06043625 0.06843622 -0.07137033 0.10881459 0.076255806 -0.012660641
-0.19484282 -0.21476667 -0.22715558 -0.3097404 -0.17002031 -0.36350575 -0.29376638 -0.34357163
-0.12823452 -0.02519264 -0.026489053 -0.22500096 -0.20510155 -0.21819052 -0.096290775 0.02291099
0.19954468 0.21068718 0.6932259 -0.17456047 -0.06523557 0.0150506105 0.0144615825 -0.114404365
-0.14298296 0.08681973 0.099016964 -0.035152774 -0.08227475 -0.03126519 -0.022737522 -0.11231656
0.105043076 0.03363055 -0.13627943 0.00014686196 -0.07139742 -0.042724427 0.01410702 -0.13767427
-0.01468123 0.03526412 0.030998094 0.05335076 -0.09514706 0.021781418 -0.0058212522 -0.09926534
-0.07555036 0.08897832 0.122362085 -0.015060105 -0.079022 -0.08802241 -0.14892885 -0.05533228
-0.004632266 -0.14704128 0.05951333 0.019914323 0.008331421 0.10992263 0.08162833 -0.07962152
-0.014097254 0.10928166 0.02115543 0.009128352 0.092008874 -0.13618067 -0.02813565 0.11122923
0.14032109 -0.09082431 0.07062993 0.12826492 -0.11391713 -0.023023045 0.070373684 0.14105356
-0.045375552 0.08868878 -0.04522585 -0.108656466 -0.060186896 -0.019712115 -0.053933416 -0.042027485
0.022079596 -0.1334677 -0.10137546 0.11005375 0.061817784 0.13379541 0.021561595 0.058782242
0.049021274 0.1493732 -0.064465754 0.0463198 0.027468298 0.07972571 0.19097173 -0.03866358
0.018675247 0.10899908 0.037272677 0.10795931 0.050625592 0.104123674 -0.0641363 0.1280555
-0.14724289 -0.14095685 -0.014494657 -0.05802516 0.08277483 0.09578511 0.06944302 -0.08362157
-0.04709343 -0.09167057 -0.069284976 -0.054586254 0.051107462 -0.16463038 -0.1532393 -0.13647266
-0.077958785 -0.07459005 0.027103523 0.06620154 0.039680913 -0.08772335 -0.04848303 0.070913844
-0.16295843 0.03719124 -0.2597386 0.058684614 0.051963843 0.04047536 0.12453606 -0.054350562
0.24167877 0.05572178 0.017493915 0.12032176 -0.22782734 -0.29049268 -0.18308204 -0.057995714

actor_linear1.bias f4 [512]
00000000: e4cb 5fbd 2612 e7ba adaf 5bbb 1771 9e3c
00000010: 2ef1 5e3c 9da9 8bbd 1150 d8bd a26e 633d
00000020: d4fc b33c 4bd8 c6bd 6e75 253d bff7 cabd
00000030: d6b8 b8bd a167 d83b fbd2 cf3d 4fde b43d
00000040: 7891 c4bd 5b3f b53d ac45 a43d 4a4e 8c3d
00000050: 325a b33d 2b43 32bd 757b 03be 0cc8 06bd
00000060: 020a 6fbd ff69 6c3d 9aac 2c3c 8aa6 1fbc
00000070: c6ac f23d 98a3 f33d 5e39 b7bc 2536 f8bd
00000080: 9237 d1bc 7cca b4bd 1588 903c 45a2 9abd
00000090: 4d8d 68bd 48da 663d 6d7c 9bbd 843a ba3d
000000a0: 2bf7 49bc 9e3a f7bc 2291 7e3d db47 adbd
000000b0: e9bf 543c 7f65 12be 47d3 e6bd b75e 0bbe
000000c0: 0795 e1bd 97a2 00be 191b 3abd 791f 063c
000000d0: efea 17be 2e9a 953d c7cd 02be 2efc c3bd
000000e0: 7b1f bfbd 9feb 463d f4b6 c1bd febb 953d
000000f0: 1566 00be fe42 b43c 0548 66bd 0edf e7bd
00000100: 5663 4d3d 77ac cebc 914b 283d cdc1 c9bd
00000110: 92de e9bd 4275 913d 4746 2fbe 5316 8ebb
00000120: 9bac 233c 2ad1 263c a194 bf3c fa6e 58bd
00000130: e53a 4fbd 4cd0 75bc bf9b 993d c29b 853d
00000140: cd71 03be c5aa dfbd ee0d b13b 7e03 b63c
00000150: eee8 2fbe 9d8f 05be 33b5 bf3c 0201 87bd
00000160: 3184 263c f76a febd 44de f23d f8bb b4bc
00000170: 1ea1 3ab8 4c68 f5bd f185 b9bd 9f7d 413d
00000180: f6bd 84bd 1320 d6bd 0c39 4b3d 29b7 c83c
00000190: 1b89 26bc 255b 05be 1efc b03a 4c18 493d
000001a0: 3426 64bd d250 533d 8c2e 41bd 6fe9 933d
000001b0: 85d8 1b3c d0e2 02be 9d88 dd3d a505 5b3d
000001c0: 7f83 633d e1c7 06be e829 c3bd 5d55 ee3d
000001d0: e0ff 043d 33ab 3abd e2ec acbd 84d2 4ebd
000001e0: ee64 57bd 6021 10be c2fd 00be 89d2 b73c
000001f0: 61b5 edbd 1db7 c53c 0dd3 9d3d 7ce0 77bd
00000200: f090 873c de59 503c dcf2 0c3b 0b1b 73bd
00000210: 801c 2e3d 88f5 6a3d b7d7 1cbd 5af7 6b3d
00000220: c551 fbbd 2d76 fcbd be8f e3bd 35d8 fabd
00000230: 715b b1bd 2c86 00bd 023e 863d 646d 20be
00000240: 1bde 07be 35e1 82bd ee2e 493c 0082 00be
00000250: 5eee bdbd 82cc 5c3c eedb c7bd de9c c03d
00000260: 2aa9 10be f036 f5bd 93c3 d3bd dfdb 6e3d
00000270: 62e5 35bd 4cf9 a43c 6c01 253d 00ac ae3d
00000280: 3834 9bbd de7c ed3c f86a edbb d4d8 80bd
00000290: 9e7d 633d 7fc0 bc3d ca47 73bd 5142 823d
000002a0: 44d1 213d 70f5 cc3d d159 29bd 985e 193d
000002b0: 38a8 ccbd d849 023e a91c c43d e143 583b
000002c0: 3762 81bd a82c 04bd 1d2b 82bd f824 7fbb
000002d0: 0dc5 d5bd f077 bebd bc30 d2bd 266d 1dbe
000002e0: afd0 e6bd bb82 21be db9d b7bd 56d6 77bc
000002f0: 671e f0bd 4981 853c 5a37 1d3d 3e33 debd
00000300: ad7b 0dbe 76bb 5abd d1d6 473d c5b6 88bd
00000310: 0995 f7bd 0551 47bd b7f9 acbd 272a 1cbe
00000320: 46f5 bc3c 35e6 04be cbcd adbd b575 673c
00000330: 5b76 a6bd 6a9a a3bd 115d 1abe 54d1 a4bd
00000340: a808 703d fc65 093d d894 19bd 2a04 833d
00000350: 54eb 92bd 0f15 a03d 836b 7f3b a08c bdbd
00000360: c70e 9bbc fdef aa3d 67f7 5a3d 241f 28bd
00000370: c834 f0bd 8c1d fbbd 5c41 2abe adaa e2bd
00000380: 4bac 1b3d 04c0 8338 9c5c b9bd e1b0 e9bc
00000390: f756 ea3d ddd6 05be 129a d7bd 880a 263d
000003a0: d2bb 07bd 9e91 9e3b 3363 343d 47fc f8bc
000003b0: ff17 dd3d 40b6 82bd 1ffb 6ebd 286f 1a3d
000003c0: 4ba4 f1bd 59c3 463d 015d 10ba d8fc 89bd
000003d0: 19e2 9b3d 109f e43d 0ef6 68bd bebe 83bd
000003e0: b4a6 74bd fcad 6c3d 5b2b f33a c57c fc3c
000003f0: cdba c4bd 402c 4bbd 092c a03d 6e97 03be
-0.054637805 -0.001762931 -0.003352146 0.019341035 0.013607306 -0.068194605 -0.105621465 0.05552543
0.021971144 -0.09709223 0.040395193 -0.09910535 -0.0901963 0.0066041504 0.10147663 0.088314645
-0.095980585 0.08849975 0.08021101 0.0685087 0.08757438 -0.043521088 -0.12840064 -0.032905623
-0.058359154 0.057718273 0.010539198 -0.009744296 0.1184936 0.118964374 -0.022366222 -0.12119702
-0.025539193 -0.08827683 0.017643014 -0.07550482 -0.05677538 0.056360513 -0.07592092 0.09093192
-0.012326996 -0.030179318 0.06215013 -0.08460971 0.012985208 -0.1429653 -0.11270767 -0.1361035
-0.11014753 -0.12562023 -0.045436 0.008186215 -0.14835714 0.07304798 -0.1277381 -0.09569584
-0.09332176 0.04856455 -0.09458724 0.07311247 -0.12538941 0.0220046 -0.056221027 -0.11321841
0.050143562 -0.025228722 0.04108769 -0.09851418 -0.11419405 0.07102443 -0.17116652 -0.0043361573
0.009989883 0.010181705 0.023386301 -0.05284021 -0.050593276 -0.015003275 0.07500409 0.06523849
-0.1283638 -0.109212436 0.005403272 0.022218462 -0.171787 -0.13043065 0.023401832 -0.06591989
0.010163353 -0.12422746 0.118588 -0.022062287 -4.4495908e-05 -0.11982784 -0.090587504 0.047238942
-0.06481545 -0.104553364 0.04961495 0.0245014 -0.010164524 -0.1302305 0.0013502871 0.049095437
-0.055700496 0.051590748 -0.04716353 0.07222258 0.0095120715 -0.12781835 0.108170725 0.05347218
0.055545326 -0.13162185 -0.09529477 0.116373755 0.032470584 -0.045573425 -0.08443619 -0.050493732
-0.05258649 -0.14075232 -0.12596801 0.022439258 -0.11606861 0.024135167 0.0770627 -0.06051682
0.016548604 0.0127167385 0.002150706 -0.059351962 0.04250765 0.057363063 -0.03829166 0.05760894
-0.12271456 -0.12327228 -0.11111401 -0.122482695 -0.08660019 -0.031377956 0.06554796 -0.15666729
-0.1326832 -0.06390611 0.012279255 -0.12549591 -0.092739806 0.013476493 -0.09758745 0.0940492
-0.14127031 -0.11973369 -0.10340037 0.058315154 -0.04440821 0.020138405 0.04028456 0.085289
-0.07578319 0.028990205 -0.0072454177 -0.06291357 0.05553972 0.09216403 -0.059394635 0.06360305
0.039506212 0.10007751 -0.04134542 0.037443727 -0.09993023 0.12723482 0.09575779 0.0032999443
-0.06317561 -0.03226915 -0.063558795 -0.0038931947 -0.10437975 -0.0930022 -0.102632016 -0.15373668
-0.11270272 -0.15772526 -0.089656554 -0.015126785 -0.11724549 0.016297 0.038382865 -0.108496174
-0.1381671 -0.053401433 0.04878885 -0.066754855 -0.12088973 -0.04866125 -0.08446067 -0.15250455
0.023066174 -0.12978442 -0.084865175 0.014127185 -0.08128043 -0.079884365 -0.15074565 -0.08047739
0.058602005 0.033544526 -0.037495464 0.063972786 -0.071737915 0.078165166 0.0038973994 -0.09255338
-0.018927945 0.083465554 0.053458598 -0.041045323 -0.11728817 -0.12261495 -0.16626495 -0.1106771
0.03800611 6.2823325e-05 -0.09050867 -0.028526725 0.114423685 -0.13070245 -0.105274335 0.040537387
-0.033138104 0.0048391363 0.044039916 -0.030393733 0.107955925 -0.06382418 -0.058344956 0.037703663
-0.117989145 0.04852614 -0.0005507023 -0.06737679 0.07611484 0.11163151 -0.05687528 -0.064328656
-0.059729293 0.057783112 0.001855235 0.030821213 -0.09605942 -0.049602747 0.07820899 -0.12850735

actor_linear3.weight f4 [8, 512]
00000000: f5df 51bb d8bd 4c3e 5727 513d b9ec d53c
00000010: 9dad 1b3e 2174 77bd 0ebe 153e 42f9 0e3e
00000020: b7a6 293d 238d 1f3d 7405 c83c 5f5a 7d3d
00000030: f62e ca3d a836 0b3d 07d9 893d 7ba5 a83d
00000040: a66d 6dbd bcff 0dbd 8db1 9e3c 1d84 dd3d
00000050: f7f5 f73d c9ac f23b 91f4 423e ba96 48bc
00000060: 1af3 5a3c 198d b83c 52bf dcbb c0b1 d5bc
00000070: e4aa 223e 95d4 2d3e 0fc9 cdbc 1407 58bd
00000080: 2565 303d 5ff2 a23b 4c43 453d 05f7 063d
00000090: 2f76 0e3d d1e9 a83d 7d8b 6a3d f532 f13a
000000a0: f4a9 49bc 54f0 a6ba 1fb1 473c 2dda 103e
000000b0: 17bc 3b3d 6a1a 923c a787 30bd 92bf 533d
000000c0: cc8f f23d aae2 153d c45f 3a3c b299 a73c
000000d0: 7588 ff3d 6e50 9dbb 0e1f 863d 67e4 70bd
000000e0: a33a 0f3d 2bff 803d 8b0c 233a 4872 bcbd
000000f0: dbcb 7b3d 4eca d83d 1094 26bc d084 ecbc
00000100: bd19 863c e7d1 9c3d 1621 a3ba 7fb9 e43b
00000110: 4d57 123d 0213 7b3d 903c e83c 6abf d13d
00000120: 36fb e73c eb57 0b3d 33e2 d33d d1af 483d
00000130: e92f 29bd 36d3 11bd d5f2 1b3e 387c 2ebd
00000140: 7f58 db3c b2bf 923d 4d29 bc3c 6a95 463d
00000150: da6f 203d 9c76 11bc 2c5b a53c 6756 d3bc
00000160: e8b6 9e3d eacc b3bb 58a1 d63d 5f0d 0cbd
00000170: d8c9 113d 9da3 25bb 79ea 8d3d 57a4 393d
00000180: d533 aa3d 783b 7dbd ee00 813d 8037 9cbc
00000190: c499 f23d c441 77bb dd0b 343c bf66 c83d
000001a0: 1735 94bd 781d 1f3d 611c 6f3d 16ea 8d3c
000001b0: cf25 a0bc dd5c d63d ecc5 52bd efe3 8e3d
000001c0: 42d3 833d e653 f53b 85a8 19bd 98a5 783d
000001d0: e1cb fc3a 8fa0 663d 7d6a 853b bd4c 093d
000001e0: 0fba 503d 77dc 7c3c 4667 bf3d 977f 4e3d
000001f0: 5a34 063d 473e 1a3e 9922 343b d95c 253d
00000200: 4913 513d c9c1 dc3c 0799 bfbc 3a6d 7fbd
00000210: 66fd fb3c 44d3 92bd 9117 c8bb 8dec 87bd
00000220: 6751 c53d a2dd 253d f826 423d 6310 d43d
00000230: 315e d33c 6ef2 1f3d 51dd 5b3b 0a0e 0b3e
00000240: ffda 05bd 7f4d a3bc ddf5 113d 2f5f 523d
00000250: a2f7 c5bc 75c1 253c 3636 8d3d 505b 613d
00000260: dfdd 833d 0c1e 033c 3d66 0c3d 0da9 5a3d
00000270: ce13 b73b 0f56 c8bb 6191 ad3d 499a d73d
00000280: 94db d9bd 7e01 ed3c 753b 453d cb73 393d
00000290: 9344 3ebd 563a a43d e9cb c13d 5f16 eb3d
000002a0: 9c01 dabb 47fe 263d 9093 393d a859 a63d
000002b0: 44f7 f83d 0546 083d daad 2c3e 4e8e 9d3c
000002c0: 6121 bcbc cf53 5fbd 72e9 09bd 201f 40bc
000002d0: fa40 013e b278 623d 4257 9c3d a6ee c93d
000002e0: 41e4 27bc a1e1 66bd 7d85 853d 5e69 b93d
000002f0: c7f0 803d 9102 4f3e a51c 4d3d bd5c 663d
00000300: 7314 6c3c 161b 683d 1c96 853d 9863 dc3d
00000310: 5871 d63c b226 233d 6176 683d 2d65 863d
00000320: a674 b23c 02dc 573d 2639 8f3c 925b c53c
00000330: 330c cf3c 22b5 b23d a4f7 e83b 305e b8bd
00000340: e4ce f53d 871f 9a3d 6618 5c3d 5539 73bc
00000350: ae7f 833c f52c 8bbb fdee bebb 519a 85bc
00000360: 1ac0 d8bd 332a 173d ed8d f23d 39db 48bd
00000370: 9662 073d 5789 663c 7627 8b3d 403b 723c
00000380: a0bb 3c3d 61df ec3d 471f 0a3c db64 6f3d
00000390: cc72 9e3d de5b 563d 9838 5f3b df7a 293d
000003a0: e253 503d 63fe 203d 2207 c03c 75c8 d5bc
000003b0: ef51 ad3c 44b0 5e3d 9bcf c13d 5618 ed3d
000003c0: d1f7 a8bb 2804 963d f54d 563e 4ebf 88bb
000003d0: a20d 8ebc 3318 fcba 717a 2dbc 6703 ebbb
000003e0: 56bc b43d 18d2 49bd d488 523c d482 83bd
000003f0: 6746 723c 0fe2 b63d 0d98 b5bd 845f 0d3d
-0.0032024358 0.19994295 0.051062908 0.026113855 0.15202947 -0.060413484 0.14623281 0.13962272
0.041418757 0.038952958 0.024416663 0.061853763 0.09872238 0.03398767 0.06730848 0.08234688
-0.057965897 -0.034667715 0.019371772 0.10816214 0.12107461 0.0074058515 0.19038607 -0.012242967
0.013363624 0.022528218 -0.0067366743 -0.026085734 0.15885502 0.16975625 -0.025120286 -0.052741125
0.04306521 0.0049727405 0.048159882 0.03295042 0.034780677 0.08247722 0.057261933 0.0018402027
-0.012308586 -0.0012736418 0.012188225 0.14145727 0.045833673 0.01783486 -0.04309812 0.051696368
0.11843833 0.036593117 0.011375371 0.02045903 0.12477199 -0.0048008477 0.06548892 -0.05881157
0.03496803 0.062986694 0.00062198256 -0.09201485 0.06147371 0.105854616 -0.010167137 -0.028871924
0.016369695 0.07657223 -0.0012445773 0.0069801207 0.035727788 0.061297424 0.028349191 0.102415875
0.028318029 0.034019392 0.103458785 0.048995797 -0.041305456 -0.035601817 0.15229352 -0.042598933
0.026775597 0.07165469 0.022968912 0.048482336 0.03916917 -0.008878376 0.020185076 -0.025798036
0.0774973 -0.005487074 0.10479993 -0.03419244 0.035592884 -0.0025274523 0.06929488 0.045322742
0.083106674 -0.061824292 0.062990054 -0.019069433 0.11845735 -0.0037728408 0.010989157 0.09785222
-0.072366886 0.038846463 0.058376674 0.017323535 -0.019549279 0.10466931 -0.051458284 0.06977069
0.064367786 0.007486808 -0.03751423 0.060704798 0.0019286835 0.056305464 0.0040715323 0.03352045
0.05095869 0.015433422 0.0934587 0.050414648 0.03276477 0.1506282 0.0027486442 0.04037175
0.051043782 0.026947873 -0.023388399 -0.062360026 0.030760478 -0.07169202 -0.006106325 -0.06636915
0.09634667 0.04049457 0.047400445 0.10354688 0.02580175 0.03904956 0.0033548663 0.13579574
-0.032679554 -0.019934414 0.035634864 0.051360305 -0.024165932 0.0101169245 0.068951055 0.055018723
0.06438803 0.008002769 0.03427719 0.053383876 0.0055870777 -0.0061137746 0.084749945 0.105274744
-0.10637584 0.028931376 0.048152406 0.045276444 -0.046452116 0.08018939 0.09462721 0.11478876
-0.006653024 0.04076984 0.045306742 0.08122569 0.12156537 0.0332699 0.16863194 0.019232895
-0.022965135 -0.054523285 -0.033669896 -0.011726171 0.12622443 0.055290885 0.076338306 0.09859972
-0.010247291 -0.05636752 0.065196015 0.090533 0.06295925 0.20215823 0.050076146 0.056240786
0.014409172 0.056666456 0.06522772 0.107611835 0.026177093 0.039831825 0.05675352 0.065622665
0.021784138 0.05270005 0.017483305 0.024091516 0.025274372 0.087259546 0.007109599 -0.0900234
0.12002352 0.075255446 0.053734206 -0.014845212 0.016052093 -0.0042473027 -0.0058268295 -0.016308935
-0.105835155 0.03690548 0.118434764 -0.049037192 0.033053003 0.01407083 0.06794636 0.014784634
0.04607737 0.11566044 0.008430309 0.058445793 0.077367395 0.052333705 0.0034060832 0.041376945
0.050861247 0.039305102 0.023440901 -0.026096562 0.021157233 0.05436732 0.09463426 0.11576907
-0.005156495 0.073250115 0.20928176 -0.004173196 -0.017340485 -0.0019233286 -0.010588274 -0.0071720365
0.08824985 -0.049272627 0.012850005 -0.06421438 0.014787293 0.08929836 -0.08866892 0.03451492

actor_linear3.bias f4 [8]
00000000: c7ad dbbc 5478 2e3d e263 cd3b 9a3d 81bc
00000010: 5253 b13d 5809 873d e00d ff3c f5ed 993d
-0.026816262 0.042595223 0.0062680105 -0.015776444 0.0865847 0.06593579 0.031134546 0.0751609
